conv_net_model.pth (torch, 136922 bytes, 22 tensors)

weight f4 [16, 3, 3, 3]
0	0xbe3f4d15	-0.18681748
1	0xbda99fbe	-0.082824215
2	0x3e0fc688	0.14040577
3	0x3bfc7ffe	0.0077056875
4	0x3dbaabcc	0.09114799
5	0x3db1ec16	0.08687608
6	0xbd0fa3ab	-0.035068195
7	0x3d559e2d	0.0521528
8	0xbe20eb4c	-0.15714759
9	0x3d0f5523	0.034993302
10	0x3e289795	0.16464074
11	0x3de3da2f	0.111255996
12	0xbdfbfa96	-0.12303655
13	0xbd5d834b	-0.05408029
14	0x3db85517	0.090006046
15	0xbd8c798e	-0.06859122
16	0x3c8df09e	0.01732665
17	0xbe4970d8	-0.19671953
18	0x3c7b5c52	0.015341835
19	0x3e0cb013	0.13739042
20	0xbdb414fb	-0.08793064
21	0x3e2d9404	0.16950995
22	0x3e0caab2	0.1373699
23	0xbcfb1059	-0.030647444
24	0xbd46b9fe	-0.04851722
25	0xbbb13fa7	-0.0054091993
26	0xbe44c095	-0.19214089
27	0xbdd50885	-0.104020156
28	0x3d6780e3	0.0565194
29	0xbe3895cb	-0.18025891
30	0xbe399f64	-0.18127209
31	0x3de7e903	0.1132374
32	0xbd33ae1f	-0.043867227
33	0xbdb82120	-0.08990693
34	0xbd421adf	-0.047388908
35	0xbe4e6120	-0.20154238
36	0xbc77cc80	-0.01512444
37	0x3dc9b4fc	0.09848973
38	0x3df99682	0.1218691
39	0x3d84843b	0.064705335
40	0x3d83b6ed	0.06431375
41	0x3d3226d3	0.043494057
42	0xbccda90c	-0.025105022
43	0x3dd64e2a	0.10464127
44	0x3dd71006	0.10501103
45	0x3e30f233	0.17279892
46	0x3dfa6b85	0.12227539
47	0xbb94489b	-0.004525257
48	0xbe5fd06a	-0.21856847
49	0x3dcce2e3	0.10004213
50	0x3e28f2b4	0.16498834
51	0xbe236541	-0.15956594
52	0xbe4bdb30	-0.19907832
53	0x3dc96f31	0.09835661
54	0xbbc3168a	-0.0059536146
55	0xbe0b2f44	-0.13592249
56	0xbe2589e0	-0.16165876
57	0xbdbc125d	-0.0918319
58	0xbd6de697	-0.058081236
59	0xbe54bfe8	-0.20776331
60	0x3e0fa5f4	0.1402815
61	0x3b3b0d60	0.0028541908
62	0xbdea2174	-0.11432162
63	0xbe4ae02a	-0.19812074
64	0x3de5d760	0.1122272
65	0x3cdaa754	0.026691116
66	0xbdd85449	-0.10562951
67	0x3c606548	0.013696022
68	0x3e24ef47	0.16106902
69	0x3d4f7954	0.050652817
70	0x3d31d211	0.043413226
71	0x3deb0ebf	0.11477422
72	0x3e2ee1d8	0.1707834
73	0x3e078208	0.13233197
74	0xbd65f8f9	-0.056145642
75	0x3d8b3ca3	0.06798675
76	0x3e185725	0.14876993
77	0x3cc8d880	0.024517298
78	0xbe124106	-0.14282617
79	0x3e031bf4	0.12803632
80	0xbd961628	-0.07328445
81	0x3dfc48b3	0.12318554
82	0x3d10b81c	0.03533183
83	0x3d26b6d3	0.0407017
84	0xbcab1f22	-0.020888869
85	0xbe2b6d3d	-0.1674089
86	0x3e267dfd	0.16258998
87	0x3de56082	0.11200048
88	0xbd733192	-0.059373446
89	0xbd57bb4c	-0.052668855
90	0x3e29613d	0.16541
91	0x3d1f4f25	0.038893837
92	0xbe2603c7	-0.16212378
93	0xbdffe3ce	-0.12494622
94	0xbe539396	-0.20661768
95	0xbe0e00e5	-0.13867529
96	0x3e0929c0	0.13394833
97	0x3de08ed7	0.109647445
98	0xbdaea0c4	-0.08526757
99	0xbdc56648	-0.09638649
100	0x3e03cbee	0.12870762
101	0xbe15dc7c	-0.1463489
102	0xbe03d4f9	-0.12874211
103	0xbc354861	-0.01106462
104	0xbbcd28f1	-0.006260984
105	0xbd236301	-0.03988934
106	0x3d6cd6a8	0.0578219
107	0x3e2be422	0.16786245
108	0xbd3dc51c	-0.046330556
109	0xbcaf7488	-0.021417871
110	0xbc8624f8	-0.01637505
111	0x3e17c6fe	0.14822003
112	0x3d40d91f	0.047082063
113	0xbb80d02f	-0.0039310674
114	0x3c9bcd91	0.01901892
115	0x3e1ac9fe	0.15116116
116	0x3daaa891	0.08332933
117	0xbc19f7fd	-0.009397504
118	0x3c862af0	0.016377896
119	0xbe3093c8	-0.17243874
120	0xbd93238b	-0.07184514
121	0xbd91a418	-0.071113765
122	0x3e359b7b	0.17735092
123	0xbe20131f	-0.15632294
124	0xbdb8d859	-0.0902564
125	0x3e43299d	0.19058843
126	0xbc63e444	-0.013909403
127	0xbd95cb7f	-0.073142044
128	0xbcf8077b	-0.030277004
129	0xbd1dd121	-0.03852952
130	0x3e13566c	0.14388436
131	0x3e171666	0.14754638
132	0x3e26aa76	0.16275963
133	0x3d6ce564	0.05783595
134	0xbb7c64ff	-0.0038512347
135	0x3d870ef0	0.06594646
136	0x3b2df043	0.0026540912
137	0xbddb539c	-0.107093066
138	0xbd2354a9	-0.03987566
139	0xbe0e897b	-0.13919632
140	0x3dbc608b	0.091981016
141	0xbd23492a	-0.039864697
142	0xbded69ba	-0.11592431
143	0x3df57991	0.119860776
144	0xbe4dbc6f	-0.20091413
145	0xbd23fb3a	-0.04003451
146	0xbe4ba01e	-0.19885299
147	0x3de77052	0.1130072
148	0x3e1a62f9	0.15076818
149	0x3e1e718b	0.15473
150	0xbd835c06	-0.064140365
151	0x3da0bd5c	0.078486174
152	0x3e39af90	0.18133378
153	0xbdfd8c98	-0.12380332
154	0xbe58d68f	-0.21175598
155	0x3e0a2044	0.13488871
156	0xbe1a5141	-0.15070058
157	0x3d07afef	0.033126768
158	0x3c55e7bc	0.013055738
159	0x3d5ac3e1	0.05340946
160	0x3d98aa31	0.074543364
161	0x3dcecf31	0.100981124
162	0xbd8d66ee	-0.06904398
163	0xbe15780d	-0.14596577
164	0x3e142a7b	0.1446933
165	0xbe35f5a8	-0.17769492
166	0x3d256835	0.040382583
167	0xbd4299a0	-0.04750979
168	0xbce67c68	-0.028135493
169	0x3e1e8433	0.15480117
170	0xbe1ac446	-0.15113935
171	0x391a2f45	0.00014704194
172	0x3d96cf59	0.07363767
173	0x3cba4348	0.02273716
174	0x3e1fdd88	0.15611851
175	0x3e0af62f	0.13570474
176	0xbe162bee	-0.14665195
177	0xbe1927d8	-0.14956605
178	0x3d4c3031	0.049850646
179	0xbdb35bd3	-0.087577485
180	0x3d889197	0.06668394
181	0x3cec9c15	0.02888302
182	0x3a6289ae	0.00086417317
183	0xbe15393e	-0.14572617
184	0x3cf9407d	0.030426258
185	0x3d868e4b	0.06570109
186	0x3e3cd351	0.18439986
187	0x3e2fa26e	0.17151806
188	0xbe36db33	-0.17857055
189	0x3da2a6a5	0.07941941
190	0x3d83fb92	0.064444676
191	0xbcfcaff8	-0.030845627
192	0xbdc9ba68	-0.09850007
193	0xbb8e5c60	-0.004344508
194	0xbe1cfce3	-0.15330844
195	0xbd988560	-0.07447314
196	0xbe44027e	-0.19141576
197	0x3b89bea4	0.0042036343
198	0x3da1bc9e	0.07897304
199	0x3df7b855	0.120957054
200	0x3e133842	0.1437693
201	0x3e2a0cf5	0.16606505
202	0x3d0587ab	0.032600086
203	0x3def0a5d	0.116718985
204	0x3d481cc6	0.048855565
205	0xbdc4c9cb	-0.096088015
206	0xbd9f1cbf	-0.07769155
207	0xbdfd5543	-0.12369778
208	0xbe2e78e4	-0.17038304
209	0xbdce0d27	-0.10061102
210	0x3cb03f87	0.021514667
211	0xbe13935f	-0.14411686
212	0x3e038b57	0.12846123
213	0x3d194404	0.03741838
214	0xbc6f7639	-0.014615589
215	0x3de139eb	0.10997375
216	0x3daa4bfc	0.08315274
217	0xbdd90d0f	-0.10598194
218	0xbe00fb55	-0.12595876
219	0x3cab86bb	0.020938268
220	0x3c8cd4c0	0.01719129
221	0x3d082193	0.033235144
222	0xbbb52937	-0.005528595
223	0xbd896852	-0.06709351
224	0xbdab1821	-0.083542116
225	0x3d5b4ebc	0.053541884
226	0xbcbb1025	-0.022834847
227	0xbdaac3ac	-0.08338103
228	0x3e3dbfe7	0.18530236
229	0xbde398cd	-0.11113129
230	0xbcdaa4a7	-0.02668984
231	0x3d88dae3	0.06682374
232	0x3d7d3b32	0.06182403
233	0xbe4ad000	-0.19805908
234	0x3db7684b	0.08955439
235	0x3e070cef	0.13188528
236	0x3d8627d4	0.06550565
237	0x3da1263e	0.07868622
238	0x3de5cec9	0.11221082
239	0xbde04695	-0.109509625
240	0x3e3173db	0.17329352
241	0xbdcb7f7d	-0.09936426
242	0xbe53fb40	-0.20701313
243	0xbe05ac9e	-0.1305413
244	0x3d412d32	0.047162242
245	0xbc01f98f	-0.007933035
246	0xbc356931	-0.011072443
247	0x3e467eb3	0.1938427
248	0xbe3b5433	-0.18293838
249	0xbe040137	-0.12891088
250	0xbc9156d0	-0.01774159
251	0xbd9e719a	-0.077365115
252	0x3e2b3127	0.16717969
253	0xbd9f571b	-0.07780286
254	0xbd152296	-0.036409937
255	0xbd86beb8	-0.065793455

bias f4 [16]
0	0x3dfa98f4	0.12236205
1	0x3c0833e7	0.008313156
2	0xbe4ddd74	-0.20104009
3	0x3d2ff901	0.042962078
4	0xbd5e439d	-0.0542637
5	0x3d718e95	0.058973867
6	0x3dc1e88d	0.09468184
7	0x3e2fd6d4	0.17171794
8	0xbdbab7a8	-0.09117061
9	0xbe27ad17	-0.16374622
10	0x3e24d32d	0.16096182
11	0xbdbb0101	-0.09131051
12	0x3e2feb55	0.17179616
13	0x3e445283	0.191721
14	0xbd6bc42f	-0.057560142
15	0x3d6b7189	0.057481322

weight f4 [16]
0	0x3f829032	1.0200255
1	0x3f86909d	1.0512882
2	0x3f77e581	0.9683457
3	0x3f81ac11	1.0130635
4	0x3f657f06	0.8964695
5	0x3f8c4893	1.0959648
6	0x3f81cabe	1.0139997
7	0x3f76d0c7	0.9641232
8	0x3f868deb	1.051206
9	0x3f687337	0.90800804
10	0x3f870ff5	1.0551745
11	0x3f854df0	1.041441
12	0x3f6f6de7	0.9352707
13	0x3f84c05b	1.0371202
14	0x3f7c6104	0.98585534
15	0x3f7b9843	0.9827921

bias f4 [16]
0	0x3d5fa47b	0.05460022
1	0x3d8339fa	0.064075425
2	0xbc24cc24	-0.010058437
3	0xbb3b9c36	-0.0028627045
4	0x3d12efd5	0.035873253
5	0x3e00254d	0.12514229
6	0x3d7bf61e	0.061514013
7	0xbd964ef5	-0.073392786
8	0x3d251148	0.040299684
9	0x3d66454b	0.056218427
10	0xbc3d59b5	-0.011557032
11	0x3d38ab06	0.045084976
12	0x3cf4ad54	0.029867806
13	0xbdf260d6	-0.11834876
14	0xbe02b63f	-0.12764834
15	0x3d892748	0.066969454

running_mean f4 [16]
0	0x3deb09bd	0.11476467
1	0xbd0dc65d	-0.034613002
2	0xbe7cc2e4	-0.2468372
3	0x3dde09de	0.10841726
4	0xbe520ac1	-0.20511915
5	0x3d866aac	0.06563315
6	0x3d952f91	0.07284463
7	0x3e2f1d0f	0.17100929
8	0xbdbd083e	-0.09230088
9	0xbe8485fa	-0.25883466
10	0x3e29ac14	0.16569549
11	0xbd8dfd44	-0.06933072
12	0x3e452942	0.1925402
13	0x3e53ff8f	0.20702957
14	0x3e3a978d	0.18221875
15	0x3dddd3b9	0.108313985

running_var f4 [16]
0	0x3ccd71e2	0.025078718
1	0x3d261735	0.040549476
2	0x3cd5c81a	0.026096392
3	0x3c92a4de	0.01790088
4	0x3db272e8	0.08713323
5	0x3d3838f4	0.04497619
6	0x3c504de6	0.012713885
7	0x3c3aabfa	0.0113935415
8	0x3d5a58f4	0.05330749
9	0x3cb0e1fd	0.021592135
10	0x3cd8a0c9	0.026443856
11	0x3d4efbcf	0.050533112
12	0x3ca4e029	0.02012642
13	0x3ce135e2	0.027491514
14	0x3e059679	0.13045682
15	0x3c86337b	0.01638197

weight f4 [32, 16, 3, 3]
0	0xbdaff5a8	-0.08591777
1	0xbc80c183	-0.015717274
2	0xbcc26548	-0.023729935
3	0xbdfa5aab	-0.12224325
4	0xbd99e8cf	-0.07515108
5	0x3cb17e9a	0.021666814
6	0xbd8d3d77	-0.06896489
7	0x3c303c3f	0.010756551
8	0xbda14601	-0.0787468
9	0xbe09e1dc	-0.13465065
10	0xbd5dbc02	-0.054134376
11	0xbd961ca5	-0.07329682
12	0x3d2e0ca5	0.042492528
13	0xbdaa1846	-0.08305411
14	0xbd928f55	-0.07156245
15	0x3cb61513	0.022226846
16	0xbd7e1068	-0.062027365
17	0xbd2e37a9	-0.04253355
18	0x3ce03c33	0.027372455
19	0x3d81192c	0.06303629
20	0xbcaeb38e	-0.021325853
21	0x3d1245f1	0.035711233
22	0x3d47c2f7	0.048769917
23	0xbcbfb3f9	-0.023401247
24	0xbcefa77f	-0.029254673
25	0x3d22c409	0.039737735
26	0xbd6ba891	-0.057533804
27	0x3a6b39fb	0.00089731783
28	0x3d3881b5	0.045045573
29	0x3d9b4bdf	0.07582831
30	0xbdbdeb66	-0.09273414
31	0x3bb8bdf8	0.0056378804
32	0xbdd2b830	-0.10289037
33	0xbdefe416	-0.11713426
34	0xbd2f3113	-0.04277141
35	0xbd2df4ac	-0.042469665
36	0x3c779110	0.015110269
37	0xbccea359	-0.025224375
38	0x3d0d547c	0.0345044
39	0xbdbfc125	-0.09363011
40	0xbdbfe643	-0.09370091
41	0xbadb3f9a	-0.0016727329
42	0x3d0288ec	0.03186886
43	0xbc6b1c0e	-0.0143499505
44	0x3c80c1e8	0.015717462
45	0x3daa6a8f	0.08321106
46	0x3cdedda1	0.02720529
47	0x3d429075	0.047501046
48	0x3d5113f9	0.051044438
49	0x3dbb413b	0.09143301
50	0xbcb9a6dd	-0.022662574
51	0xbd83e26a	-0.064396694
52	0xbd94f0d2	-0.07272495
53	0xbd329197	-0.043595877
54	0xbd5addd3	-0.053434204
55	0xbd1a171b	-0.03761969
56	0x3cc4571c	0.023967318
57	0xbd6a66ba	-0.057226874
58	0xbd687cdc	-0.0567597
59	0x3d8d3f0c	0.06896791
60	0xbd50ac2a	-0.05094544
61	0x3d0c049c	0.034184083
62	0xbc93bcf2	-0.018034432
63	0xbb8cd51e	-0.0042978665
64	0x3d578f27	0.052626755
65	0x3cac76ba	0.021052707
66	0xbc2f332a	-0.010693351
67	0xbd5515e5	-0.052022833
68	0x3b7ca72f	0.0038551798
69	0xbbe4bdda	-0.00698064
70	0x3ce6c134	0.028168298
71	0x3d2eaeeb	0.042647284
72	0x3d833b24	0.064077646
73	0xbdc7ad2e	-0.09749828
74	0xbd355b8d	-0.044276763
75	0xbd4d97bf	-0.050193544
76	0xbd638443	-0.055546056
77	0x3d5f511f	0.054520722
78	0xbc5a5f70	-0.013328418
79	0x3d68fb79	0.056880448
80	0x3dbe2f0f	0.092863195
81	0x3c510cd7	0.012759409
82	0xbdc61ac9	-0.096730776
83	0x3c6a9aa2	0.014319094
84	0x3c951731	0.018199535
85	0xbd4e235d	-0.050326694
86	0x3c29febb	0.010375674
87	0x3d11f198	0.035630792
88	0xbcbd140e	-0.023080852
89	0xbd367a90	-0.04455048
90	0x3d5b9324	0.05360712
91	0x3d8d80af	0.0690931
92	0x3d75dfee	0.06002801
93	0xbdb7e172	-0.08978547
94	0x3c844512	0.016146217
95	0xbe070961	-0.13187172
96	0xbc477133	-0.012172985
97	0xbd105e4f	-0.03524619
98	0xbce99823	-0.028514927
99	0x3c94da8d	0.01817062
100	0xbd993a1b	-0.07481786
101	0xbd259549	-0.040425573
102	0xbce9b4ed	-0.028528655
103	0xbd30e6f5	-0.043189008
104	0xbd1a49b6	-0.037667952
105	0x3db08f58	0.08621091
106	0xbda91c1f	-0.08257317
107	0x3c9374e6	0.018000077
108	0xbcd88a93	-0.026433265
109	0x3d7375df	0.059438583
110	0x3c9d86c8	0.019229308
111	0xbd623131	-0.055222694
112	0xbc068e34	-0.008212615
113	0xbcf5dbc2	-0.030012015
114	0x3c2718a7	0.010198749
115	0x3ce70b2f	0.028203575
116	0x3d753f37	0.05987474
117	0x3dc186a4	0.09449509
118	0x3d8c818b	0.06860646
119	0x3da5a383	0.08087828
120	0x3dbd0ec5	0.09231333
121	0xbd7e844b	-0.062137883
122	0x3d1ff7cc	0.039054677
123	0xbd84e853	-0.06489625
124	0xbd71e863	-0.059059512
125	0xbc899134	-0.016792871
126	0x3cc33cef	0.023832766
127	0x3d800903	0.06251719
128	0xbc4130ac	-0.011791389
129	0xbc9b2790	-0.018939763
130	0x3c88c88b	0.016697189
131	0x3c9ca2d0	0.019120604
132	0x3cedc86f	0.029026238
133	0xbd8914a5	-0.06693391
134	0xbd87def4	-0.06634322
135	0xbccd7a27	-0.02508266
136	0x3d3d2e24	0.04618658
137	0xbd6cf2a5	-0.05784859
138	0xbda771fc	-0.08176038
139	0xbdc71c34	-0.09722176
140	0xbdaaab3d	-0.08333442
141	0xbc3f5b9c	-0.011679556
142	0xbd6933e1	-0.05693424
143	0xbd576947	-0.052590635
144	0xbd8ac9b7	-0.06776755
145	0xbd9e8be0	-0.07741523
146	0xbdd7f946	-0.10545592
147	0xbdce9e16	-0.10088746
148	0xbc8f56db	-0.01749747
149	0x3cc821e2	0.02443022
150	0xbda0bf37	-0.07848971
151	0xbd410cde	-0.04713141
152	0xbd48a612	-0.048986502
153	0x3cf10c00	0.029424667
154	0x3cf32b80	0.029683828
155	0x3d79f46c	0.061024114
156	0xbd304f60	-0.043044448
157	0xbce0ac3c	-0.027425878
158	0x3d423d8c	0.047421977
159	0xbcfc079d	-0.030765349
160	0x3dba25c5	0.09089235
161	0xbdd47f47	-0.10375839
162	0x3d0bbd89	0.0341163
163	0xbb4c6bb9	-0.0031192137
164	0x3db1b636	0.08677332
165	0xbbc1db5d	-0.0059160427
166	0xbc889572	-0.016672824
167	0xbdaf3528	-0.085550606
168	0xbd04a83f	-0.032387014
169	0x3d81f287	0.063450865
170	0x3d5cb50f	0.05388361
171	0x3d6a0d42	0.05714155
172	0xbdfe7f5d	-0.12426636
173	0xbd8be9ea	-0.06831725
174	0xbd41ce4c	-0.04731588
175	0xbc174886	-0.0092335995
176	0xbc6750b2	-0.01411836
177	0xbda8dab4	-0.08244839
178	0xbde5273c	-0.11189124
179	0xbcd3e9b8	-0.025868282
180	0xbca15b83	-0.019696957
181	0xbd0ec1eb	-0.034852903
182	0xbd6921de	-0.056917064
183	0x3c103bce	0.008803321
184	0xbc2dc0d1	-0.010605053
185	0x3d8add95	0.06780545
186	0xbd03ff1e	-0.03222572
187	0xbdaed004	-0.085357696
188	0xbc65594d	-0.013998342
189	0xbd560307	-0.05224898
190	0xbdb078c3	-0.086167835
191	0x3cab3bf3	0.02090261
192	0xbd63f9d8	-0.05565819
193	0xbd90a58b	-0.07062825
194	0x3d20f41f	0.039295312
195	0xbd9a5957	-0.075365715
196	0xbc320172	-0.010864602
197	0x3da1178b	0.078658186
198	0x3d24eed5	0.04026683
199	0xbd24eedd	-0.04026686
200	0xbc8d1ac0	-0.01722467
201	0x3d1dd462	0.038532622
202	0x3cc75d6d	0.024336541
203	0xbdad136a	-0.084509686
204	0xbda46172	-0.08026399
205	0xbcb31d97	-0.021864695
206	0xbd10a591	-0.035314146
207	0xbda7de56	-0.08196704
208	0x3c8cc1ba	0.01718222
209	0xbd5384b5	-0.05164023
210	0xbbea7d74	-0.0071560685
211	0xbd287bb7	-0.04113361
212	0xbd560ecb	-0.0522602
213	0x3c0e5a1a	0.008688474
214	0x3ba606ef	0.0050667445
215	0xbdadb700	-0.0848217
216	0x3d406bec	0.046977922
217	0xbd3096cb	-0.043112557
218	0x3c17ca50	0.009264544
219	0x3c7cf2a1	0.015438707
220	0xbd6d260b	-0.05789761
221	0x3d9c0a12	0.07619108
222	0xb966a193	-0.000219947
223	0xbd3fc36d	-0.046817232
224	0x3c16909c	0.009189751
225	0x3d30d10f	0.043168124
226	0x3c82daa4	0.015973397
227	0xbd87faa0	-0.066396
228	0xbd45c724	-0.04828562
229	0x3cd18b18	0.02557902
230	0x3d2e233a	0.042514063
231	0x3d528221	0.05139363
232	0x3d22d9c8	0.039758474
233	0xbd1004ed	-0.035160948
234	0xbdc123a3	-0.09430625
235	0xbc9909c1	-0.018681409
236	0xbcf81607	-0.030283941
237	0x3c19ebe4	0.00939462
238	0xbdb5f26f	-0.08884131
239	0xbae7397e	-0.0017641035
240	0xbbf0c1ed	-0.0073473365
241	0xbd0519d8	-0.03249535
242	0xbdb8a81c	-0.09016439
243	0xbc960d1d	-0.0183168
244	0x3d4bfd33	0.049802016
245	0x3c8a7b3e	0.01690447
246	0xbc99b943	-0.018765097
247	0x3cef020d	0.029175783
248	0xbd1e9407	-0.03871539
249	0xbcad5845	-0.021160254
250	0xbb4f5dcb	-0.0031641598
251	0xbd03870e	-0.03211122
252	0x3c92c573	0.017916417
253	0xbc38a6bd	-0.011270222
254	0x3c436edc	0.011928286
255	0x3d9873d5	0.07443968

bias f4 [32]
0	0xbcff209c	-0.031143479
1	0xbd5c2042	-0.0537417
2	0xbd7460f8	-0.05966279
3	0x3cab9271	0.020943852
4	0x3c1cc8af	0.009569331
5	0x3cfc417b	0.030792942
6	0xbd1ddd52	-0.038541146
7	0x3d2b9824	0.04189314
8	0x3b5e2de5	0.0033901867
9	0xbd203d98	-0.03912124
10	0x3d9fa490	0.0779506
11	0x3d7e4095	0.06207331
12	0xba4f2fc7	-0.0007903543
13	0xbd51fd76	-0.05126711
14	0x3b87a119	0.0041390774
15	0xbd94ad2e	-0.07259594
16	0x3d7e87b3	0.06214113
17	0xbd405004	-0.04695131
18	0xbd42a60f	-0.047521647
19	0x3b00913b	0.0019617814
20	0x3ccdae96	0.025107663
21	0xbcb534d9	-0.022119926
22	0xbd9d5ee1	-0.07684112
23	0x3d163293	0.036669325
24	0xbd9bfbdd	-0.076163985
25	0xbc5a7677	-0.013333908
26	0xbd541e12	-0.05178649
27	0xbbfff708	-0.007811431
28	0x3d94720f	0.072483175
29	0x3cc09759	0.023509668
30	0xbbd23ed1	-0.0064161797
31	0xbd2383b6	-0.03992053

weight f4 [32]
0	0x3f92309c	1.1421084
1	0x3f86ab01	1.0520936
2	0x3f7ae830	0.9801054
3	0x3f84b267	1.0366944
4	0x3f83cb2f	1.0296382
5	0x3f7313fd	0.94952375
6	0x3f5edaf2	0.87052834
7	0x3f84947a	1.0357811
8	0x3f703597	0.9383177
9	0x3f7e0a57	0.9923453
10	0x3f7bb6f9	0.9832607
11	0x3f8308da	1.0237076
12	0x3f81528c	1.0103316
13	0x3f72d86c	0.94861484
14	0x3f728de5	0.94747764
15	0x3f84ac22	1.0365031
16	0x3f84e10d	1.038118
17	0x3f828287	1.0196084
18	0x3f748e92	0.95530045
19	0x3f8b2a01	1.0872194
20	0x3f76834f	0.9629411
21	0x3f71db47	0.94475216
22	0x3f8aaf4b	1.0834745
23	0x3f75a626	0.9595665
24	0x3f6a655e	0.91560924
25	0x3f7f5369	0.9973665
26	0x3f834d65	1.0257994
27	0x3f7ae07c	0.97998786
28	0x3f65e187	0.8979725
29	0x3f6e339f	0.9304752
30	0x3f67eb43	0.90593356
31	0x3f882487	1.0636147

bias f4 [32]
0	0xbe24b2b1	-0.1608379
1	0xbe69f290	-0.22846437
2	0xbe0fe2ba	-0.14051333
3	0xbe4db0e3	-0.20087008
4	0xbe28f4bb	-0.16499607
5	0xbdf7a313	-0.12091651
6	0xbd2add53	-0.041714977
7	0xbe3220f1	-0.17395379
8	0xbe0d49bd	-0.1379766
9	0xbe59085d	-0.21194597
10	0xbe14e260	-0.1453948
11	0xbdf08fb0	-0.11746156
12	0xbe35f610	-0.17769647
13	0xbdfef403	-0.12448885
14	0xbd2ccfe8	-0.042190462
15	0xbe27883e	-0.16360566
16	0xbcdfc019	-0.027313279
17	0xbcfd5b98	-0.030927464
18	0xbe46f2bd	-0.19428535
19	0xbe6fda30	-0.23423076
20	0xbe2c7db1	-0.16844822
21	0xbe0a9efa	-0.13537207
22	0xbe8179ee	-0.25288337
23	0xbe01b45f	-0.12666462
24	0xbe0049c6	-0.12528142
25	0xbdcaae85	-0.09896568
26	0xbe1d478b	-0.15359323
27	0xbd5ff828	-0.05468002
28	0xbe10a32e	-0.14124748
29	0xbdc99191	-0.09842218
30	0xbd57dc2f	-0.052700218
31	0xbe0525e3	-0.13002734

running_mean f4 [32]
0	0xbf8f40b0	-1.1191616
1	0xbf447853	-0.767461
2	0xbf6762cd	-0.90385133
3	0xbeaf3147	-0.34217283
4	0xbf3fcd50	-0.74922657
5	0xbf216cd1	-0.63056666
6	0xbf02078d	-0.5079277
7	0xbf152b73	-0.58269423
8	0xbf4be86c	-0.7965152
9	0xbf95319a	-1.1655762
10	0xbf1c4859	-0.61047894
11	0xbeeb3a73	-0.4594303
12	0xbf1f4274	-0.62210774
13	0xbf49cb37	-0.78825706
14	0xbf586279	-0.8452526
15	0xbf49bdbf	-0.78805155
16	0xbecb1b99	-0.39669493
17	0xbef6dbcf	-0.48214576
18	0xbf2257ef	-0.63415426
19	0xbf260390	-0.64849186
20	0xbf501af3	-0.8129112
21	0xbe6955db	-0.22786658
22	0xbf80660b	-1.0031141
23	0xbec521b4	-0.38502276
24	0xbdab5b23	-0.08366992
25	0xbee5c586	-0.4487726
26	0xbea4ddab	-0.3220037
27	0xbf27eef4	-0.6559899
28	0xbf270f84	-0.6525805
29	0xbf020e1f	-0.508028
30	0xbeaead8a	-0.34116775
31	0xbf87d102	-1.0610659

running_var f4 [32]
0	0x3f18f8ce	0.59754646
1	0x3e9a0490	0.30081606
2	0x3f20817b	0.6269757
3	0x3e87b256	0.26503247
4	0x3e9f8bdd	0.31161395
5	0x3e8cd4ca	0.27506095
6	0x3ea29a00	0.31758118
7	0x3e936a46	0.28792018
8	0x3f0d693d	0.55238706
9	0x3f258810	0.6466074
10	0x3f2ab015	0.6667493
11	0x3e8427d2	0.2581163
12	0x3ec309fc	0.38093555
13	0x3e87994f	0.26484153
14	0x3eaa85a0	0.33305073
15	0x3eb20a91	0.34773687
16	0x3ec3831f	0.38185975
17	0x3e88f12b	0.26746497
18	0x3f013116	0.50465524
19	0x3eb47a4d	0.35249558
20	0x3eed7003	0.4637452
21	0x3ed64e64	0.41856682
22	0x3f1415f8	0.5784602
23	0x3eb9bbe8	0.36276174
24	0x3eba7329	0.36415985
25	0x3eff7523	0.49894056
26	0x3ea56d60	0.3231001
27	0x3e734c36	0.23759541
28	0x3ef222f6	0.47292298
29	0x3e4cfae5	0.20017584
30	0x3ecf7c1a	0.4052437
31	0x3f069e3b	0.5258519

weight f4 [32, 32, 3, 3]
0	0x3dac0af2	0.08400525
1	0xbd37c398	-0.044864267
2	0xbbe8b8ae	-0.0071020937
3	0x3d667b9e	0.056270234
4	0xbdf61d5b	-0.12017318
5	0xbc3ed007	-0.011646277
6	0x3d4679ef	0.04845613
7	0xbc45b2b5	-0.012066533
8	0xbdb2179d	-0.0869591
9	0x3b0e3c3e	0.0021703388
10	0xbd2bcbdf	-0.041942474
11	0xbd2e1ef6	-0.042509995
12	0xbcd827b6	-0.026386123
13	0x3d0ca298	0.03433475
14	0x3d9258be	0.071458325
15	0xbcdbc9ee	-0.026829686
16	0xbc2bb319	-0.010479712
17	0x3dae9a6d	0.08525548
18	0x3dc3e485	0.09565071
19	0x3be65e46	0.0070302812
20	0x3cdfd64f	0.02732387
21	0xbd08b00c	-0.033371016
22	0xbd86f7f2	-0.065902606
23	0x3c313027	0.010814703
24	0x3d0eca09	0.034860644
25	0xbd4f68d0	-0.050637066
26	0xbcd1bcff	-0.025602816
27	0xbd2e5da4	-0.04256977
28	0x3df5cdec	0.12002167
29	0xbd304a6a	-0.043039717
30	0xbd017d17	-0.031613436
31	0x3d0182dd	0.03161894
32	0xbd621f18	-0.055205435
33	0x3d52e134	0.0514843
34	0x3d89ba86	0.0672503
35	0xbd4309fb	-0.04761694
36	0xbc8f2ade	-0.017476495
37	0xbcca5664	-0.024699397
38	0xbd1928a9	-0.037392292
39	0xbd9ac1ea	-0.075565174
40	0x3d58563b	0.05281661
41	0x3b486d9a	0.0030582906
42	0xbc028395	-0.007965942
43	0x3c77526e	0.015095336
44	0x3d1b9896	0.037987314
45	0xbc87d29a	-0.016579915
46	0x3d0c716e	0.034287862
47	0xbdaf5e94	-0.08562961
48	0x3d582084	0.052765384
49	0x3d3bed25	0.045880456
50	0x3dca9a07	0.0989266
51	0xbd048440	-0.032352686
52	0xbc51eb45	-0.01281244
53	0x3d047ec7	0.032347467
54	0xbd92c461	-0.071663626
55	0xbbf2707e	-0.007398664
56	0xbd166e20	-0.036726117
57	0xbc7eca06	-0.015551096
58	0xbd5fb026	-0.054611348
59	0x3d6e5ccb	0.058193963
60	0x3c2bf6c2	0.010495843
61	0xbcf8ca0a	-0.030369777
62	0x3c578e0e	0.013156427
63	0x3c6bc989	0.014391311
64	0xba9f2ead	-0.0012144648
65	0xbce2c73a	-0.02768289
66	0x3da4f5fc	0.0805473
67	0x3e061880	0.13095284
68	0x3ab197ce	0.001354927
69	0xbbb237d4	-0.005438784
70	0xbd9348fa	-0.071916535
71	0x3ba714c7	0.0050989124
72	0xbc1a5e0e	-0.009421838
73	0xbc26eed5	-0.010188778
74	0xbcf9d6ae	-0.030497875
75	0x3d44832b	0.047976654
76	0x3cf0171c	0.029307894
77	0x3d66705d	0.0562595
78	0x3ae60705	0.0017549699
79	0x3d6a90b3	0.057266902
80	0x3db54fbc	0.08853099
81	0x3d30329e	0.043017022
82	0xbc2b29d1	-0.0104469815
83	0x3b294caa	0.002583305
84	0xbd8decfc	-0.06929967
85	0xbc92e1eb	-0.017929992
86	0x3ae6f817	0.0017621544
87	0x3d24b9bd	0.040216196
88	0xbc8cdc19	-0.017194794
89	0xbd167d23	-0.036740433
90	0x3b0c3d81	0.0021398964
91	0xbd291fb9	-0.04129002
92	0x3d08bf42	0.033385523
93	0x3d010edd	0.031508315
94	0xbcd495b7	-0.025950296
95	0x3d0e903c	0.03480552
96	0x3b7f50ac	0.0038957996
97	0xbca58067	-0.020202829
98	0x3d9cf867	0.076645665
99	0x3cc50831	0.024051758
100	0xbe161654	-0.14656955
101	0xbd895044	-0.067047626
102	0x3d303aaa	0.043024696
103	0x3d3b55bb	0.045736056
104	0xbd17bb1a	-0.03704367
105	0x3d761d03	0.06008626
106	0xbcad8343	-0.021180755
107	0x3cdda839	0.027057754
108	0x3c17ca7e	0.0092645865
109	0x3c917f02	0.017760757
110	0x3c8c198c	0.017102025
111	0x3ced9977	0.029003842
112	0xbc100303	-0.008789781
113	0x3bf1701a	0.0073681
114	0xbc8c3261	-0.017113866
115	0xbd6fd1ec	-0.058549806
116	0xbad42833	-0.0016186297
117	0x3cf3bccc	0.029753111
118	0xbb574e33	-0.0032853007
119	0x3cabb222	0.020958964
120	0x3c0ada33	0.008474874
121	0x3c4f942c	0.012669604
122	0x3da2e915	0.07954613
123	0x3c40b636	0.0117621925
124	0xbd7e8038	-0.062133998
125	0xbcb143e5	-0.02163882
126	0xb977bcff	-0.00023626162
127	0x3d7a5b13	0.06112201
128	0x3d87c3cf	0.066291444
129	0x3c2e6355	0.0106438
130	0xbbc8f708	-0.006132964
131	0xbca975cf	-0.020686058
132	0x3ce9547c	0.028482668
133	0x3c98dbd4	0.01865951
134	0xbc82c418	-0.015962645
135	0xbd8004f3	-0.06250944
136	0x3c1367d9	0.008996927
137	0xbd2425d4	-0.04007514
138	0xbddd5ff5	-0.10809318
139	0x3d5518da	0.052025653
140	0x3dcbe683	0.09956076
141	0xbcb46aad	-0.022023523
142	0x3d34e213	0.044160914
143	0x3da341c0	0.07971525
144	0x3d123a85	0.03570034
145	0xbbf40dd7	-0.007447939
146	0xbd11a9b8	-0.035562247
147	0x3d470d8e	0.04859691
148	0x3d3338d2	0.04375536
149	0xbd0bb314	-0.03410633
150	0xbbb88385	-0.0056309127
151	0x3cfb19fc	0.030652039
152	0xbd0a6e8f	-0.033796843
153	0xbcaa906a	-0.020820815
154	0xbce13197	-0.027489467
155	0x3d12a2e5	0.03579988
156	0xbdb94617	-0.09046572
157	0x3dd172d1	0.102269776
158	0xbcd07d86	-0.02545048
159	0x3bca7537	0.006178524
160	0xbd229de6	-0.039701365
161	0x3cadbfdf	0.021209655
162	0x3b199c8d	0.0023439259
163	0x3a2c4abb	0.0006572415
164	0xbceced7d	-0.028921837
165	0xbcac3609	-0.02102186
166	0xbdb8ef37	-0.090300016
167	0x3d1648c4	0.03669049
168	0xbc9697ec	-0.018382989
169	0xbd23a6a7	-0.039953854
170	0x3d5214c8	0.05128935
171	0xbac72c9f	-0.0015195793
172	0x3c588fca	0.013217876
173	0x3b8aee96	0.0042398674
174	0xbc53bd40	-0.012923539
175	0x3bb2d43a	0.0054574283
176	0xbd94f90d	-0.07274065
177	0xbd1ee1aa	-0.03878943
178	0x3b2d5f05	0.002645434
179	0xbc9ff892	-0.019527707
180	0xbc947f70	-0.018127173
181	0xbd0011a1	-0.031266812
182	0x3df39655	0.11893908
183	0x3d02d434	0.031940654
184	0xbce34ddb	-0.027747085
185	0xbc23de72	-0.010001766
186	0xbd84cb1f	-0.06484055
187	0xbc7ca315	-0.015419741
188	0xbcb4e923	-0.022083825
189	0x3c0e23a3	0.008675489
190	0xbd4b31fa	-0.04960821
191	0x3d70082e	0.05860155
192	0x3ca2a5e7	0.019854499
193	0x3c8ee179	0.017441498
194	0xbb957ecd	-0.004562235
195	0xbd0b3b14	-0.03399189
196	0x3b96e957	0.004605453
197	0xbd13290e	-0.035927825
198	0xbcca2e0d	-0.024680162
199	0xbd14d2a7	-0.036333706
200	0xbcfb8472	-0.030702803
201	0x3ccef670	0.025263995
202	0x3c5bf069	0.0134240175
203	0xbbd3d601	-0.0064647202
204	0x3d7306d6	0.05933269
205	0xbd658bde	-0.05604159
206	0xba60f34d	-0.00085811765
207	0xbab141b0	-0.0013523605
208	0x3cf6406d	0.030060017
209	0xbc11c2aa	-0.008896509
210	0xbc3148a7	-0.010820544
211	0xbdd73d7c	-0.10509774
212	0xbd1e7319	-0.038683984
213	0x3b60ef4a	0.0034322315
214	0x3dcbd206	0.09952168
215	0xbba3edb6	-0.0050027026
216	0x3cd8f2c1	0.026482942
217	0xbbfe358a	-0.007757847
218	0x3cf89423	0.030344075
219	0xbdb56f70	-0.08859146
220	0xbcb3c49d	-0.021944338
221	0x3d885f02	0.06658746
222	0xbd2fd475	-0.042927224
223	0x3d4f3196	0.0505844
224	0xbd6880e5	-0.05676355
225	0x3c6b86bf	0.014375388
226	0x3cc4fc4c	0.024046086
227	0xbc8d8d79	-0.017279373
228	0xbcf5c21a	-0.029999781
229	0x3c96eb90	0.018422872
230	0xbdb555ee	-0.088542804
231	0x3d3c22ad	0.045931507
232	0x3be76116	0.007061134
233	0xbcd3cec8	-0.025855437
234	0xbd2b6f09	-0.04185394
235	0xbca12713	-0.019671952
236	0xbd6ceb66	-0.05784168
237	0x3d8cf7d7	0.06883209
238	0x3c64f1b6	0.013973644
239	0xbca2f59a	-0.019892503
240	0x3b4ffea1	0.0031737464
241	0xbd3cba4b	-0.0460761
242	0xbc1a4e36	-0.009418061
243	0x3d6c4a7c	0.05768822
244	0xbd3b236e	-0.045688085
245	0x3d6a0b97	0.05713996
246	0x3d5e45b5	0.054265697
247	0x3add5f16	0.00168893
248	0xbd17eb88	-0.037089854
249	0x3d800e01	0.06252671
250	0x3c1c5474	0.00954162
251	0x3cd6a042	0.026199464
252	0x3cde5414	0.027139701
253	0x3d5df316	0.054186903
254	0x3d8543a9	0.06507046
255	0xbbd16cc0	-0.006391138

bias f4 [32]
0	0x3d445610	0.047933638
1	0xbc31daa4	-0.010855351
2	0xbceabedd	-0.028655464
3	0x3cc8f926	0.024532866
4	0x3ce395c2	0.027781371
5	0x3c668d20	0.014071733
6	0xbc39eada	-0.011347497
7	0x3cf36530	0.029711336
8	0x3c78db17	0.015188954
9	0x3d4c75aa	0.0499169
10	0xbc1cc45b	-0.009568299
11	0xbb13e8ac	-0.0022569103
12	0x3d159955	0.036523182
13	0x3c81f24d	0.015862608
14	0xbc8b3e1b	-0.016997388
15	0x3d30c463	0.04315604
16	0x3cb019e9	0.02149673
17	0xbd045c0d	-0.03231435
18	0x3c163d45	0.009169881
19	0x3d101f21	0.035185937
20	0xbb9451a8	-0.0045263357
21	0x39619d3b	0.00021516245
22	0x3acc0750	0.0015566144
23	0x3b983d37	0.0046459693
24	0x3d1a5c6a	0.03768579
25	0x3cfd2abd	0.030904168
26	0x3c17e358	0.009270512
27	0xbd876ddd	-0.06612752
28	0x3c413e3a	0.011794621
29	0xbd712dca	-0.05888156
30	0x3d196593	0.037450384
31	0xbd2fdba1	-0.042934064

weight f4 [32]
0	0x3f9f25a7	1.2433366
1	0x3f96034b	1.1719755
2	0x3f96662a	1.1749928
3	0x3f9cc3b4	1.2247224
4	0x3f9d43f6	1.2286365
5	0x3f9ad02b	1.2094778
6	0x3f9c21c9	1.219781
7	0x3fa2faba	1.2732766
8	0x3f972098	1.1806822
9	0x3f8cb68a	1.0993207
10	0x3f9ea0d2	1.2392828
11	0x3fa069b6	1.253226
12	0x3f9ca60a	1.2238171
13	0x3f9b41cc	1.2129455
14	0x3fa1f805	1.2653815
15	0x3f94b005	1.1616217
16	0x3fa40f40	1.2817154
17	0x3f97f9e9	1.1873142
18	0x3fa36b74	1.2767167
19	0x3fa04ac4	1.2522817
20	0x3f9712b8	1.1802588
21	0x3f9a2ed8	1.2045546
22	0x3fa67ef3	1.3007492
23	0x3f8e612a	1.1123402
24	0x3f9bc7c2	1.2170336
25	0x3f9e1f6e	1.2353342
26	0x3f99023c	1.1953807
27	0x3f9d84c0	1.2306137
28	0x3f9a399d	1.2048832
29	0x3fa10251	1.2578832
30	0x3f9ba4a7	1.2159623
31	0x3f994dcd	1.1976868

bias f4 [32]
0	0xbde7377f	-0.11289882
1	0xbdca4521	-0.098764665
2	0xbda43c99	-0.080193706
3	0xbd6e0e5f	-0.058119174
4	0xbd9e5cd0	-0.07732546
5	0xbced0e6a	-0.028937537
6	0xbe020797	-0.12698208
7	0xbdab7dad	-0.0837358
8	0xbdc9b1b9	-0.09848351
9	0xbd8c02f7	-0.06836503
10	0xbdcdeac0	-0.10054541
11	0xbde57bc1	-0.11205245
12	0xbdbd89aa	-0.09254773
13	0xbd41ae56	-0.0472854
14	0xbd8432f7	-0.06455033
15	0x3c33e564	0.010979984
16	0xbe030f8b	-0.12798898
17	0xbd8407e9	-0.06446821
18	0xbe281e11	-0.1641772
19	0xbdad0fb9	-0.084502645
20	0xbd61c14c	-0.055115983
21	0xbde0905e	-0.10965036
22	0xbda83946	-0.08214049
23	0xbda756cd	-0.08170853
24	0xbd7f6c17	-0.062358942
25	0xbdd38d54	-0.103296906
26	0xbdbab4e5	-0.09116534
27	0xbe104127	-0.14087354
28	0xbd86957f	-0.06571483
29	0xbdfabbe1	-0.12242866
30	0xbe05f353	-0.13081102
31	0xbde5a0e5	-0.11212329

running_mean f4 [32]
0	0x3d57ca1e	0.05268299
1	0xbd1b3a36	-0.03789731
2	0xbdfab8b9	-0.12242264
3	0xbcc5b31d	-0.02413326
4	0x3e4a55dd	0.19759317
5	0xbe52424a	-0.205331
6	0xbe0c85be	-0.13722894
7	0x3e0e7b29	0.1391417
8	0x3dea93d8	0.1145398
9	0xbe82757e	-0.25480264
10	0x3e20fff7	0.15722643
11	0xbe1b4e44	-0.15166575
12	0x3e4b6540	0.19862843
13	0x3dc19b77	0.09453481
14	0x3d32ea94	0.043680742
15	0xbe8ef130	-0.27918386
16	0x3e615fff	0.22009276
17	0x3ea57a17	0.3231971
18	0x3df704e6	0.12061481
19	0xbcf0bdfd	-0.029387468
20	0x3dab3e04	0.08361438
21	0x3e99a796	0.3001067
22	0xbe4f3e56	-0.20238623
23	0x3e249b47	0.16074859
24	0xbe2add5b	-0.16686003
25	0xbe24747f	-0.16060065
26	0xbd9c9a38	-0.076466024
27	0x3e8eac5b	0.27865872
28	0xbc93bff8	-0.018035874
29	0x3e78e404	0.24305731
30	0x3e765c73	0.24058704
31	0x3e0fc351	0.14039351

running_var f4 [32]
0	0x3dfd9251	0.12381423
1	0x3e275e40	0.16344547
2	0x3df405ff	0.11915206
3	0x3e032ff3	0.1281126
4	0x3e179896	0.148043
5	0x3e05b647	0.13057815
6	0x3de811c0	0.113315105
7	0x3e07cba8	0.13261282
8	0x3e13159c	0.14363712
9	0x3e0ceb9d	0.13761754
10	0x3e18e7d3	0.14932184
11	0x3df85872	0.121262446
12	0x3e21cad7	0.15800034
13	0x3e05dba1	0.13072063
14	0x3dfcb37b	0.12338921
15	0x3e4544d3	0.19264536
16	0x3e297b2d	0.16550894
17	0x3e2e9a53	0.17051058
18	0x3e10445e	0.1408858
19	0x3e0bb191	0.13641955
20	0x3de54f51	0.11196769
21	0x3e0a5871	0.135103
22	0x3e0c4c67	0.1370102
23	0x3e2626e7	0.16225778
24	0x3e106a3c	0.14103025
25	0x3e0dc3a6	0.13844165
26	0x3e05d0c3	0.13067918
27	0x3e15e8a3	0.14639525
28	0x3dfc0aa5	0.12306718
29	0x3e215304	0.15754324
30	0x3e265b2e	0.1624572
31	0x3e0c358c	0.13692302

weight f4 [32, 512]
0	0xbd836c04	-0.06417087
1	0x3d2c336f	0.04204124
2	0xbd5a3a0d	-0.053278018
3	0x3c89efe9	0.01683803
4	0xbcf8c769	-0.030368524
5	0xbe055f8b	-0.13024728
6	0xbdd4fab2	-0.10399379
7	0xbc8d303c	-0.017234914
8	0xbd5abc28	-0.053402096
9	0x3d2765a1	0.040868405
10	0xbda8df81	-0.08245755
11	0x3caee2bb	0.021348348
12	0x3cf57413	0.029962575
13	0x3d0c1fc4	0.03420998
14	0x39c1cfeb	0.0003696674
15	0x3c7eba99	0.015547418
16	0xbd0056b0	-0.03133267
17	0xbd80fcab	-0.062981926
18	0xbd19e609	-0.037572894
19	0xbd01d9cb	-0.031701844
20	0x3cecfd6a	0.028929431
21	0x3d541b15	0.05178364
22	0x3dd1c87d	0.10243318
23	0x3d40bf7e	0.04705762
24	0x3d1189d6	0.03553184
25	0x3a7d1705	0.0009654614
26	0xbc2f5ff5	-0.01070403
27	0xbd8299e9	-0.06377012
28	0x3d08ed5e	0.033429496
29	0xbd804029	-0.062622376
30	0xbc7a9ae2	-0.015295716
31	0xbc339662	-0.010961147
32	0xbca44d4b	-0.020056387
33	0x3dbae4a3	0.0912564
34	0xbd6d26d1	-0.057898346
35	0xbcad6c13	-0.021169698
36	0x3c9bbd15	0.01901106
37	0xbd03883f	-0.032112356
38	0xbdd6bcb9	-0.10485215
39	0xbcd744ad	-0.026277864
40	0xbc8aa0f8	-0.016922459
41	0x3d96b436	0.07358591
42	0xbdba123b	-0.090855084
43	0xbde051f4	-0.10953131
44	0x3b9d6204	0.004802944
45	0x3b9a333c	0.0047058146
46	0xbd0e850d	-0.034794856
47	0x3a74a12b	0.0009331877
48	0xbc06d6ce	-0.008229924
49	0x3db02fda	0.08602877
50	0x3d5467c1	0.05185676
51	0xbd20ac05	-0.03922655
52	0xbd1cc7fe	-0.038276665
53	0x3ceca864	0.028888889
54	0x3d0c50ae	0.03425663
55	0xbc317d6e	-0.010833127
56	0xbc862ee0	-0.016379774
57	0x3dd8b0cf	0.105805986
58	0x3e08763e	0.13326356
59	0x3c93788d	0.018001819
60	0xbcf5a08c	-0.029983781
61	0xbd63ce1b	-0.05561648
62	0xbd1cfd30	-0.038327396
63	0x3d5bb2da	0.053637363
64	0x3d3e9396	0.046527468
65	0x3dc56a24	0.09639385
66	0x3d25b5f8	0.040456742
67	0xbcbcd9e4	-0.023053117
68	0x3d32f419	0.04368982
69	0x3d87299c	0.06599733
70	0x3d46cf4a	0.04853753
71	0x3a6caf71	0.00090288284
72	0xbd58d42c	-0.052936718
73	0xbb3adf9b	-0.0028514627
74	0x3d8c652e	0.06855236
75	0x3c8fc12c	0.017548166
76	0xbd9bfaf2	-0.076162234
77	0xbcad2543	-0.021135932
78	0xbc9293ee	-0.017892804
79	0xbd058b61	-0.032603625
80	0xbb8f1f2b	-0.004367729
81	0x3db2b732	0.08726348
82	0x3b7e4b29	0.0038802123
83	0xbd005a5f	-0.031336185
84	0x3d142b69	0.03617421
85	0x3d6bc58b	0.05756144
86	0xba9aae6a	-0.0011801247
87	0xbc066c99	-0.008204603
88	0xbda0076b	-0.07813915
89	0xbd286fed	-0.041122366
90	0x3b030d46	0.0019996925
91	0xbd33e4ca	-0.043919362
92	0xbccb8047	-0.02484144
93	0x3b2c8f85	0.0026330661
94	0xbc92d980	-0.017925978
95	0xbd9575b9	-0.072978444
96	0x3c8ec3f2	0.017427418
97	0x3ca8e50a	0.020617027
98	0xbd783f7f	-0.06060743
99	0x3ab6a776	0.0013935405
100	0x3d8a6fef	0.06759631
101	0xbd8ac5f4	-0.06776038
102	0x3d93c571	0.07215393
103	0xbd96a40f	-0.073555104
104	0x3d479187	0.04872277
105	0xbd83ddcb	-0.06438788
106	0x3d9d972b	0.076948486
107	0x3ca0a176	0.01960824
108	0x3cfcffc7	0.030883683
109	0xbcd816a6	-0.026377987
110	0xbcd820ff	-0.026382921
111	0x3cd54875	0.026035527
112	0x3d6ed1e3	0.058305632
113	0x3ca3bed8	0.019988462
114	0xbd286420	-0.04111111
115	0x3d45759a	0.048207857
116	0x3d0d5e68	0.03451386
117	0x3de773b3	0.11301365
118	0x3db8c2ab	0.09021505
119	0x3accf1d1	0.0015636032
120	0xbca28984	-0.019840963
121	0xbd9d5a76	-0.0768327
122	0xbd1b018b	-0.03784327
123	0x3d635f55	0.055510838
124	0xbd14694c	-0.03623323
125	0xbd268e2e	-0.040662937
126	0xbcbc834c	-0.023011826
127	0x3cd0e226	0.025498461
128	0xbcb6c0b8	-0.022308692
129	0x3b28c06e	0.0025749463
130	0x3c9da5bd	0.01924407
131	0xbd0d18af	-0.03444737
132	0xbbb4a8fc	-0.0055133086
133	0xbc8a9d14	-0.016920604
134	0x3c8f6751	0.01750532
135	0x3d3a8cea	0.045544542
136	0x3da2b640	0.07944918
137	0xbd96cd57	-0.07363384
138	0x3d63d50e	0.055623107
139	0x3d72e923	0.059304368
140	0x3ca0990e	0.019604232
141	0xbd07ab08	-0.033122092
142	0x3c27bf66	0.010238504
143	0xbc9f4a6a	-0.019444663
144	0x3d2821f6	0.041048013
145	0x3b8cba0b	0.004294639
146	0xbc8c2199	-0.017105864
147	0x3d11ea73	0.03562398
148	0x3d72dd39	0.059293006
149	0xbc2546d4	-0.0100876875
150	0xbd509cb7	-0.050930705
151	0xbb2d606b	-0.0026455175
152	0x3d3dfd87	0.04638436
153	0x3bfcdc29	0.007716675
154	0x3dd08ee9	0.10183508
155	0x3d09f361	0.03367937
156	0x3b88b471	0.004171901
157	0xbd00c3a4	-0.031436577
158	0x3d262d75	0.040570695
159	0x3d00c34b	0.031436246
160	0x3ad24326	0.001604174
161	0xbd15bd63	-0.036557566
162	0xbc39f9f4	-0.011351097
163	0x3d0f6fae	0.035018615
164	0x3d91275f	0.070875876
165	0xbcd6fdb2	-0.026244018
166	0xbdf22626	-0.118236825
167	0x3ce88b1e	0.028386649
168	0x3bf6e69c	0.007534815
169	0xbd41ab4e	-0.04728251
170	0x3d8a7127	0.06759863
171	0x3d2f0309	0.042727504
172	0x3d1cf1cd	0.038316537
173	0xbcecc5f2	-0.028902981
174	0xbc2351d9	-0.0099682445
175	0xbcbc49cb	-0.022984406
176	0x3cadff3c	0.02123987
177	0x3d826e89	0.06368739
178	0x3d8f69db	0.07002612
179	0x3ccd9207	0.025094045
180	0xbc8b562b	-0.017008862
181	0xbb0008b9	-0.001953645
182	0xbd4d4e9d	-0.0501238
183	0x3c405959	0.011740052
184	0x3cf5b9b9	0.029995786
185	0x3cef382e	0.029201593
186	0x3c590b87	0.013247377
187	0x3dc67829	0.096908875
188	0x3cfcb359	0.030847238
189	0xbccd242b	-0.02504166
190	0xbd99795a	-0.07493849
191	0x3bc142f3	0.0058978735
192	0xbd40c578	-0.04706332
193	0x3c3154a5	0.0108234035
194	0x3d629607	0.05531886
195	0xbcaf255c	-0.021380119
196	0x3bc48cb1	0.005998217
197	0x3d402324	0.046908513
198	0x3dfcc859	0.12342901
199	0xbd5f6676	-0.054541074
200	0xbcd3561d	-0.025797898
201	0x3daab0d7	0.08334511
202	0x3dba5791	0.09098733
203	0x3d463053	0.04838593
204	0x3c391ddc	0.011298623
205	0xbc6c8866	-0.014436817
206	0x3d85e4a5	0.06537751
207	0xbd4cab1a	-0.049967863
208	0xbd66dead	-0.056364704
209	0xbcb4c49d	-0.022066409
210	0xbc8c4212	-0.017121349
211	0x3d40a4c3	0.04703213
212	0xbc07c350	-0.008286312
213	0xbdb261b2	-0.0871004
214	0x3d89fc6a	0.06737597
215	0x3cd65aaa	0.026166279
216	0xbd5c65f0	-0.053808153
217	0x3dd20cd6	0.102563545
218	0xbda5e04b	-0.08099421
219	0xbdeaecd6	-0.11470954
220	0xbbc85bb8	-0.0061144494
221	0xbc589e50	-0.013221338
222	0x3c9425ba	0.018084396
223	0xbbc9d9e6	-0.0061600087
224	0x3c13d38a	0.009022603
225	0xbd06f1b9	-0.03294537
226	0xb9d328a5	-0.0004027534
227	0xbc243d3b	-0.010024364
228	0xbdb1a25e	-0.08673547
229	0xbdc1f036	-0.09469645
230	0xbe25cd0a	-0.16191497
231	0xbcd27eef	-0.025695292
232	0xbdd7b82b	-0.10533174
233	0x3c80c9ae	0.015721168
234	0x3c8db1e0	0.017296731
235	0x3c202658	0.009774767
236	0x3ccdcf7d	0.025123352
237	0x3bb5f16b	0.005552461
238	0xbcc80c5d	-0.024419958
239	0x3d5ad873	0.05342908
240	0xbd7e09da	-0.062021114
241	0xbd19286d	-0.03739207
242	0xbc02088d	-0.007936609
243	0x3d543711	0.051810328
244	0xbda8a526	-0.082346246
245	0xbd144d93	-0.036206793
246	0xbd3b8eac	-0.04579036
247	0xbca6770d	-0.02032044
248	0x3b31e406	0.002714397
249	0x3deeda32	0.11662711
250	0x3c537b11	0.012907759
251	0xbc3f0531	-0.011658953
252	0xbcba8061	-0.022766294
253	0x3ca0bb57	0.01962058
254	0xbcb27d10	-0.02178815
255	0x3c2ab07b	0.010418053

bias f4 [32]
0	0xbc4a157e	-0.012334226
1	0xbceb193d	-0.028698558
2	0xbc90c448	-0.01767172
3	0xbd2304b3	-0.039799403
4	0x3c8fca0f	0.017552404
5	0xbcbb0b82	-0.022832636
6	0x39904793	0.00027519147
7	0xbca69a2c	-0.020337187
8	0x3c947bc3	0.01812542
9	0x3d2ad6d2	0.041708775
10	0x3c969b42	0.01838458
11	0xbc460512	-0.01208617
12	0x3d0d0f89	0.034438644
13	0xbd2f22c2	-0.042757757
14	0x39df2330	0.0004256009
15	0xbb40a20d	-0.0029393465
16	0x3c8062fd	0.015672201
17	0x3cdcc1b4	0.026947834
18	0xbb81fafe	-0.003966688
19	0xbba32e15	-0.0049798586
20	0xbcd24d55	-0.02567164
21	0xbbbf412a	-0.0058366256
22	0xbc518d49	-0.012790033
23	0x3bcc7cc5	0.0062404596
24	0xbd314667	-0.04328003
25	0xbca7c4e0	-0.02047962
26	0xbd4d0019	-0.05004892
27	0xba869842	-0.0010268765
28	0x3cc9a89d	0.024616534
29	0x3d2358fd	0.039879788
30	0x3a4ee4b4	0.0007892356
31	0x3d5ef225	0.054430146

weight f4 [13, 32]
0	0xbdf28d48	-0.118433535
1	0x3e861cb3	0.2619377
2	0xbe4dd5c8	-0.20101082
3	0x3c985bc7	0.01859845
4	0x3e810a95	0.25203386
5	0xbe52de58	-0.2059263
6	0x3d3981f4	0.04528995
7	0xbd0f3f5c	-0.034972534
8	0x3e1a199a	0.15048829
9	0xbe32ca1d	-0.17459913
10	0xbd834e05	-0.064113654
11	0x3c2c2cb6	0.010508707
12	0x3e62ede6	0.22161064
13	0xbe0da1bd	-0.1383123
14	0x3e3a2195	0.18176873
15	0xbd4eb3e4	-0.050464526
16	0xbdf0bc37	-0.11754649
17	0x3c485393	0.012226957
18	0xbdc35160	-0.095370054
19	0x3e68b6a7	0.22725926
20	0x3d6d88b7	0.05799171
21	0x3e36d402	0.17854312
22	0x3e8425c3	0.2581006
23	0x3d8cacc5	0.06868891
24	0xbccfa46b	-0.025346955
25	0xbe7725c0	-0.24135494
26	0x3e6d4daf	0.23174165
27	0xbe3c8796	-0.18411097
28	0xbd80decc	-0.06292495
29	0xbe34a528	-0.17641127
30	0xbe41c2db	-0.18921988
31	0x3c51f2c5	0.012814228
32	0x3d9f1424	0.077675134
33	0x3d87213d	0.065981366
34	0x3e4f45dd	0.20241494
35	0xbded1ef8	-0.115781724
36	0x3da653b8	0.08121437
37	0x3e4db6e2	0.20089296
38	0x3e230b93	0.15922384
39	0x3e770328	0.24122298
40	0x3e07d2ad	0.1326396
41	0xbdb96f44	-0.09054425
42	0x3e9fe70b	0.3123096
43	0x3e013794	0.12618858
44	0xbdc14d6f	-0.094385974
45	0x3e89fd55	0.2695109
46	0x3e4da61a	0.20082894
47	0xbd917454	-0.07102266
48	0x3e31bc95	0.17357095
49	0x3dc94634	0.09827843
50	0xbd7ba546	-0.061436914
51	0xbdebfd64	-0.1152294
52	0xbe4aeb45	-0.1981631
53	0x3da1dfd2	0.079040185
54	0x3d9a3ad4	0.07530752
55	0xbe6ec456	-0.23317084
56	0xbe74bfb0	-0.23901248
57	0x3e4fdb20	0.20298433
58	0xbe2edbb6	-0.17076
59	0x3d0aace0	0.033856273
60	0x3dc03ce1	0.09386612
61	0x3e59b317	0.21259724
62	0xbe75ac06	-0.23991403
63	0x3c7ea947	0.015543289
64	0x3e771f77	0.24133097
65	0x3dc4eec1	0.09615851
66	0x3d689201	0.056779865
67	0xbdee0fc1	-0.116240986
68	0xbe680dfc	-0.22661585
69	0x3e8ea2d0	0.2785859
70	0xbe905e65	-0.28197017
71	0x3d6605a9	0.05615774
72	0xbe5152b7	-0.2044171
73	0xbe0987d2	-0.13430718
74	0xbe3f35a4	-0.18672806
75	0x3c35689e	0.011072306
76	0x3e3db8d7	0.18527542
77	0xbe4e364e	-0.20137903
78	0x3e10fcc2	0.1415892
79	0xbe78fea8	-0.24315894
80	0xbd92282a	-0.07136567
81	0x3dfca1dd	0.123355605
82	0xbd8489c1	-0.06471587
83	0x3e1bbc6a	0.15208593
84	0xbe0c5e81	-0.13707925
85	0xbdec4e6c	-0.11538395
86	0x3e1cdce5	0.1531864
87	0xbd7bcc37	-0.06147405
88	0x3e0094f9	0.12556829
89	0x3d2333fe	0.039844505
90	0x3e3b1222	0.18268636
91	0x3e74e611	0.23915888
92	0xbd896484	-0.06708625
93	0x3d2f6da2	0.042829163
94	0x3e8c4edd	0.27403918
95	0x3df485c1	0.11939574
96	0x3e3e4339	0.18580331
97	0xbe785de5	-0.24254568
98	0x3c0545a9	0.008134284
99	0x3df11f1d	0.117735125
100	0xbe707e16	-0.23485598
101	0xbe3a3afe	-0.18186566
102	0x3e12323e	0.14276978
103	0x3e5ca919	0.2154888
104	0x3e738a74	0.23783284
105	0x3dfcc61e	0.12342475
106	0x3e38cce6	0.18046913
107	0x3e474538	0.19459999
108	0x3e4e651c	0.20155758
109	0x3e7867f4	0.24258405
110	0xbe945013	-0.28967342
111	0xbdcfb45a	-0.10141821
112	0xbe289131	-0.16461636
113	0x3df50b59	0.11965055
114	0xbe3f9b50	-0.18711591
115	0xbd5d4d81	-0.05402899
116	0x3e56b6d5	0.20968182
117	0xbe32c9a1	-0.17459728
118	0x3e2e3a51	0.17014433
119	0x3ea68465	0.32522884
120	0xbe246c5e	-0.16056964
121	0x3e852e64	0.26011956
122	0x3e4fdf94	0.20300132
123	0xbe349fa7	-0.17639028
124	0xbc98b9c8	-0.018643275
125	0x3da99f96	0.08282392
126	0x3e150c65	0.1455551
127	0xbdcd1d68	-0.100153744
128	0xbe554ce0	-0.20830107
129	0x3daccc5c	0.08437416
130	0xbe638dc0	-0.22222042
131	0x3cbf1697	0.023326201
132	0x3e3ce98e	0.18448469
133	0x3e237d5a	0.15965787
134	0x3e1ddd47	0.15416442
135	0x3e5fb9b6	0.21848187
136	0xbe01325e	-0.1261687
137	0x3e2ba737	0.16763006
138	0x3e85d551	0.2613931
139	0xbe27ef3e	-0.16399857
140	0x3e1a038c	0.15040416
141	0x3e796dea	0.24358335
142	0xba97835d	-0.0011559535
143	0x3e6ff42f	0.23432992
144	0x3abbf9ce	0.0014341415
145	0xbe3cb522	-0.18428472
146	0xbe716edb	-0.23577444
147	0x3e71088f	0.23538421
148	0x3d081313	0.033221316
149	0xbe0e409d	-0.13891836
150	0x3d610d72	0.054944463
151	0xbdaab3d3	-0.0833508
152	0x3e3aafd7	0.1823114
153	0x39c3a4bd	0.00037316038
154	0x3e297bf7	0.16551195
155	0x3e77b750	0.24191022
156	0xbe72c2d7	-0.23707138
157	0xbe60ec48	-0.21965134
158	0x3e178d38	0.14799964
159	0xbe837636	-0.25676125
160	0x3d935a0a	0.07194908
161	0x3ca9d7f1	0.020732852
162	0x3d7e5515	0.06209286
163	0x3e1bf1c9	0.15228952
164	0x3ba6905c	0.005083127
165	0xbc8ea076	-0.017410498
166	0x3e5a939d	0.21345372
167	0xbda18da9	-0.07888348
168	0xbe8942c6	-0.26808757
169	0xbe0780df	-0.13232754
170	0xbd99eb2b	-0.07515558
171	0x3e05ef5f	0.13079594
172	0xbe969f79	-0.29418543
173	0x3e0620fd	0.13098522
174	0xbdcac09d	-0.09900019
175	0x3d88b28e	0.066746816
176	0x3e649a0c	0.22324389
177	0xbe051527	-0.1299635
178	0x3d71c956	0.0590299
179	0xbdbb3bfe	-0.09142302
180	0xbe1b1b6d	-0.15147181
181	0xbe50fff2	-0.20410135
182	0xbe8e11ab	-0.27747855
183	0x3e05d27d	0.13068576
184	0xbdefc368	-0.11707193
185	0xbe31dd30	-0.17369533
186	0x3e002050	0.12512326
187	0x3e277818	0.16354406
188	0xbe95aaee	-0.29231972
189	0xbe4b8035	-0.19873126
190	0x3e8e726c	0.27821672
191	0xbe89f202	-0.2694245
192	0xbe7d8477	-0.24757563
193	0xbe3d3f23	-0.18481116
194	0x3c044d64	0.008075092
195	0xb9c19801	-0.0003692508
196	0xbc2cd2f6	-0.010548344
197	0xbe33cc97	-0.17558514
198	0x3e49b222	0.19696859
199	0x3e0d5170	0.13800597
200	0xbd7ba0c0	-0.0614326
201	0xbc668d0f	-0.014071717
202	0xbde1d4b4	-0.11026898
203	0xbddd86a4	-0.10816696
204	0x3e80a607	0.2512667
205	0xbe459e02	-0.19298556
206	0x3e03d6be	0.12874886
207	0x3e911dc3	0.2834302
208	0xbcd9b1f8	-0.02657412
209	0xbe0baae3	-0.13639407
210	0xbe47a910	-0.19498086
211	0xbe71f632	-0.23629072
212	0xbd1e17a2	-0.038596757
213	0xbe29abd4	-0.16569453
214	0xbe09e62d	-0.13466711
215	0xbd5a8c47	-0.053356435
216	0x3e3dcc7a	0.18535033
217	0xbd9c015a	-0.07617445
218	0xbe5dcc9b	-0.21660082
219	0xbe6d4197	-0.23169552
220	0x3e4c5962	0.19955972
221	0xbe2041c0	-0.15650082
222	0xbdfb454e	-0.12269078
223	0x3d2d4f9e	0.042312257
224	0xbea81a55	-0.3283259
225	0xbe807187	-0.25086614
226	0xbe0a02a4	-0.1347757
227	0x3e5cf44c	0.21577567
228	0xbdf0de29	-0.11761124
229	0x3cdb12d4	0.026742376
230	0xbe1dd992	-0.15415028
231	0xbe107d91	-0.141104
232	0x3e863c18	0.26217723
233	0x3e7a3b90	0.24436784
234	0xbcc35cf2	-0.02384803
235	0x3e0dc353	0.13844042
236	0xbc98fc6b	-0.01867505
237	0xbe646fc1	-0.22308256
238	0x3e2e7674	0.17037374
239	0x3dafadd7	0.08578079
240	0x3d2bf74a	0.04198388
241	0x3e311283	0.17292218
242	0x3e15cbda	0.14628544
243	0x3d81336d	0.06308637
244	0x3e150b0e	0.14554998
245	0xbd3be599	-0.04587326
246	0x3d4f33c7	0.050586488
247	0x3dd96564	0.10615042
248	0xbdb83ae5	-0.08995608
249	0x3d8b9781	0.068160065
250	0xbe98ee38	-0.29869246
251	0xbdee71ca	-0.11642797
252	0x3e84e24e	0.25953907
253	0x3dd54fe4	0.104156286
254	0x3e62f156	0.22162375
255	0xbe8b9bc1	-0.27267268

bias f4 [13]
0	0x3dec79aa	0.11546643
1	0x3ddf5530	0.1090492
2	0xbe32d38d	-0.17463513
3	0x3e21160e	0.1573107
4	0x3db07bb3	0.08617344
5	0x3d032d88	0.032025844
6	0xbe1cadd1	-0.1530068
7	0x3ce4a934	0.027912714
8	0xbc239b42	-0.009985747
9	0x3e525e8b	0.20543878
10	0xbbfda18c	-0.007740205
11	0x3aa3b7a0	0.0012490638
12	0xbe005ee2	-0.12536195
