conv_net_model.ckpt (torch, 133338 bytes, 22 tensors)

layer1.0.weight f4 [16, 3, 3, 3]
0.12923297 -0.07686665 0.05228551 0.07034287 0.22858836 0.07516543 -0.05325036 0.0053793048
0.05571844 -0.028929811 0.11187009 0.10609127 0.073148265 0.10189626 -0.042229332 -0.009548493
0.18549214 0.024029462 -0.19502966 -0.058530558 0.041778512 0.22065254 -0.07383894 -0.08820244
0.060498483 -0.1616929 -0.14026165 -0.02630384 0.1338675 -0.06115668 0.10869464 0.15213537
-0.15597987 -0.12204487 -0.06436653 0.07179239 -0.07511965 0.183054 0.1467331 -0.13389052
0.1433363 -0.06559755 0.13134849 -0.0069640605 0.15447934 -0.15675308 -0.14315274 0.0155947795
0.015378387 0.040067602 0.055001296 -0.18129434 -0.21662468 -0.06730444 -0.1454206 0.2197013
-0.032752905 0.07914495 -0.07059106 -0.083048835 0.009669983 -0.15927641 0.10064206 -0.16771959
0.15049405 0.19649552 0.0010069449 0.0061714584 -0.11426583 3.5926128e-06 0.16776103 0.15490918
-0.049901605 0.23021807 0.0913509 -0.063983776 -0.061689533 0.05390766 0.11239798 0.091095254
0.16462865 -0.018433336 0.0026549648 0.14716856 0.10731346 0.003454182 0.0003415394 -0.056068026
-0.024585731 0.057977207 -0.2006623 0.029425422 -0.18181877 0.0007214253 -0.04795123 0.005003504
-0.14388871 0.09056115 0.08388704 -0.07020967 0.03271858 0.10785705 -0.16520818 0.045480635
-0.019690365 -0.04269112 0.06255923 0.12158535 0.092542015 -0.077004455 -0.022684446 0.16750278
0.05680106 0.085285 -0.058481276 -0.12379309 -0.16839544 -0.13591698 -0.013378297 -0.039254937
0.077918194 -0.18038432 -0.1630936 -0.044526633 -0.06833093 0.11829366 0.088846445 0.17955321
-0.0019425112 -0.03231277 -0.113873444 -0.19772977 0.030412128 -0.08049462 -0.07053853 0.117747985
0.012011342 0.14354931 -0.1166816 0.04679315 -0.073355965 -0.24371351 -0.036676954 -0.14529122
-0.018008793 -0.031784456 -0.08334639 -0.009374794 0.00044375393 0.20814553 0.14415784 0.18308404
-0.084771186 -0.019133328 0.057929013 -0.17879407 0.013174116 -0.18094203 0.11775398 0.050952468
0.13485782 0.18942317 -0.21065247 -0.08270858 -0.17837761 0.04371732 0.05838285 0.0963983
0.009247852 0.098897144 0.01543729 0.1386654 -0.22772962 0.07610799 0.06528325 -0.015458535
0.08557506 0.1868675 0.08827615 0.13311157 -0.011449107 0.03014125 -0.12046538 0.000584805
0.049895268 -0.07276964 -0.06388713 -0.0052685365 -0.022848062 -0.14187329 0.012563557 0.20806018
-0.09539949 -0.05500283 0.13810316 0.20660256 0.14464429 -0.109490484 -0.17693831 -0.14346385
-0.08564257 0.15428509 0.1309124 0.092036754 0.08752963 -0.093900576 -0.18857643 0.108512476
0.017145399 -0.15336324 0.060515817 -0.124146566 -0.10095782 -0.15165779 0.14616184 -0.019006195
0.17440945 -0.14282641 -0.014774608 0.022448722 0.015927268 -0.024344644 0.00725324 0.0044470755
-0.036477298 0.13978288 0.014849868 -0.016674431 0.04929711 -0.15667555 -0.070660606 -0.15369603
0.09879279 0.117843926 -0.15849026 -0.18925232 -0.049823854 -0.113691114 0.038472526 0.19287618
0.15214923 0.091907136 -0.0799231 0.07004085 0.08483136 -0.14233623 -0.088462904 0.12826481
-0.17767736 -0.0040959325 -0.030077191 0.0108344415 -0.027272975 0.054585595 -0.19785894 0.14813985
00000000: a655 043e 436c 9dbd 5529 563d ec0f 903d
00000010: 1113 6a3e 55f0 993d 0d1d 5abd e144 b03b
00000020: 0539 643d 36fe ecbc 251c e53d 6146 d93d
00000030: c2ce 953d fdae d03d aaf8 2cbd 4871 1cbc
00000040: a7f1 3d3e 6fd9 c43c dbb5 47be bdbd 6fbd
00000050: f21f 2b3d bdf2 613e df38 97bd 7ba3 b4bd
00000060: 42cd 773d d392 25be c0a0 0fbe 277b d7bc
00000070: 9014 093e 6d7f 7abd 4c9b de3d 60c9 1b3e
00000080: 30b9 1fbe a9f2 f9bd 99d2 83bd e307 933d
00000090: 55d8 99bd 8272 3b3e 3441 163e 991a 09be
000000a0: c0c6 123e 0258 86bd 3880 063e c632 e4bb
000000b0: d52f 1e3e e183 20be a296 12be 3f81 7f3c
000000c0: a1f5 7b3c ed1d 243d 0a49 613d 39a5 39be
000000d0: dcd2 5dbe e9d6 89bd 23e9 14be 61f9 603e
000000e0: e927 06bd bf16 a23d 0c92 90bd 8215 aabd
000000f0: d96e 1e3c 5b19 23be 6d1d ce3d afbe 2bbe
00000100: 1d1b 1a3e 1f36 493e 77fb 833a f239 ca3b
00000110: 3404 eabd 9e18 7136 8cc9 2b3e 83a0 1e3e
00000120: a065 4cbd 49be 6b3e 2e16 bb3d ed09 83bd
00000130: 2aae 7cbd 47ce 5c3d ea30 e63d 2690 ba3d
00000140: 6a94 283e 8201 97bc ebfe 2d3b 5bb3 163e
00000150: 29c7 db3d 8f5f 623b a410 b339 96a7 65bd
00000160: 0468 c9bc 8279 6d3d 6b7a 4dbe 950d f13c
00000170: b32e 3abe 081e 3d3a 8268 44bd 6ff4 a33b
00000180: 9057 13be 2078 b93d f8cc ab3d 16ca 8fbd
00000190: eb03 063d 28e4 dc3d 552c 29be e749 3a3d
000001a0: b04d a1bc e2dc 2ebd 0e1f 803d bd01 f93d
000001b0: ab86 bd3d 83b4 9dbd bbd4 b9bc d985 2b3e
000001c0: 3aa8 683d e7a9 ae3d 108a 6fbd 3b87 fdbd
000001d0: db6f 2cbe d22d 0bbe a530 5bbc c9c9 20bd
000001e0: 9393 9f3d abb6 38be 0202 27be 8f61 36bd
000001f0: 16f1 8bbd f243 f23d 20f5 b53d ccdc 373e
00000200: dc9b feba 655a 04bd 7b36 e9bd ac79 4abe
00000210: db22 f93c 5dda a4bd 8176 90bd db25 f13d
00000220: 38cb 443c 97fe 123e c3f6 eebd 2daa 3f3d
00000230: a73b 96bd 0990 79be 933a 16bd 39c7 14be
00000240: 2d87 93bc 6b30 02bd 83b1 aabd bc98 19bc
00000250: a5a7 e839 1a24 553e 1d9e 133e 627a 3b3e
00000260: 849c adbd 7fbd 9cbc f946 6d3d cb15 37be
00000270: 3fd8 573c de48 39be 0029 f13d 89b3 503d
00000280: 2b18 0a3e 26f8 413e 48b5 57be 1e63 a9bd
00000290: 9fa8 36be ef10 333d db22 6f3d 796c c53d
000002a0: 4d84 173c 968a ca3d b0ec 7c3c 4dfe 0d3e
000002b0: f431 69be 82de 9b3d 39b3 853d cc45 7dbc
000002c0: fa41 af3d 325a 3f3e 20ca b43d 664e 083e
000002d0: 0995 3bbc c8ea f63c 8eb6 f6bd 994d 193a
000002e0: fb5e 4c3d 4008 95bd 41d7 82bd b0a3 acbb
000002f0: dc2b bbbc 3b47 11be 61d7 4d3c ba0d 553e
00000300: cf60 c3bd a64a 61bd ea6a 0d3e 9f8f 533e
00000310: a21d 143e 8c3c e0bd 512f 35be 30e8 12be
00000320: 5f65 afbd e9fc 1d3e e60d 063e c47d bc3d
00000330: bc42 b33d f24e c0bd 2e1a 41be ca3b de3d
00000340: 8274 8c3c 410b 1dbe 6fdf 773d 8e40 febd
00000350: f9c2 cebd 2e4c 1bbe 73ab 153e e1b2 9bbc
00000360: 6498 323e 1641 12be 3311 72bc 62e6 b73c
00000370: e779 823c 6b6e c7bc 96ac ed3b c6b8 913b
00000380: 3869 15bd 3e23 0f3e dc4c 733c d198 88bc
00000390: c4eb 493d 8e6f 20be 82b6 90bd 7e62 1dbe
000003a0: e053 ca3d 2858 f13d 454b 22be 5ccb 41be
000003b0: 1914 4cbd e3d6 e8bd 5e95 1d3d 5581 453e
000003c0: 02cd 1b3e cf39 bc3d b9ae a3bd 9471 8f3d
000003d0: 10bc ad3d 97c0 11be 0a2c b5bd da57 033e
000003e0: 0ef1 35be 2c37 86bb 7164 f6bc f182 313c
000003f0: 936b dfbc 2595 5f3d 899b 4abe f9b1 173e

layer1.0.bias f4 [16]
0.13659704 -0.0251093 0.09261119 -0.0050833104 0.06390074 0.15539335 0.04814455 -0.015458322
-0.15583429 0.061700888 -0.15067756 -0.08926485 -0.17330314 0.061260343 -0.16046481 -0.14085498
00000000: 18e0 0b3e 05b2 cdbc f0aa bd3d e691 a6bb
00000010: 64de 823d 6f1f 1f3e 3833 453d e744 7dbc
00000020: 0693 1fbe 12ba 7c3d 384b 1abe 7dd0 b6bd
00000030: 6176 31be 20ec 7a3d e350 24be 4a3c 10be

layer1.1.weight f4 [16]
0.8882414 0.9802115 0.87473065 1.0750622 1.0121144 0.9201601 0.9236641 1.0751818
1.0442783 1.1281805 1.0599203 1.0566698 0.9118522 1.0376663 1.0528399 0.9229631
00000000: ca63 633f 24ef 7a3f 59ee 5f3f a39b 893f
00000010: f78c 813f 9d8f 6b3f 4075 6c3f 8f9f 893f
00000020: e9aa 853f 3868 903f 78ab 873f f540 873f
00000030: 256f 693f 40d2 843f 75c3 863f 4f47 6c3f

layer1.1.bias f4 [16]
-0.0074086734 0.07329101 -0.040078674 0.04307082 -0.08816878 0.07420898 -0.03219877 -0.047241215
0.055345595 0.10078015 -0.012190761 0.058120374 3.1630047e-06 -0.024686513 -0.052168235 0.036952596
00000000: 75c4 f2bb 9919 963d 8929 24bd 076b 303d
00000010: d591 b4bd e1fa 973d dce2 03bd 0180 41bd
00000020: 10b2 623d d365 ce3d c2bb 47bc a10f 6e3d
00000030: 0244 5436 5f3b cabc 5cae 55bd 9b5b 173d

layer1.1.running_mean f4 [16]
-0.035644215 0.010100716 -0.1961215 0.030238817 0.28795075 0.07502848 -0.005229692 0.041528743
-0.12156915 0.0526479 -0.13833235 -0.08303938 -0.5117835 0.044141643 -0.15788743 -0.38862166
00000000: abff 11bd 797d 253c 13d4 48be 65b7 f73c
00000010: 486e 933e 88a8 993d d65d abbb 0b1a 2a3d
00000020: 3ff9 f8bd 53a5 573d ffa6 0dbe 8d10 aabd
00000030: 3e04 03bf decd 343d 3ead 21be 6bf9 c6be

layer1.1.running_var f4 [16]
0.11469175 0.01885575 0.1922414 0.021842316 0.12749821 0.019140394 0.026066894 0.015206632
0.010818841 0.01906837 0.018141504 0.016783962 0.28433493 0.019032821 0.008105942 0.14062512
00000000: 82e3 ea3d 6077 9a3c eeda 443e a8ee b23c
00000010: e48e 023e 51cc 9c3c 3d8a d53c 3d25 793c
00000020: 8241 313c 4535 9c3c 7e9d 943c 857e 893c
00000030: 5994 913e b8ea 9b3c c9ce 043c 0800 103e

layer2.0.weight f4 [32, 16, 3, 3]
-0.057457827 -0.0971876 0.008264951 -0.05219703 -0.115609095 -0.103894204 -0.0029919238 -0.097274795
-0.010769343 0.025966275 -0.09012057 -0.034575112 -0.127032 -0.0687966 0.0013717902 -0.07144138
-0.010034893 -0.06219347 -0.0825276 -0.050989714 -0.012468407 0.04495927 0.070471756 -0.06515165
0.025587445 -0.072120905 0.054793876 0.0028625568 0.052064087 -0.025993023 0.048277937 0.042525273
-0.01318218 -0.06721105 0.0025551703 0.036224097 -0.031535853 0.046170473 0.095101155 0.029552188
-0.013018955 0.040536202 -0.007812523 -0.081428885 -0.011195613 -0.013328874 -0.09888573 -0.081939764
0.01751887 -0.03126533 -0.019913724 -0.001456262 0.028666453 0.06588543 -0.12021749 0.04784633
-0.035989963 -0.08154908 -0.071657754 -0.08628905 0.015301259 0.06883128 0.074396014 0.07782787
-0.007376199 -0.025417242 -0.00938483 0.059839487 0.049092896 -0.12229206 0.018246664 -0.09083216
0.03165474 -0.008632208 0.054342374 -0.05029744 -0.003209702 0.04292898 -0.040720817 -0.076410465
-0.036272388 -0.0087417755 -0.07075521 0.0049835863 0.08277883 -0.023936333 0.09028559 -0.073325306
-0.0054725334 -0.018964227 0.10470808 0.0143467905 0.026649633 -0.010091144 0.037765767 0.07092844
-0.052928813 -0.11569582 0.03206081 -0.08628982 0.038225405 0.10575361 0.020265745 -0.06816104
0.0056307665 0.011026141 0.013100241 0.051769607 -0.010094165 0.051818073 -0.086685926 0.001789723
-0.018112654 -0.01631982 0.044989314 0.07366563 -0.05017918 0.052133564 0.043808922 0.027901547
0.0628684 -0.0057112263 0.0045869555 0.091559686 0.016616344 -0.06371759 0.050607726 0.04528891
0.019119851 0.049964335 -0.053409804 -0.084566064 -0.07748698 -0.009934382 -0.14135951 -0.025592841
0.06465399 0.008701054 -0.01907928 0.0521534 -0.0010172244 0.07109392 0.07066428 -0.05219133
0.00076524564 -0.04789532 0.0409732 -0.014212245 0.025367115 -0.045187097 0.03090873 0.04297914
0.046992887 0.02518567 -0.11847141 0.07061095 0.0019116665 0.054554142 -0.040043775 0.0810599
0.051254295 0.06506907 -0.011221462 -0.009690604 -0.033145268 -0.016309781 0.0066242814 0.05330777
0.0642885 -0.06831869 0.01910239 0.025017919 -0.052720293 0.024543146 0.043342084 0.016456198
-0.088391475 0.0069994605 -0.0442253 -0.100051805 -0.028758794 0.07970295 0.012449747 0.018852727
-0.009083135 -0.053000875 0.013954669 0.042788766 0.020730529 -0.01577868 0.026966976 -0.013305886
-0.06013926 -0.0028352519 -0.014387953 -0.04144141 -0.07263573 -0.06109826 -0.0530963 0.052112438
-0.05869853 0.08375099 -0.050084226 0.0049589677 -0.051614042 -0.028859746 -0.08205472 -0.019075353
-0.03499391 -0.080859356 -0.066893026 -0.070624106 -0.0939909 0.05439148 -0.08654633 -0.20803706
-0.10691444 0.08272038 0.07198719 -0.06652828 0.0909623 0.00616474 0.11203625 0.043168306
-0.12742497 0.09303047 -0.0036351834 -0.046287093 -0.06009486 0.013895889 0.11153619 -0.14464767
-0.10447424 -0.042556107 0.05292182 0.08123641 -0.005265294 0.0789434 -0.026000554 -0.03461934
-0.060379744 0.01326279 -0.06681695 -0.0899181 -0.10162261 0.091797486 -0.040052477 0.023410436
-0.0002440487 0.05055523 -0.059699323 0.0059274766 0.04979415 -0.0011714066 -0.052515652 -0.0054680067
00000000: e658 6bbd 4b0a c7bd b869 073c 8ecc 55bd
00000010: 76c4 ecbd 7cc6 d4bd 2714 44bb 0238 c7bd
00000020: e671 30bc 3ab7 d43c 2291 b8bd a29e 0dbd
00000030: ad14 02be 3be5 8cbd a4cd b33a dc4f 92bd
00000040: 6469 24bc 94be 7ebd 3b04 a9bd 97da 50bd
00000050: 4a48 4cbc 3627 383d 7f53 903d 3a6e 85bd
00000060: c39c d13c 20b4 93bd 8b6f 603d bc99 3b3b
00000070: 2741 553d 52ef d4bc 16bf 453d fb2e 2e3d
00000080: 12fa 57bc f2a5 89bd a574 273b b85f 143d
00000090: bd2b 01bd 401d 3d3d 65c4 c23d 6e17 f23c
000000a0: 744d 55bc 4a09 263d 1900 00bc 30c4 a6bd
000000b0: ce6d 37bc 5961 5abc 9a84 cabd 09d0 a7bd
000000c0: bc83 8f3c 1310 00bd 1b22 a3bc 0be0 beba
000000d0: e9d5 ea3c f1ee 863d 9634 f6bd 83fa 433d
000000e0: 366a 13bd 3403 a7bd 4dc1 92bd 50b8 b0bd
000000f0: 22b2 7a3c 6af7 8c3d f05c 983d 3864 9f3d
00000100: 0bb4 f1bb d237 d0bc d4c2 19bc 401a 753d
00000110: a215 493d 4274 fabd 077a 953c 3606 babd
00000120: 67a8 013d 1b6e 0dbc 1c96 5e3d b004 4ebd
00000130: dd59 52bb 4cd6 2f3d dfca 26bd 177d 9cbd
00000140: 5b92 14bd aa39 0fbc 1ce8 90bd 5a4d a33b
00000150: f287 a93d 2116 c4bc a7e7 b83d 942b 96bd
00000160: f052 b3bb de5a 9bbc 3171 d63d cd0e 6b3c
00000170: 5550 da3c 5355 25bc 47b0 1a3d ee42 913d
00000180: e2cb 58bd eef1 ecbd 3252 033d b8b8 b0bd
00000190: 3e92 1c3d 5995 d83d 5904 a63c 0498 8bbd
000001a0: 4b82 b83b fda6 343c 65a2 563c 5e0c 543d
000001b0: ff61 25bc 303f 543d 6488 b1bd 2495 ea3a
000001c0: fd60 94bc 25b1 85bc b746 383d 01de 963d
000001d0: af88 4dbd 018a 553d fc70 333d c991 e43c
000001e0: 26c1 803d 3d25 bbbb 2c4e 963b a583 bb3d
000001f0: 001f 883c 5e7e 82bd 0c4a 4f3d dd80 393d
00000200: 3ca1 9c3c 67a7 4c3d 3dc4 5abd f930 adbd
00000210: 7eb1 9ebd d1c3 22bc 8cc0 10be 14a8 d1bc
00000220: 5069 843d de8e 0e3c 264c 9cbc ce9e 553d
00000230: 6354 85ba b099 913d 6fb8 903d 93c6 55bd
00000240: c49a 483a e22d 44bd 84d3 273d 7ada 68bc
00000250: b2ce cf3c 1b16 39bd 4e34 fd3c e50a 303d
00000260: 9d7b 403d 2e52 ce3c 23a1 f2bd 799c 903d
00000270: e290 fa3a 2a74 5f3d f104 24bd bc02 a63d
00000280: 06f0 513d ef42 853d 39da 37bc 57c5 1ebc
00000290: 55c3 07bd 179c 85bc 8010 d93b 4059 5a3d
000002a0: b0a9 833d abea 8bbd 9e7c 9c3c 61f2 cc3c
000002b0: 3cf1 57bd b50e c93c 7887 313d 26cf 863c
000002c0: 9706 b5bd bb5b e53b 9725 35bd f6e7 ccbd
000002d0: 9097 ebbc 4d3b a33d 06fa 4b3c 0971 9a3c
000002e0: 6ed1 14bc 7217 59bd 20a2 643c 4643 2f3d
000002f0: 12d3 a93c 4a42 81bc d9e9 dc3c ee00 5abc
00000300: 9654 76bd a2cf 39bb 73bb 6bbc 78be 29bd
00000310: 0bc2 94bd 2b42 7abd 827b 59bd da73 553d
00000320: df6d 70bd a485 ab3d 1e25 4dbd d67e a23b
00000330: 3f69 53bd 466b ecbc 4e0c a8bd ea43 9cbc
00000340: c655 0fbd 9799 a5bd 36ff 88bd 5fa3 90bd
00000350: 4d7e c0bd 9ac9 5e3d 343f b1bd ab07 55be
00000360: f5f5 dabd 4d69 a93d 056e 933d fb3f 88bd
00000370: 714a ba3d 9601 ca3b 4373 e53d 40d1 303d
00000380: b17b 02be c286 be3d 423c 6ebb 8997 3dbd
00000390: 0726 76bd 95ab 633c 166d e43d 851e 14be
000003a0: 97f6 d5bd 504f 2ebd 8dc4 583d 465f a63d
000003b0: 7d88 acbb 14ad a13d 1dff d4bc 02cd 0dbd
000003c0: c050 77bd 2c4c 593c 53d7 88bd fb26 b8bd
000003d0: 841f d0bd 5200 bc3d 110e 24bd 3ec7 bf3c
000003e0: 53e7 7fb9 0013 4f3d 4787 74bd 473b c23b
000003f0: f3f4 4b3d e289 99ba a71a 57bd f72c b3bb

layer2.0.bias f4 [32]
-0.06262733 -0.0623174 0.018216006 0.050698098 0.018213844 -0.024963157 0.04590148 0.07699649
0.06518832 0.015568796 0.045651954 0.077806376 0.048260514 0.017563524 0.048881166 0.04326507
-0.03196863 0.09306766 0.002654998 -0.02067178 -0.05183266 -0.06432692 -0.041571684 -0.002463705
-0.022996122 -0.037874218 -0.00041132898 -0.06959539 -0.0018303191 -0.022460235 0.07780288 0.08420977
00000000: c242 80bd 8840 7fbd bc39 953c cfa8 4f3d
00000010: 3335 953c 897f ccbc 3103 3c3d 56b0 9d3d
00000020: 7481 853d 4314 7f3c 8bfd 3a3d f358 9f3d
00000030: d1ac 453d 61e1 8f3c 9e37 483d b736 313d
00000040: 8af1 02bd 429a be3d 7aff 2d3b dd57 a9bc
00000050: 7c4e 54bd d5bd 83bd 1247 2abd 1c76 21bb
00000060: 5d62 bcbc ff21 1bbd a4a7 d7b9 0788 8ebd
00000070: 51e7 efba 87fe b7bc 1e57 9f3d 2c76 ac3d

layer2.1.weight f4 [32]
0.9923973 1.0316052 0.9948897 1.0056807 0.98444146 0.9739006 1.0357708 0.9632321
1.0380256 0.99464625 0.9761093 0.9430904 1.0179023 1.0679104 0.99211234 1.0956417
0.9565422 0.8988408 0.9713699 1.0125486 0.9392221 0.98416626 0.94321656 1.0638925
0.92226666 1.108047 0.8781536 0.95984834 1.0063258 0.9920054 1.0937933 1.0382456
00000000: c00d 7e3f a40b 843f 17b1 7e3f 25ba 803f
00000010: 5b04 7c3f 8d51 793f 2394 843f 6196 763f
00000020: 06de 843f 23a1 7e3f 4de2 793f 5f6e 713f
00000030: 9f4a 823f 4ab1 883f 13fb 7d3f fd3d 8c3f
00000040: f3df 743f 6e1a 663f b3ab 783f 319b 813f
00000050: dc70 703f 52f2 7b3f a476 713f a12d 883f
00000060: ab19 6c3f 7cd4 8d3f adce 603f 9fb8 753f
00000070: 49cf 803f 11f4 7d3f 6b01 8c3f 3be5 843f

layer2.1.bias f4 [32]
-0.08581166 -0.14731847 -0.1303203 -0.04988198 -0.09949712 -0.028513493 -0.15623857 -0.12920952
-0.18676417 -0.09098301 -0.035846755 -0.17242165 -0.11138104 -0.14228079 -0.14553893 -0.1205879
-0.114212535 -0.10053017 -0.10892767 -0.12237802 -0.12286786 -0.0685381 -0.0662583 -0.07570789
-0.12601112 -0.21251042 -0.082611226 -0.042144135 -0.08761602 -0.15437433 -0.14764851 -0.06641694
00000000: 06be afbd a7da 16be af72 05be 0c51 4cbd
00000010: 25c5 cbbd 2195 e9bc 01fd 1fbe 804f 04be
00000020: 1b3f 3fbe 4d55 babd 0cd4 12bd 4d8f 30be
00000030: be1b e4bd 0eb2 11be 2808 15be caf6 f6bd
00000040: 43e8 e9bd c3e2 cdbd 7815 dfbd 54a1 fabd
00000050: 25a2 fbbd b45d 8cbd 6eb2 87bd bd0c 9bbd
00000060: 0f09 01be 559c 59be 1330 a9bd 549f 2cbd
00000070: 0770 b3bd 4e14 1ebe 2c31 17be 9b05 88bd

layer2.1.running_mean f4 [32]
-0.582211 -0.81930125 -0.95756626 -0.78799796 -0.72257847 -0.638048 -0.2961995 -0.47433668
-0.9805433 -0.26538813 -0.704688 -0.3499503 -0.50877136 -0.55548203 -0.64728355 -0.471447
-0.21192257 -0.70076364 -0.35505122 -0.63260484 -0.5202232 -0.46331447 -0.4651759 -0.5852117
-0.6410555 -0.51244766 -0.1482363 -0.8258245 -0.6869221 -0.59238034 -0.6974715 -0.7773731
00000000: c80b 15bf babd 51bf 1023 75bf 3cba 49bf
00000010: e7fa 38bf 1d57 23bf 76a7 97be 42dc f2be
00000020: e304 7bbf f4e0 87be 6f66 34bf b02c b3be
00000030: d73e 02bf 1234 0ebf 60b4 25bf 8061 f1be
00000040: 3b02 59be 3f65 33bf 46c9 b5be 64f2 21bf
00000050: 592d 05bf 8e37 edbe 892b eebe 6fd0 15bf
00000060: 371c 24bf c52f 03bf 42cb 17be 3c69 53bf
00000070: 20da 2fbf 3da6 17bf 7e8d 32bf ec01 47bf

layer2.1.running_var f4 [32]
0.31452626 0.4346524 0.478906 0.35782593 0.273944 0.23583223 0.23949333 0.505326
0.524886 0.6311769 0.4027893 0.30142546 0.32227162 0.38733768 0.41373566 0.35476086
0.5503511 0.29685244 0.6196219 0.22351146 0.19599287 0.22418655 0.42045945 0.31027475
0.34626377 0.36430198 0.22188836 0.309123 0.3737442 0.28086013 0.45441583 0.4067377
00000000: 9609 a13e c28a de3e 2b33 f53e f634 b73e
00000010: 6342 8c3e 017e 713e bd3d 753e 0b5d 013f
00000020: ee5e 063f cf94 213f 663a ce3e 7054 9a3e
00000030: c900 a53e 2051 c63e 29d5 d33e 37a3 b53e
00000040: cfe3 0c3f 0bfd 973e 8a9f 1e3f 30e0 643e
00000050: 5bb2 483e 2991 653e 7646 d73e 55dc 9e3e
00000060: 7c49 b13e ca85 ba3e b436 633e 5f45 9e3e
00000070: 665b bf3e e6cc 8f3e 31a9 e83e ec3f d03e

layer3.0.weight f4 [32, 32, 3, 3]
-0.031220013 -0.03199464 0.026361164 0.0056696036 -0.061339483 -0.0105316285 0.021113304 -0.0038404395
0.013038018 0.03744263 0.006668845 -0.03893318 0.027681611 -0.042376295 0.014071172 -0.09207758
-0.056350432 0.03689141 -0.007984007 -0.05653317 -0.008569992 -0.0038181928 0.025243897 0.017387008
-0.039777104 -0.015846904 0.0063280407 0.03940388 -0.02393151 -0.07519934 0.03767026 0.004704277
-0.05153646 0.07739437 0.025607584 -0.024533764 0.02981734 0.01592902 -0.024280425 -0.0049645887
-0.037035737 -0.020753615 0.020975761 0.052863233 0.0043744985 0.012392861 -0.030686837 -0.013364628
-0.04907565 -0.044874743 -0.0022611017 0.051804613 -0.020177163 0.03921885 0.07562185 0.1185201
0.015657594 0.018209372 0.00034385084 -0.02835945 0.05310888 0.035922915 -0.032883685 -0.020783512
0.07325428 0.05841789 0.028792247 0.021923892 0.043403395 0.07161029 -0.023168039 -0.03339527
-0.031572193 -0.0783098 -0.062135726 0.00058278366 0.022390325 0.09663481 -0.07689699 -0.027004665
0.088696 -0.010590663 -0.009113198 0.006283298 0.026956582 0.036951847 -0.018717369 0.07386268
0.047131963 0.04582936 -0.039465822 -0.040283613 0.03759062 -0.028007876 -0.026147105 -0.058042325
0.036041565 0.012141115 -0.018026244 -0.05501809 -0.033611722 0.04025328 -0.010812901 -0.019092731
-0.025944982 0.016080711 0.030027863 0.02784019 0.03582677 -0.015810428 0.04030438 -0.04221532
0.005137679 0.07541545 -0.00358029 -0.030687131 -0.006380435 -0.011900317 0.026225774 0.038308427
-0.08535577 0.045385193 0.024711981 -0.016924793 -0.031272206 0.011638517 0.050169025 0.018154861
-0.0036317634 -0.011093928 0.0015797592 0.0886784 -0.013585766 0.029410996 0.006029331 -0.0025718324
0.08673618 -0.011493558 -0.00094443973 0.022056757 -0.03040648 0.093751736 0.06633482 0.018432133
0.0019613039 0.026920764 0.0038273248 -0.007776019 0.01667048 -0.046871495 -0.05502898 -0.017941045
-0.023309434 0.017509224 0.0017248427 -0.019863855 -0.014924862 0.031075124 0.029221099 -0.007632858
0.022165844 -0.0063634943 0.05998092 0.043307085 -0.03517937 0.012264489 0.0012253663 -0.009081924
-0.069687024 -0.0785539 -0.04296185 0.018744979 0.110382356 0.07459454 0.010809666 0.073740706
0.016608214 0.0051470646 -0.0086660525 -0.048819676 -0.102091104 0.03372255 0.038872145 -0.036165044
0.02095802 0.015973125 0.018715264 -0.004219832 0.02341185 0.04940142 0.034123052 -0.01852757
0.034179345 0.01070061 0.014558435 -0.011725403 -0.042341694 -0.06448144 0.09431706 -0.011596166
0.024431424 0.023643143 0.0644734 0.034553576 -0.00792413 0.023173094 -0.035088114 -0.04208781
0.02777864 0.070534825 0.0026181468 -0.030356925 -0.08687258 0.06677709 -0.030849986 -0.025944337
0.006497668 0.032402944 -0.044839863 -0.026999896 0.020377861 -0.034715272 -0.007907532 -0.013457373
-0.045012217 -0.023596985 -0.08251413 -0.055491447 -0.073811814 -0.038833793 0.053414695 0.051789917
0.03941032 0.15664785 -0.021537311 -0.07450356 -0.027958311 -0.01742659 -0.0011206889 0.012255213
-0.019402446 -0.03787046 0.006384685 0.02454916 -0.059784345 0.0067835143 -0.013528295 -0.02246972
0.045839664 0.013537008 -0.004189907 -0.054714043 -0.012289965 -0.014198741 -0.007893448 0.019213587
00000000: 1dc1 ffbc d00c 03bd 5ef3 d73c 15c8 b93b
00000010: 1c3f 7bbd da8c 2cbc cff5 ac3c e2af 7bbb
00000020: 699d 553c 715d 193d 5486 da3b 6678 1fbd
00000030: 8cc4 e23c c492 2dbd c68a 663c 2c93 bcbd
00000040: b6cf 66bd 721b 173d 5acf 02bc 538f 67bd
00000050: 2769 0cbc a53a 7abb 4acc ce3c 336f 8e3c
00000060: 51ed 22bd 5ed1 81bc 745b cf3b f665 213d
00000070: 040c c4bc 1d02 9abd 214c 1a3d 5626 9a3b
00000080: e517 53bd f180 9e3d ffc6 d13c 08fb c8bc
00000090: 7f43 f43c 937d 823c bee7 c6bc fdad a2bb
000000a0: c9b2 17bd 7c03 aabc 5cd5 ab3c 1e87 583d
000000b0: f457 8f3b 6d0b 4b3c f662 fbbc 50f7 5abc
000000c0: 8c03 49bd 94ce 37bd fe2e 14bb 1331 543d
000000d0: 944a a5bc f2a3 203d a1df 9a3d abba f23d
000000e0: 5b44 803c d22b 953c e146 b439 1452 e8bc
000000f0: b288 593d e823 133d 0bb1 06bd 2f42 aabc
00000100: 5706 963d 9947 6f3d b8dd eb3c bc99 b33c
00000110: c2c7 313d 6aa8 923d e6ca bdbc 7bc9 08bd
00000120: d851 01bd e360 a0bd 0882 7ebd f3c5 183a
00000130: ea6b b73c 79e8 c53d 2b7c 9dbd e338 ddbc
00000140: 40a6 b53d 7684 2dbc 864f 15bc 20e4 cd3b
00000150: 0dd4 dc3c d25a 173d 2b55 99bc 5145 973d
00000160: 720d 413d 91b7 3b3d eaa6 21bd 6e00 25bd
00000170: 9ff8 193d c670 e5bc 7432 d6bc cabd 6dbd
00000180: 52a0 133d 87eb 463c c6ab 93bc a65a 61bd
00000190: 72ac 09bd a0e0 243d 9828 31bc 5c68 9cbc
000001a0: 928a d4bc b2bb 833c fefc f53c 1c11 e43c
000001b0: 17bf 123d df84 81bc 3516 253d f9e9 2cbd
000001c0: fa59 a83b 6a73 9a3d 4ca3 6abb 9463 fbbc
000001d0: f812 d1bb 8cf9 42bc 6fd7 d63c 4ce9 1c3d
000001e0: 02cf aebd d3e5 393d c870 ca3c dda5 8abc
000001f0: 4917 00bd 7aaf 3e3c 097e 4d3d 81b9 943c
00000200: e102 6ebb 4ec3 35bc ec0f cf3a 059d b53d
00000210: d596 5ebc 54ef f03c b291 c53b 308c 28bb
00000220: bda2 b13d 7a4f 3cbc 4794 77ba 5fb0 b43c
00000230: 0317 f9bc e900 c03d 8dda 873d fcfe 963c
00000240: 3889 003b ef88 dc3c dbd3 7a3b facd febb
00000250: 8890 883c 53fc 3fbd 1166 61bd 19f9 92bc
00000260: 6df3 bebc 816f 8f3c 1e14 e23a 86b9 a2bc
00000270: 6987 74bc 4291 fe3c 1661 ef3c 0e1d fabb
00000280: 2595 b53c dc84 d0bb 8eae 753d c562 313d
00000290: 3e18 10bd fff0 483c 789c a03a 5acc 14bc
000002a0: 12b8 8ebd dee0 a0bd c4f8 2fbd 128f 993c
000002b0: 2510 e23d 06c5 983d 061b 313c 5e05 973d
000002c0: f30d 883c b5a8 a83b 0ffc 0dbc 24f7 47bd
000002d0: 2415 d1bd a820 0a3d 6638 1f3d cc21 14bd
000002e0: 27b0 ab3c 12da 823c c150 993c 8446 8abb
000002f0: 35ca bf3c 2559 4a3d 9dc4 0b3d 21c7 97bc
00000300: a4ff 0b3d 9c51 2f3c 8186 6e3c e81b 40bc
00000310: 7c6e 2dbd d80e 84bd 4e29 c13d d8fd 3dbc
00000320: 6924 c83c 44af c13c a10a 843d 0d88 0d3d
00000330: 36d4 01bc 80d5 bd3c 8eb8 0fbd 4464 2cbd
00000340: 0890 e33c 9074 903d 3795 2b3b 16af f8bc
00000350: 40ea b1bd 6dc2 883d 1cb9 fcbc 3889 d4bc
00000360: 64ea d43b f3b8 043d 01aa 37bd e32e ddbc
00000370: 79ef a63c 9a31 0ebd 988e 01bc 507c 5cbc
00000380: bb5e 38bd 774e c1bc 2bfd a8bd 004b 63bd
00000390: a62a 97bd 2f10 1fbd 5ec9 5a3d aa21 543d
000003a0: b76c 213d 4b68 203e 046f b0bc 5395 98bd
000003b0: d408 e5bc 35c2 8ebc 14e4 92ba 17ca 483c
000003c0: e1f1 9ebc 0e1e 1bbd 9f36 d13b 521b c93c
000003d0: 6ee0 74bd 3e48 de3b c8a5 5dbc 6b12 b8bc
000003e0: 5fc2 3b3d 54ca 5d3c 7d4b 89bb d51b 60bd
000003f0: d95b 49bc d6a1 68bc 8553 01bc d065 9d3c

layer3.0.bias f4 [32]
0.04315189 -0.01719306 -0.0034651945 0.060734827 -0.049326096 -0.001687755 -0.053147104 -0.035824258
0.037185155 -0.025081595 -0.018117601 0.0299346 0.023543317 -0.05256175 0.039328378 0.04273315
0.03742387 -0.058051787 0.017090492 0.04710227 -0.01497491 -0.025917789 -0.019396396 -0.020436483
0.015719175 -0.035575546 -0.040380932 -0.032555826 -0.02980738 0.051388364 0.0010351012 0.04182511
00000000: 09c0 303d 76d8 8cbc 5118 63bb 15c5 783d
00000010: 290a 4abd a937 ddba c7b0 59bd 75bc 12bd
00000020: 764f 183d eb77 cdbc 5d6b 94bc 6839 f53c
00000030: eadd c03c fd4a 57bd cb16 213d f508 2f3d
00000040: c649 193d b6c7 6dbd 5c01 8c3c 4fee 403d
00000050: 5359 75bc 8b51 d4bc 31e5 9ebc 696a a7bc
00000060: 80c5 803c aab7 11bd 7a66 25bd 4259 05bd
00000070: 9b2e f4bc 9b7c 523d 3cac 873a ce50 2b3d

layer3.1.weight f4 [32]
1.2517703 1.2196301 1.1816654 1.1978368 1.2315862 1.227266 1.2251296 1.2428994
1.1805992 1.2425807 1.162535 1.1420043 1.2254857 1.1857721 1.1645848 1.2870817
1.1962029 1.1991411 1.2427104 1.1761808 1.2749355 1.2188314 1.2146581 1.2524545
1.1339694 1.1458272 1.1940752 1.2293881 1.1901782 1.2566276 1.1944337 1.2196598
00000000: 023a a03f d71c 9c3f d040 973f b752 993f
00000010: 9ea4 9d3f 0d17 9d3f 0cd1 9c3f 5417 9f3f
00000020: e01d 973f e20c 9f3f f2cd 943f 322d 923f
00000030: b7dc 9c3f 61c7 973f 1d11 953f 18bf a43f
00000040: 2d1d 993f 757d 993f 2211 9f3f 188d 963f
00000050: 1631 a33f ab02 9c3f eb79 9b3f 6e50 a03f
00000060: e925 913f 77aa 923f 75d7 983f 975c 9d3f
00000070: c257 983f 2cd9 a03f 34e3 983f d01d 9c3f

layer3.1.bias f4 [32]
-0.08997366 -0.13525292 -0.09646787 -0.07426136 -0.067528516 -0.067735285 -0.06550615 -0.08500402
-0.029624073 -0.118813895 -0.089933656 -0.055005 -0.12251823 -0.082968414 -0.04602377 -0.15131511
-0.08527049 -0.12171507 -0.14703166 -0.072656624 -0.17559929 -0.07520502 -0.16233031 -0.10175749
-0.066693954 -0.09359436 -0.11963384 -0.08599899 -0.06710798 -0.13533272 -0.12983479 -0.105199695
00000000: 1c44 b8bd be7f 0abe f290 c5bd 5716 98bd
00000010: 644c 8abd ccb8 8abd 1728 86bd 9616 aebd
00000020: 2fae f2bc b354 f3bd 232f b8bd ec4c 61bd
00000030: d6ea fabd 58eb a9bd 6c83 3cbd 59f2 1abe
00000040: 4ba2 aebd c045 f9bd 788f 16be ffcc 94bd
00000050: 4dd0 33be 1705 9abd eb39 26be 3b66 d0bd
00000060: d796 88bd 66ae bfbd 9602 f5bd 3d20 b0bd
00000070: e96f 89bd a994 0abe 69f3 04be f072 d7bd

layer3.1.running_mean f4 [32]
0.2702255 -0.11163724 -0.00185074 0.11707466 -0.49135038 0.012508909 -0.2376535 0.06405775
0.13582979 0.020495642 0.25028792 -0.3589804 0.24333088 0.12413864 0.121689215 0.32375604
0.079792924 0.22064155 -0.09874407 0.1669692 -0.07591032 -0.27124986 0.19881807 0.71240944
-0.21849951 -0.10199983 0.09287684 0.049678136 0.098627284 0.023893796 0.057389393 0.403511
00000000: ff5a 8a3e 11a2 e4bd 8894 f2ba d7c4 ef3d
00000010: 4792 fbbe 2bf2 4c3c 705b 73be b630 833d
00000020: f716 0b3e 7ae6 a73c bd25 803e 47cc b7be
00000030: bb2b 793e 663c fe3d 3238 f93d 5ac3 a53e
00000040: 796a a33d dcef 613e 553a cabd f9f9 2a3e
00000050: df76 9bbd 43e1 8abe f796 4b3e 7760 363f
00000060: 56be 5fbe 49e5 d0bd 3636 be3d 4d7b 4b3d
00000070: 1afd c93d ecbc c33c 2411 6b3d fe98 ce3e

layer3.1.running_var f4 [32]
0.13828328 0.10962684 0.21035618 0.18498373 0.13325664 0.14976822 0.10336712 0.113032
0.17282331 0.15459038 0.14639102 0.14895286 0.14425942 0.15142903 0.15166043 0.15269259
0.10621686 0.112657875 0.14691976 0.14248031 0.13180232 0.19599488 0.10541023 0.16399118
0.14696717 0.16301605 0.13274355 0.16038197 0.13764338 0.15317787 0.15975724 0.1717238
00000000: 229a 0d3e 0984 e03d 9c67 573e 606c 3d3e
00000010: 6e74 083e d75c 193e 24b2 d33d 527d e73d
00000020: 98f8 303e f14c 1e3e 87e7 153e 1987 183e
00000030: beb8 133e 3610 1b3e df4c 1b3e 725b 1c3e
00000040: 3a88 d93d 2cb9 e63d 2272 163e 5ce6 113e
00000050: 30f7 063e e2b2 483e 52e1 d73d 4eed 273e
00000060: 907e 163e aeed 263e eded 073e 2c3b 243e
00000070: 63f2 0c3e a9da 1c3e 6797 233e 5dd8 2f3e

fc1.weight f4 [32, 512]
0.010560804 0.010402134 0.051523916 -0.017109467 0.038955197 -0.12788536 -0.023634072 0.097500734
0.02599521 -0.00867392 0.039570086 0.00093357754 -0.08838821 -0.028628903 -0.021988405 -0.055198714
-0.010116778 -0.08014731 -0.059386577 0.0056229425 -0.013604696 -0.0033219818 -0.00829183 -0.03472563
0.023496656 -0.023140717 -0.0654244 -0.027497519 -0.004128238 -0.05591109 -0.0069737015 -0.006469398
-0.049465775 0.008319917 0.06686629 -0.036257006 0.05679054 0.06295369 -0.061258122 0.0788863
0.045204595 -0.0077239154 0.0054165297 0.06283916 0.00036117484 0.0029190269 0.032960586 0.008783675
-0.010424214 -0.009927647 0.050832823 0.004151238 0.051050372 0.003831591 -0.01279036 0.015381517
0.004917912 -0.13644531 0.073686086 0.007847048 -0.005266651 0.04877782 0.014554283 -0.014350763
-0.022483144 0.034593727 -0.04369827 -0.038329795 -0.009358685 0.008607004 0.05746091 -0.025950318
-0.059819106 0.029000323 -0.020108294 -0.0618662 -0.034065485 0.033943694 -0.0041226093 -0.05693881
-0.006632678 -0.0141994115 0.040426053 -0.01540794 -0.019281797 -0.034039315 -0.112893224 -0.015337689
-0.027852517 0.069606714 0.039358515 0.088667355 0.005045025 -0.015508703 -0.028527515 -0.10602757
0.032203775 0.033331834 0.020374615 0.036229327 0.011785898 0.006136469 0.121421434 0.08012562
0.07076393 0.040416386 -0.046336967 0.0645334 0.046760004 0.0600121 0.018636841 -0.030430092
-0.023898229 -0.06462356 0.091859 0.0021111546 -0.00058648 -0.057109207 -0.07149019 0.07995597
-0.04533391 0.010313644 0.072241336 -0.07329146 -0.017610468 -0.031521343 -0.038259488 -0.010674316
0.009085314 0.03761061 0.02404666 0.025560312 0.07560971 0.075405985 0.029259322 0.08882259
0.012848583 0.063162394 -0.026151476 0.052648615 0.039680023 0.01711109 -0.004563086 0.05399351
-0.06985074 0.009831061 -0.02170558 0.020558713 -0.034392893 0.0014738976 0.014732742 -0.004372047
-0.031149514 -0.011790684 0.054019406 -0.034448918 -0.053538557 0.06030287 -0.012249753 0.0383581
0.0154016 -0.0058048437 -0.037107937 -0.011414097 -0.05932656 0.046821438 -0.0829787 0.0143281985
-0.06811921 0.021861246 -0.015885102 -0.002996203 -0.05000856 -0.05905049 -0.026131911 -0.025533786
-0.011162206 0.043287404 0.06302824 0.06846413 0.059931975 -0.013494535 0.05365646 0.04270629
-0.011328808 0.07155493 -0.059454687 0.12474135 0.05971582 0.043291837 0.07651457 0.01427643
0.04756699 0.010127648 -0.028460803 0.04374463 -0.055743203 -0.044563383 -0.03345622 -0.020631688
0.037046514 0.022733873 0.05166781 0.061483305 0.040119898 0.035289794 0.025326407 0.044600643
-0.007810563 0.033144217 0.042225968 0.03874423 -0.08360172 0.047591817 -0.04164607 0.014312646
-0.021157937 -0.06990847 -0.16618548 -0.071493 0.0035303526 -0.027578956 -0.030709812 0.03644674
0.043944348 0.043894116 0.035271835 0.073703885 -0.031619236 0.059987772 -0.11895697 -0.023066722
-0.036529593 -0.04251138 -0.06678968 0.04583714 0.044829857 0.03689248 0.027470887 -0.010598228
-0.045567945 0.013861724 0.0045690914 0.010672098 -0.028259322 0.023333635 0.03381464 -0.019896487
-0.022638772 0.019136922 0.13313352 -0.049842827 0.012562417 -0.018071573 -0.014053153 0.017628666
00000000: 3907 2d3c b66d 2a3c be0a 533d 2729 8cbc
00000010: 7c8f 1f3d 61f4 02be 3e9c c1bc 77ae c73d
00000020: e8f3 d43c 0f1d 0ebc 3e14 223d 54bb 743a
00000030: e104 b5bd 2987 eabc 0721 b4bc 0c18 62bd
00000040: d8c0 25bc 4624 a4bd 573f 73bd a940 b83b
00000050: 3be6 5ebc 9bb5 59bb 75da 07bc 763c 0ebd
00000060: 0f7c c03c 9a91 bdbc 3afd 85bd 7a42 e1bc
00000070: 2c46 87bb 0703 65bd a683 e4bb 3efd d3bb
00000080: a09c 4abd 4350 083c 32f1 883d 3a82 14bd
00000090: 339d 683d dded 803d cce9 7abd 248f a13d
000000a0: 7428 393d e618 fdbb 257d b13b d1b1 803d
000000b0: 115c bd39 254d 3f3b ae01 073d 67e9 0f3c
000000c0: 53ca 2abc 92a7 22bc 1436 503d 1c07 883b
000000d0: 321a 513d 6e1b 7b3b a88e 51bc c202 7c3c
000000e0: 7026 a13b 52b8 0bbe bbe8 963d e890 003c
000000f0: df93 acbb 40cb 473d 1675 6e3c 761f 6bbc
00000100: 922e b8bc 27b2 0d3d f5fc 32bd b4ff 1cbd
00000110: 2c55 19bc 6404 0d3c 225c 6b3d c395 d4bc
00000120: e104 75bd 1692 ed3c 26ba a4bc 6a67 7dbd
00000130: 4088 0bbd 8b08 0b3d f416 87bb ab38 69bd
00000140: f056 d9bb a6a4 68bc ca95 253d 9671 7cbc
00000150: dcf4 9dbc cf6c 0bbd 9034 e7bd ee4a 7bbc
00000160: f62a e4bc f78d 8e3d 6536 213d 3b97 b53d
00000170: bd50 a53b 3718 7ebc 89b2 e9bc fc24 d9bd
00000180: 1be8 033d f686 083d aae8 a63c 3465 143d
00000190: a419 413c 6f14 c93b cdab f83d e718 a43d
000001a0: aeec 903d a78b 253d d5cb 3dbd 162a 843d
000001b0: 6b87 3f3d 3fcf 753d 4aac 983c 8748 f9bc
000001c0: 38c6 c3bc 5b59 84bd 9220 bc3d 4c5b 0a3b
000001d0: 02be 19ba 58eb 69bd 7369 92bd f5bf a33d
000001e0: 0db0 39bd 8ffa 283c 44f3 933d d519 96bd
000001f0: d443 90bc 861c 01bd fbb5 1cbd 54e3 2ebc
00000200: 92da 143c 950d 1a3d 80fd c43c dc63 d13c
00000210: 43d9 9a3d 746e 9a3d 3fb1 ef3c 9ee8 b53d
00000220: dd82 523c 495b 813d 9f3b d6bc 13a6 573d
00000230: 8587 223d 8e2c 8c3c f185 95bb 4c28 5d3d
00000240: e80d 8fbd 7512 213c e7cf b1bc bf6a a83c
00000250: 90df 0cbd cc2f c13a 9961 713c 6343 8fbb
00000260: 442d ffbc b72d 41bc 7443 5d3d 4f1a 0dbd
00000270: 3f4b 5bbd 2400 773d 30b3 48bc 621d 1d3d
00000280: fe56 7c3c 8f36 bebb 7efe 17bd 3102 3bbc
00000290: 6800 73bd d6c7 3f3d bdf0 a9bd d2c0 6a3c
000002a0: 1682 8bbd 5b16 b33c 7921 82bc f25b 44bb
000002b0: c7d5 4cbd edde 71bd 9712 d6bc 3b2c d1bc
000002c0: afe1 36bc 224e 313d f314 813d ec36 8c3d
000002d0: 3b7b 753d 2f18 5dbc e0c6 5b3d caec 2e3d
000002e0: 779c 39bc 648b 923d c286 73bd 6578 ff3d
000002f0: 9398 743d c852 313d acb3 9c3d b0e7 693c
00000300: 9bd5 423d 6fee 253c a126 e9bc 922d 333d
00000310: fc52 64bd 1888 36bd 6409 09bd c903 a9bc
00000320: 16be 173d 633c ba3c a0a1 533d ebd5 7b3d
00000330: c354 243d 088c 103d 5379 cf3c 2aaf 363d
00000340: c0ef ffbb 3bc2 073d 23f5 2c3d 45b2 1e3d
00000350: 6137 abbd a3ef 423d 1295 2abd 977f 6a3c
00000360: 6953 adbc 2c2c 8fbd 872c 2abe ec6a 92bd
00000370: 7d5d 673b 43ed e1bc 2593 fbbc 2d49 153d
00000380: fdfe 333d 51ca 333d 3379 103d 10f2 963d
00000390: 2c83 01bd bdb5 753d b69f f3bd 6cf6 bcbc
000003a0: 0ea0 15bd 6a20 2ebd 07c9 88bd babf 3b3d
000003b0: 839f 373d 921c 173d a00a e13c 31a4 2dbc
000003c0: 74a5 3abd 491c 633c 51b8 953b 06da 2e3c
000003d0: 1880 e7bc 2e26 bf3c 3881 0a3d f5fd a2bc
000003e0: f274 b9bc 09c5 9c3c 2754 083e fe27 4cbd
000003f0: 99d2 4d3c d60a 94bc 323f 66bc fe69 903c

fc1.bias f4 [32]
0.02138692 -0.006997038 -0.059713937 -0.0013908091 0.0045723896 0.010540395 -0.002223381 -0.0165604
0.028434783 0.034038045 -0.01869886 0.01790165 -0.0138206165 0.028478866 -0.008134026 -0.031419296
0.03052973 0.014171876 -0.016839735 0.059371226 -0.029891765 -0.015977208 -0.05493807 -0.017466566
-0.010393037 0.022222452 0.014738865 -0.0034485466 -0.01005475 -0.02312936 0.042437684 0.028613806
00000000: 9f33 af3c 6947 e5bb 9a96 74bd cf4b b6ba
00000010: fcd3 953b 9fb1 2c3c 25b6 11bb ada9 87bc
00000020: 10f0 e83c 7a6b 0b3d 5a2e 99bc 7ba6 923c
00000030: de6f 62bc 834c e93c 9444 05bc 85b1 00bd
00000040: 7c19 fa3c 2831 683c 7cf3 89bc 3e2f 733d
00000050: 93df f4bc a2e2 82bc be06 61bd 0b16 8fbc
00000060: 8f47 2abc dc0b b63c 487b 713c 0301 62bb
00000070: aebc 24bc c979 bdbc 23d3 2d3d 8067 ea3c

fc2.weight f4 [13, 32]
0.19996609 -0.22323431 -0.20357327 -0.021571467 -0.20232707 0.055877466 -0.05024846 -0.28814542
0.157744 -0.022595372 0.20421706 0.18702798 0.02962439 0.09962151 -0.19172007 -0.07460645
-0.12195088 -0.012520921 0.049261473 0.08369352 0.039427415 0.017943317 0.06806215 0.13718009
0.1279694 0.24334662 0.017873053 -0.0382835 -0.1208767 -0.19611225 0.17873764 0.059105936
-0.028498216 -0.041926987 -0.13778909 -0.100324355 -0.05694332 0.049750943 -0.24374175 0.14472693
0.042147707 -0.1724288 -0.35493195 -0.19189286 0.28492495 0.18262027 0.12346934 0.17608446
0.032680783 0.11267604 0.2931143 0.24188063 0.23671263 0.16956598 0.0031905582 0.23979951
0.16054088 -0.27081987 0.16522847 -0.07886379 -0.03663642 0.046580542 0.027924158 0.07482407
-0.17649479 0.019271053 0.22545785 0.23027645 -0.10566955 0.23692654 0.06648709 -0.014972219
-0.14143693 -0.10364357 -0.049747262 0.10323612 -0.12188873 0.21139792 0.2107723 -0.1325586
-0.08999419 0.20599295 0.31389564 0.12534004 0.20490344 -0.26666826 0.20666228 -0.10347994
-0.0034091007 0.15856533 -0.22191226 0.052675124 0.21625395 -0.020562788 -0.26851916 -0.18209346
-0.11100539 -0.023995603 0.21673466 -0.15532827 -0.28746158 -0.14464208 0.20685752 -0.012646697
-0.33451456 -0.15307264 -0.1256233 -0.14017457 0.013215042 -0.12822306 -0.20001198 0.2448775
0.1895565 -0.15745969 0.0005377331 -0.15143056 0.1632427 0.27050978 -0.027972618 0.07018377
-0.18659873 0.25250527 -0.13892187 -0.24793653 0.20496486 -0.14534983 0.2213055 -0.2549981
0.016047914 0.20711553 0.11714241 -0.20801213 -0.0932014 -0.2761883 -0.07244969 0.19434486
0.17178503 -0.1544517 0.1627973 0.10003639 -0.06827914 -0.24084592 -0.09631082 0.21254279
0.018868174 0.049391784 0.16392487 -0.17767699 -0.29238686 0.1801667 0.18659124 0.23239692
0.21556132 0.15835586 0.13853128 0.12987173 -0.029306373 0.25016028 -0.053963438 -0.069765076
-0.107863955 -0.14931984 0.2668891 0.037449323 0.17453441 -0.12660798 -0.14966787 0.053187773
0.093049504 -0.0687597 0.0013273362 -0.17559123 -0.2938857 -0.32127467 0.141494 -0.091188736
-0.13183054 0.15127483 0.27221 -0.38796654 0.09740749 0.20773695 0.1912991 0.054586004
0.18419595 0.09059048 0.007944713 -0.086360246 0.21537474 0.09851582 -0.16675949 0.13190646
0.19428402 -0.16375506 -0.07219823 -0.19706762 0.2386602 0.13162042 0.055615872 0.1411157
-0.079540454 0.16948785 -0.024676181 0.23431966 -0.21431413 -0.13575906 -0.15389723 -0.1294769
0.15922453 0.014749271 -0.21533598 0.07035734 -0.21253909 -0.1295624 0.07991582 0.030298017
-0.0259801 0.15514679 -0.026399033 0.012835591 0.13146952 -0.06410186 0.037749626 0.17684664
-0.09741417 -0.23045172 -0.17201571 0.1833462 -0.17377822 -0.12541498 0.21102457 -0.23937835
0.04505213 0.260905 -0.22278818 0.14223076 0.23197089 -0.21700966 0.1394196 0.060321663
-0.17546305 -0.19938847 -0.1380508 -0.09335884 0.0030737398 -0.13410503 -0.12454324 -0.17770986
-0.02296596 -0.18126364 0.23382622 -0.18466552 -0.15438111 0.002536151 -0.26839626 0.06409244
00000000: e9c3 4c3e 8997 64be 8375 50be a5b6 b0bc
00000010: d42e 4fbe c5df 643d 54d1 4dbd cc87 93be
00000020: a587 213e ee19 b9bc 471e 513e 4384 3f3e
00000030: d9ae f23c 5d06 cc3d 4452 44be 44cb 98bd
00000040: 62c1 f9bd 8d24 4dbc 66c6 493d 8267 ab3d
00000050: a47e 213d ddfd 923c 2b64 8b3d f078 0c3e
00000060: 690a 033e db2f 793e 826a 923c 29cf 1cbd
00000070: 348e f7bd a6d1 48be 0007 373e 1119 723d
00000080: 1775 e9bc a2bb 2bbd 9518 0dbe db76 cdbd
00000090: 663d 69bd a5c7 4b3d 7097 79be 4c33 143e
000000a0: 13a3 2c3d 2d91 30be a4b9 b5be 907f 44be
000000b0: afe1 913e cf00 3b3e 7edd fc3d 7c4f 343e
000000c0: 49dc 053d b2c2 e63d 1413 963e 8eaf 773e
000000d0: cc64 723e b4a2 2d3e af18 513b 018e 753e
000000e0: d464 243e e7a8 8abe a731 293e 5783 a1bd
000000f0: 1210 16bd 3dcb 3e3d 34c1 e43c 5d3d 993d
00000100: 0dbb 34be 54de 9d3c 6cde 663e 97cd 6b3e
00000110: 4769 d8bd df9c 723e 622a 883d 0a4e 75bc
00000120: d8d4 10be 1443 d4bd c9c3 4bbd 756d d33d
00000130: cca0 f9bd b278 583e b2d4 573e 71bd 07be
00000140: e04e b8bd d1ef 523e eeb6 a03e 2459 003e
00000150: 35d2 513e be88 88be 479f 533e 4aed d3bd
00000160: 386b 5fbb f35e 223e f83c 63be dfc1 573d
00000170: ad71 5d3e 4b73 a8bc 587b 89be b576 3abe
00000180: cb56 e3bd 6d92 c4bc b1ef 5d3e 600e 1fbe
00000190: 2a2e 93be 0e1d 14be 75d2 533e 1834 4fbc
000001a0: 7e45 abbe 13bf 1cbe 65a3 00be ec89 0fbe
000001b0: e783 583c e84c 03be f1cf 4cbe 2bc1 7a3e
000001c0: 191b 423e 1d3d 21be a8f6 0c3a 9d10 1bbe
000001d0: 1829 273e 4280 8a3e d526 e5bc 82bc 8f3d
000001e0: bd13 3fbe 5f48 813e 8941 0ebe 13e3 7dbe
000001f0: 4fe2 513e 96d6 14be e99d 623e 1c8f 82be
00000200: ea76 833c 1816 543e 5ce8 ef3d 2201 55be
00000210: 60e0 bebd 8e68 8dbe 8160 94bd 5702 473e
00000220: 6ae8 2f3e 9628 1ebe 56b4 263e e1df cc3d
00000230: efd5 8bbd 50a0 76be 9b3e c5bd d1a4 593e
00000240: 6e91 9a3c 0a4f 4a3d ecdb 273e f5f0 35be
00000250: bbb3 95be 9f7d 383e c611 3f3e 75f9 6d3e
00000260: 1bbc 5c3e 0a28 223e 25db 0d3e 18fd 043e
00000270: eb13 f0bc 0215 803e c408 5dbd fee0 8ebd
00000280: c7e7 dcbd 4de7 18be b0a5 883e 7664 193d
00000290: 26b9 323e 86a5 01be 8942 19be 6cdb 593d
000002a0: bd90 be3d e3d1 8cbd 03fa ad3a 30ce 33be
000002b0: 3078 96be 1d7e a4be cee3 103e 29c1 babd
000002c0: 96fe 06be cae7 1a3e 1c5f 8b3e 8da3 c6be
000002d0: 947d c73d ffb8 543e e9e3 433e 9395 5f3d
000002e0: dd9d 3c3e 8087 b93d 8b2a 023c a4dd b0bd
000002f0: 328b 5c3e aac2 c93d 00c3 2abe 7d12 073e
00000300: 64f2 463e 68af 27be aadc 93bd 18cc 49be
00000310: 5763 743e 81c7 063e 78cd 633d a280 103e
00000320: 1be6 a2bd 398e 2d3e b425 cabc 7ef1 6f3e
00000330: 2a75 5bbe 6c04 0bbe 3c97 1dbe 9895 04be
00000340: c10b 233e eda6 713c 0981 5cbe 8217 903d
00000350: d9a3 59be 01ac 04be e8aa a33d 8c33 f83c
00000360: 38d4 d4bc cdde 1e3e c942 d8bc 5f4c 523c
00000370: f29f 063e d647 83bd 5a9f 1a3d 4917 353e
00000380: 1581 c7bd 89fb 6bbe e324 30be 1bbf 3b3e
00000390: ebf2 31be c96c 00be d316 583e 991f 75be
000003a0: 9588 383d 5795 853e 9622 64be f1a4 113e
000003b0: c789 6d3e c837 5ebe 03c4 0e3e d913 773d
000003c0: 96ac 33be 7e2c 4cbe 305d 0dbe eb32 bfbd
000003d0: cc70 493b d452 09be 8710 ffbd 93f9 35be
000003e0: 1c23 bcbc 2d9d 39be 2470 6f3e f518 3dbe
000003f0: 1516 1ebe 8e35 263b 3c6b 89be e642 833d

fc2.bias f4 [13]
-0.15811186 -0.036112238 -0.101650044 -0.087725006 -0.045833103 -0.015001499 0.18177664 -0.014871935
0.056495547 -0.16246268 0.14077325 -0.006356747 -0.0004187399
00000000: 13e8 21be 6dea 13bd e62d d0bd 2ba9 b3bd
00000010: 7ebb 3bbd d9c8 75bc a823 3a3e 6ba9 73bc
00000020: e067 673d 9e5c 26be dd26 103e 424c d0bb
00000030: 518a dbb9
