conv_net_model.ckpt (torch, 133338 bytes, 22 tensors)

layer1.0.weight f4 [16, 3, 3, 3]
00000000: 96c5 aa3a c93e 9b3d 0a0f 49be 4228 b0bc
00000010: 983a 1e3e 90e9 043d 76a7 4a3e e262 d6bd
00000020: 7f7d c63d 71af 303d 5e5e fd3d 388a b5bc
00000030: 4df9 34bd 6a37 b53d 2a68 1abe 4182 43bd
00000040: 9972 0cbe ab6b 4ebe e8df ca3d 500f 59bd
00000050: 2933 98bd 3234 0b3e 5a1b 183e 950c 2ebe
00000060: 5674 2f3c 627a 8fbd c92f 613d ed26 083c
00000070: 5741 86bd 7cc8 1e3d e4da 913d 7085 e9ba
00000080: 157c e7bc 1227 763c ecfd 763d 230e b33d
00000090: 7b30 81bd 6430 7abd 162f a33d 6161 23be
000000a0: 8ab4 70bd e019 db3d aeb6 bfbc c7d6 573d
000000b0: 4f72 c33d a988 b73d f956 80bd 84d9 ef3c
000000c0: 5c40 85bd dd83 92bc 838d 213e b779 02be
000000d0: 3c91 833d c21f 593c 23bf aa3c 83ca c33d
000000e0: 269e abbc 0bb3 ef3d 314d 11be bfe6 08bd
000000f0: a272 c43d 98e2 a3bd 28ea e23d ebec 183e
00000100: 65b8 2a3e 3f08 963c b8de 273d fba2 053d
00000110: 71fd b23d 3303 073e c753 2ebd 941d a7bd
00000120: 52fd de3d e2a8 18bc ad6d a2bd e4c0 213e
00000130: 8e51 3ebe 48dc 76bd 118b a93d e784 5bbe
00000140: 510e cc3d 5be9 5abd cefd c2bd a83a 813e
00000150: 551a f63b 4c8d b7bc d040 abbd e65b fe3c
00000160: 39cf 113e 57f6 ea3d dff6 bbbd 3bee 3abe
00000170: f581 183c 89e9 9dbd 1507 773d 1ad3 febd
00000180: 921f 193d 3e8d 5ebe 7f7b b5bb 0f20 0f3e
00000190: 8544 43bd a0d6 2a3c 50e3 aa3d f533 c2ba
000001a0: 74a6 65bd dce7 4fbd 6d2a bbbd 7851 aa3c
000001b0: 9511 03bd 5779 54be d4fb 29be 1ca8 7bbd
000001c0: 394f df3d fb4c 153d 4962 fa3d 9601 fb3d
000001d0: 1a3c 413e f25e 9f3d 5642 b23d 499b 063e
000001e0: cd3d 32be 42df 22be 34d6 cbbd 1d85 d53c
000001f0: 9020 2d3e f3a2 8abb 3792 373e 0bb7 143c
00000200: 34a5 acbd cbe6 f43d 10fe 9e3d 4e10 9ebd
00000210: a159 3bbb 9351 6ebd 2fea 723d 8f1d 2dbe
00000220: 3203 04be 9a8f 8f3d eba4 a63d 129f 2b3d
00000230: f5ba b53d c44d 5ebe 963e 7d3d c9f7 f23d
00000240: c7fc 0a3d 334a 283e f6a7 6d3d baac 43be
00000250: ad8a 753d 296e dcbd 149d 8dbc 4ac3 11bd
00000260: 4b4d 2a3e 1543 28be 9d6d de3d f775 133d
00000270: 07d0 993d 6f44 cbbd 7074 a23d c54e 3ebe
00000280: 26a8 8b3b 361a 743c 1b0b 04be c0c1 e73d
00000290: c155 223e 3a12 e23d 64c5 21bd c70e 103d
000002a0: 42a7 473d 1eca 3d3e 5bc7 0cbe c46f ad3d
000002b0: 3985 c33b ae11 a53c 8221 37bd 001d 873d
000002c0: e263 083d f642 b5bd 1ba1 19be a55f 433d
000002d0: 15bf e4bd 9c76 48be 312e 06be 6a55 7fbe
000002e0: 1e88 183e 2937 3b3e 8152 5fbe 9da7 b43c
000002f0: 2f6d b4bc f6cf 36be 27d0 0a3e 5552 1d3e
00000300: d6d3 603d e1ee 17be 8132 19be 24d7 0ebc
00000310: 772e 8dbc b6a7 5ebe d3a7 013e d5f3 373d
00000320: 883e 283e a151 963d 475d 893c 2727 123e
00000330: 929f 1bbd 7196 adbd 579a 80bd abd4 c93d
00000340: 649a 8e3c a713 10be bc67 343d 5857 b6bd
00000350: 5013 82bd 8777 eb3d b5c2 77bd ca09 893d
00000360: 1de5 dbbd 6863 003d 2d30 63bd 2ac3 febc
00000370: 9154 8b3d ae81 8f3d d3e7 8cbd 132b e2bd
00000380: dc74 73bd 42d6 90bd 3fc4 59bd 8e53 2d3e
00000390: f63f 09be 019a 8ebd 44ac e8bd b4c9 08bb
000003a0: 3749 ecbd 653d 57bd fbdf 093e 564e c43d
000003b0: 90dd 47bd b981 b03b dc3f 4b3e 55f6 6d3d
000003c0: ff7f 5dbe cc96 4dbe dcde 413c 0438 fd3d
000003d0: 2563 4dbd e17a 50bc 76cc 183d d1a3 aebd
000003e0: d6b8 0c3e 3c35 283e 1e8b e53d 54d8 b5bd
000003f0: f5f2 0abd 8253 e23d da53 eebd 2b36 cd3c
0.0013028856 0.07580335 -0.19634643 -0.021503571 0.15452039 0.032449305 0.19790444 -0.10468079
0.09691905 0.043136064 0.12371515 -0.022160634 -0.044183064 0.0884846 -0.15078798 -0.04773164
-0.1371559 -0.2015826 0.09905988 -0.05299312 -0.07431633 0.1359413 0.14854184 -0.16996987
0.010708889 -0.070057645 0.054977212 0.008310062 -0.06555431 0.038765416 0.07121828 -0.0017816257
-0.02825741 0.0150239635 0.060300753 0.08742931 -0.06308075 -0.061081305 0.07967965 -0.15955116
-0.058765925 0.10698295 -0.023402538 0.052695062 0.09543287 0.08961613 -0.06266589 0.029278524
-0.06506416 -0.017885143 0.15776639 -0.12741743 0.06424186 0.013252201 0.020843094 0.095601104
-0.020949434 0.117040716 -0.14189602 -0.03342318 0.09592177 -0.08002204 0.11079818 0.14934127
0.16671903 0.018314479 0.040983886 0.032626133 0.08739746 0.13184814 -0.042560365 -0.081599385
0.10888161 -0.009317609 -0.07931075 0.15796238 -0.18585798 -0.06026867 0.08278478 -0.21437417
0.09963668 -0.0534452 -0.09521066 0.25240064 0.0075104632 -0.022406243 -0.083619714 0.03104968
0.14239205 0.11472767 -0.09177946 -0.1825494 0.009308328 -0.07710559 0.06030949 -0.12442608
0.037383623 -0.21733567 -0.0055384035 0.13977073 -0.047672767 0.010427147 0.08344138 -0.001481651
-0.056066945 -0.050758228 -0.091389515 0.0207908 -0.03199919 -0.20749412 -0.16599971 -0.06143962
0.109037824 0.036450367 0.12225778 0.12256162 0.18870583 0.07781781 0.08704059 0.13145174
-0.17406388 -0.15905479 -0.099529654 0.02606445 0.16906953 -0.004230851 0.1792687 0.009076844
-0.084299475 0.11958083 0.07763302 -0.077179536 -0.0028587359 -0.058183264 0.059305366 -0.16905807
-0.12891844 0.07009812 0.08136924 0.04189975 0.0887355 -0.21709353 0.061827265 0.118636675
0.033932474 0.16434555 0.05802151 -0.19108859 0.059946705 -0.10763199 -0.017286815 -0.035586633
0.16631047 -0.1643184 0.10860751 0.036001172 0.07510381 -0.09925162 0.07932365 -0.18584736
0.004261988 0.014898827 -0.12894861 0.11316252 0.15853025 0.11038633 -0.039494887 0.035170343
0.048743494 0.18534133 -0.13747923 0.08468583 0.005966809 0.020150032 -0.04470969 0.06597328
0.03329838 -0.088506624 -0.15002863 0.047698636 -0.111692585 -0.19576496 -0.13103558 -0.24934927
0.14895675 0.1828276 -0.21808816 0.02205258 -0.022024719 -0.17852768 0.13555966 0.15363438
0.054889522 -0.14837219 -0.14960672 -0.008718286 -0.01723407 -0.21743664 0.12661676 0.04491027
0.16430104 0.07339788 0.01676811 0.14272748 -0.037993975 -0.0847596 -0.06279438 0.09855016
0.017407604 -0.14069997 0.04404424 -0.08903378 -0.0635134 0.114974074 -0.06048842 0.0669132
-0.10737059 0.0313448 -0.055465866 -0.03109892 0.06803239 0.07007156 -0.068801545 -0.11043372
-0.059437618 -0.070721164 -0.05316567 0.16926405 -0.13403305 -0.06962968 -0.11360982 -0.0020872178
-0.11537402 -0.052548785 0.13464348 0.09585254 -0.048795283 0.005386558 0.19848579 0.05809625
-0.21630858 -0.20077056 0.011832919 0.123642 -0.05014338 -0.012724609 0.037304364 -0.08527339
0.13742384 0.16426557 0.11208175 -0.08879152 -0.033923108 0.11051084 -0.11637087 0.025050243

layer1.0.bias f4 [16]
00000000: a212 3bbb bc8e 77bd fdc0 963d 27eb 14be
00000010: 78fb 423e b716 1fbd 3767 f13d 4925 133e
00000020: e969 27bd f63a 963d c4c9 2cbd 4786 de3b
00000030: cf29 fb3c 9c88 453e 2eff 3bbe ec9e 373e
-0.0028545042 -0.060438856 0.07361028 -0.14542829 0.1904124 -0.038840022 0.11787265 0.14369692
-0.04087249 0.07335465 -0.042184606 0.0067909095 0.030659584 0.19290394 -0.18359062 0.17931718

layer1.1.weight f4 [16]
00000000: 1e11 903f 99b1 623f 257a 683f d179 813f
00000010: 4eaa 623f a772 863f dab1 823f 20a8 803f
00000020: d7e6 7b3f b685 7a3f 69ec 853f fdfd 653f
00000030: 1acc 883f 112b 843f a63a 873f a7b6 663f
1.1255224 0.8855224 0.9081138 1.01153 0.88541114 1.0503739 1.0210526 1.0051308
0.9839911 0.97860277 1.0462772 0.8984068 1.0687287 1.0325643 1.0564773 0.90122455

layer1.1.bias f4 [16]
00000000: 9f75 f33d 0606 c0bb 0d24 80bb 87bd 03be
00000010: 16b0 693d c467 f63d 19ad a7bd 5eb1 b43d
00000020: fabc bfbd be38 04be aa2c 533e 8d77 1e3c
00000030: 680b 9a3c 3513 a13c 3f19 1fbe ccd2 35bb
0.11887669 -0.005860093 -0.0039105476 -0.12865268 0.057052694 0.120315105 -0.08187313 0.088228926
-0.09362216 -0.1291227 0.20622507 0.009672058 0.018804267 0.019662479 -0.15536974 -0.0027744053

layer1.1.running_mean f4 [16]
00000000: f801 893c 641a 02be 9bf2 cabd 4f03 a6bc
00000010: 85fe 983d 7075 03bd 4887 5c3e 0682 083e
00000020: 751c 423e 3b5e 8a3e 1832 10bc 3ba7 ddbe
00000030: eee5 a03b 4728 563e 8c44 1fbe 0507 1ebe
0.016724572 -0.1270538 -0.099095546 -0.02026525 0.07470421 -0.03209442 0.2153598 0.1333085
0.18956168 0.27025017 -0.008801006 -0.4329165 0.0049102223 0.20913802 -0.15553492 -0.15432365

layer1.1.running_var f4 [16]
00000000: ade9 d93c ac60 023d b6ca c53d 25ff e03c
00000010: 708a 303d d28d 013d 5fd8 213d b9da a73c
00000020: 1ae4 1e3e d8cf b23d ec29 903c 0636 e33e
00000030: 155b fb3c bcd6 a23c f602 863d 1703 b53e
0.026600683 0.031830475 0.09657805 0.027465412 0.043100774 0.03162939 0.03951299 0.020490037
0.15516701 0.08731049 0.017598115 0.44377154 0.03068308 0.019877784 0.065435335 0.3535392

layer2.0.weight f4 [32, 16, 3, 3]
00000000: 54a1 853d 6bde b33d 046a a2bd 9440 97bc
00000010: be4d 973c d82f e73d 5c32 743d 8f32 85bd
00000020: f7e3 cb3c 630a fbbc 6ae1 74bd 2d92 16bd
00000030: 09c2 1e3d 4e81 bdbd 5ab3 46bc e36e 00bc
00000040: be65 5a3d 8761 89bb 3785 a7bb 4796 7ebd
00000050: 82db 57bd 9a8a 95bd f279 ccbd 41fe 1a3d
00000060: 3d7e 013c cfe3 f8bc 61aa 55bb 2a37 ce3c
00000070: 4d48 f9bb 2938 03bd a49b 0d3a f274 3d3d
00000080: a32b c7bd aa74 00bd 866a 6c3d ae4c 553d
00000090: 3ca7 7cbd d298 893b c9e0 b5bd f7eb 69bd
000000a0: 862a ad3a 1faa 78ba 298b 01bd 617c 31bc
000000b0: ee58 f3bc bb0c 033e 5b88 a8bd 661d 47bd
000000c0: 1f3b 96bc ff1f 893d 9568 0fbd fb95 683d
000000d0: f276 b13c 6c2e a43b 7305 6bbd 8751 b73b
000000e0: dc9a da3c c629 3bbd acd2 933d 631c d2bc
000000f0: 5374 d23a ced5 343d 1cdc 7cbd 280a d73c
00000100: c066 eebb f3c6 0b3e dfec 10bc 75ee c9bc
00000110: 46c7 aabc c235 01be 59ee 663d b8c6 653d
00000120: c08d 323d 0fd4 c7bd 0c64 04bd 5827 5d3d
00000130: 98e9 3439 de6d 093d 4d05 3dbd a0ea 8c3c
00000140: 1f4a 403d 98cd b1bd bed8 6dbd 7f35 fc3a
00000150: af19 8ebc 3905 b63c 3aa6 1c3d 225a 603d
00000160: 4aed 7e3d 0f44 353d 430f 63bd 5d97 a5bd
00000170: 5984 ab3d 26db 473d dfa9 b13d 90bd a3bd
00000180: 936e d43d 474a 42bd 1d0e c63d 0b2f 99ba
00000190: 7d98 9ebd e468 363d c790 a03c fd26 c4bd
000001a0: 05fb ab3d acca f53c 1a64 d33c 455c 2dbd
000001b0: f874 ad3d 96a4 34bc 7d26 66bd 3929 403d
000001c0: 5f81 30bd 9dc8 dfbd 9ba2 e03b 030e 64bd
000001d0: 9ac2 dcbc caa0 b4bd 8304 33bd cb47 3d3d
000001e0: 0575 993d 8d37 8abd dc65 c7bc 4d35 f53c
000001f0: e241 2bbc f7d2 2d3c 859b a9bd f668 6ebd
00000200: ac7b a53d c5d0 a4ba ae39 83bd 0674 3c3d
00000210: fa58 5c3d 6888 483c 3615 133d 15f5 2abd
00000220: a254 a8bd 4953 1a3c 7966 8c3d be9b 6e3c
00000230: 061a 9a3c ccde 47bd fdb7 d53c b9e5 33bd
00000240: 7b5a 893c 62ce d1bd 3e1b c63c 3535 2fbd
00000250: b39a 2c3d ab69 f9bd 57f9 77bd 5beb aabd
00000260: 9063 46bd 3bd3 223d 9c19 0d3d 1cf4 c5bc
00000270: fef5 a33c 4eb8 1a3d 253b 913d 1cf5 7ebd
00000280: 766b 8a3d decc 3abc ab2d 28bc eab1 3cbd
00000290: 931f 053d c89f 763d 85c5 a6bc fa8a 373d
000002a0: 4fe5 eebc aeaf 36bd ada4 76bd fbca d53d
000002b0: 0d06 84bd 085a abbd c1df 5dbb 191c a9bd
000002c0: 0849 42bd 898b 69bd 77ac 21bc 1e3e 923a
000002d0: 9330 f6ba 7ab2 12bd 1f61 3ebd ad03 c7bc
000002e0: 3aac 29bd 3bdb c33d 3093 adbc 570d 6fbc
000002f0: 03ad 503d 9815 363d 2878 043d ef23 55bc
00000300: af17 9b3b 4df5 99bd f08f aabd c9dc 88bd
00000310: e915 c2bd fb2c db3c 10ff 323d c96d 803d
00000320: c061 c2bc 83e8 4c3c ab3c 1f3c d183 1cbd
00000330: 9e29 573d 7b07 19bd b49d e63c bfbb 51bd
00000340: f856 2e3d 014f aa3d 6774 f5bd 4af6 843c
00000350: d7a2 8f3d 5fd5 80bd 75be 10be 80c3 fbbd
00000360: 90be 243d 5bab 7f3c d69c 993c e728 f1bc
00000370: 6d29 bf3c abfc 12bd 6d16 3e3d 5d09 b03d
00000380: 3c6a 04bd 1cba f43d f47a b33b 2d18 543c
00000390: c4fd 0bbc 49ed 77bd 29b1 003c 149a 763b
000003a0: 0479 66bd 5a6a babd 5353 253c f412 6bbd
000003b0: 7a01 1fbd d43a a33c ecaa 8aba 83d8 3cbc
000003c0: 124f 003e a96c bf3c 8a7f 6bbd 4048 a33d
000003d0: 7d32 513d 2da7 963c 8971 6e3d e822 94bd
000003e0: d841 aa3d aa6e abbc 0c20 903c 11d4 173d
000003f0: 0019 473d d8bb 2b3d 7138 a6bd 3445 34bb
0.065249115 0.08782657 -0.07930377 -0.01846341 0.018469688 0.11288422 0.05961834 -0.06503784
0.024888976 -0.030644601 -0.059785284 -0.036760498 0.038759265 -0.092531785 -0.012127722 -0.007838937
0.053319685 -0.0041925344 -0.005112316 -0.062155034 -0.052699573 -0.07301827 -0.09984197 0.03784013
0.007903633 -0.030382065 -0.0032602774 0.025172789 -0.007607496 -0.03203598 0.00054019154 0.046254106
-0.0972512 -0.03136126 0.057718776 0.05207508 -0.061682925 0.004199126 -0.08880765 -0.0571098
0.0013211526 -0.0009485799 -0.031626854 -0.010832877 -0.02970549 0.12797825 -0.08229133 -0.04861202
-0.018338738 0.06695556 -0.035011847 0.056783658 0.021663163 0.0050104167 -0.057378244 0.0055944356
0.02668517 -0.045694135 0.07217917 -0.025648301 0.0016056396 0.044149213 -0.06173335 0.02624996
-0.0072754323 0.13650112 -0.008845537 -0.024649838 -0.020846974 -0.12618163 0.05637965 0.056097716
0.043592215 -0.09757244 -0.032321975 0.0539926 0.00017253158 0.033552043 -0.046147633 0.017201722
0.046945687 -0.08681792 -0.05806803 0.0019242017 -0.017346231 0.022219287 0.038244464 0.054773457
0.062238015 0.04425436 -0.055434477 -0.08085511 0.08374853 0.04879298 0.086749785 -0.079951406
0.10372653 -0.047434118 0.09670661 -0.0011686994 -0.077439286 0.044533625 0.019600285 -0.09577749
0.083974876 0.030003868 0.025804568 -0.042324323 0.08469576 -0.0110255685 -0.05618905 0.046914313
-0.043092128 -0.10926936 0.0068553216 -0.055677425 -0.026948262 -0.088197306 -0.043705475 0.046211045
0.07493023 -0.06748877 -0.024340563 0.029932642 -0.010452719 0.01060938 -0.08281616 -0.058205567
0.08080229 -0.0012574425 -0.06407486 0.046009086 0.053795792 0.012239553 0.0359089 -0.041737635
-0.082192674 0.009419271 0.068554826 0.014563499 0.018811237 -0.04879646 0.026088709 -0.043920252
0.016766777 -0.102444425 0.024182912 -0.04277535 0.04213972 -0.12178358 -0.060540523 -0.08345672
-0.048434794 0.039752226 0.03444825 -0.024164252 0.02001476 0.037773423 0.07091359 -0.062245473
0.06758778 -0.011401383 -0.010264794 -0.04606811 0.032500815 0.060210973 -0.020357857 0.044810273
-0.029162077 -0.044601135 -0.06021564 0.10439106 -0.064464666 -0.083667815 -0.0033855292 -0.08257312
-0.04743293 -0.057017837 -0.009867779 0.0011157428 -0.0018782787 -0.03581474 -0.04647934 -0.024293745
-0.041424014 0.09563299 -0.021188349 -0.014590583 0.050946247 0.044454187 0.032341152 -0.0130090555
0.004733048 -0.075174905 -0.08328235 -0.066827364 -0.09476835 0.026754847 0.043700278 0.0627094
-0.023728251 0.012506607 0.009719054 -0.038211647 0.052529924 -0.03736065 0.02815137 -0.05120444
0.04256341 0.0831585 -0.119850926 0.016230721 0.07013481 -0.06290697 -0.14135154 -0.12293148
0.040220797 0.015604819 0.018751543 -0.02943845 0.023335183 -0.035885494 0.046408106 0.08595536
-0.032327875 0.1194956 0.0054773036 0.012945217 -0.008544389 -0.060529027 0.007854738 0.0037628459
-0.056267753 -0.09102316 0.010090667 -0.057391122 -0.038819768 0.019925512 -0.0010579503 -0.01152623
0.12530163 0.023367243 -0.057494678 0.07972765 0.05107354 0.018390262 0.058213744 -0.0723322
0.0831334 -0.020926792 0.017593406 0.037067477 0.048607826 0.04192719 -0.08116234 -0.0027507069

layer2.0.bias f4 [32]
00000000: 5021 063d b199 8d3b d417 a0bd ebd6 23bd
00000010: a3a3 893d c1cb 9dbd bdbc 98bc c029 623c
00000020: 634d 263c 5d51 bebb 4662 40bd 0a23 78bd
00000030: ac3e 6b3d be6f ba3c 0df7 3bbd a656 3a3d
00000040: 94ea 90bc 6694 193c 94e6 8b3c 3194 9bbd
00000050: 7ec3 8abd 5f4e 4fbd fe1b 8fbd a8cf d2bb
00000060: 7358 47bd b03f 87bb 8b6b 66bc 482f 8a3d
00000070: fb2e 30bd b985 88bb 1486 1b3d 24b9 9a3d
0.032746613 0.0043213 -0.07817045 -0.039999884 0.06720664 -0.077048786 -0.018644685 0.013803899
0.010150286 -0.005808039 -0.04696872 -0.06058029 0.057432815 0.022758361 -0.045889903 0.04549279
-0.01768998 0.00937376 0.017077722 -0.07596625 -0.067755684 -0.05061185 -0.06987761 -0.006433446
-0.048668336 -0.004127465 -0.014063726 0.067472994 -0.043013554 -0.0041663316 0.037969664 0.07554844

layer2.1.weight f4 [32]
00000000: 3378 733f 2554 683f 072f 783f adf6 833f
00000010: d35c 7a3f 6f1e 723f 48ea 903f e2b7 833f
00000020: a520 593f bbef 7a3f ce4b 823f a718 6d3f
00000030: 52bd 793f d88f 873f a3f5 723f 4b9b 853f
00000040: cd35 6e3f 5216 6b3f ff82 773f 27a5 833f
00000050: 4cdf 8a3f e18f 833f 4c55 843f 4357 803f
00000060: 3a8f 7b3f 5ba1 823f d9be 803f a725 7f3f
00000070: d10c 5c3f 961f 863f aa0b 823f f53f 8b3f
0.95105284 0.90753394 0.9694676 1.0309654 0.9779789 0.9457769 1.1321497 1.0290492
0.84815437 0.9802205 1.0179384 0.9261574 0.97554505 1.0590773 0.9490606 1.0438017
0.93050843 0.91830933 0.9668426 1.0284775 1.0849395 1.0278283 1.033853 1.002663
0.9826542 1.0205492 1.0058242 0.9966683 0.85957056 1.0478389 1.015981 1.0878893

layer2.1.bias f4 [32]
00000000: 98df acbd e097 a6bd 97e9 aabd dd1c f5bd
00000010: adf1 86bd 6025 14be 3290 09be ef50 29be
00000020: 2fde 38be 7f48 53be 22b7 00be 2440 fbbd
00000030: 9bce edbc 8943 14be d06e 00be af78 80be
00000040: 711b 98bd e121 70bd 78b8 2abd 4b99 86bd
00000050: c84b 34be d815 19be 9e14 03be cf0e 5dbe
00000060: 4502 a7bd 8182 8fbd 82c3 61be ebe9 f0bd
00000070: 60d9 f2bd 88fa 28be 37a0 73bd 992c ffbd
-0.084410846 -0.081344366 -0.08345335 -0.11968396 -0.06589065 -0.14467382 -0.13433912 -0.1653478
-0.18053506 -0.20633124 -0.1256986 -0.12268093 -0.029029181 -0.14478888 -0.12542272 -0.25092074
-0.07427109 -0.05862606 -0.04167983 -0.06572207 -0.17607033 -0.14949739 -0.12800834 -0.2158768
-0.0815473 -0.070073135 -0.22047237 -0.11763366 -0.11857867 -0.1650182 -0.059478965 -0.12459678

layer2.1.running_mean f4 [32]
00000000: 4c5c 1dbe 2950 9dbe fcfb 65bf cbdc 08bf
00000010: 7de5 00bf cece 56be 8dad dabe ba12 28bf
00000020: 3e54 dbbe f2be d7be 96ab 49bf aa11 12bf
00000030: 3d06 9abe 6a26 79bf 418b 24bf 2738 8bbe
00000040: 242f d2be d6fe 11bf 8e26 16bf 05be a4bf
00000050: bb85 19bf 1a34 dfbe 2320 98bf 52fb 0bbf
00000060: a7b4 13bf 096b 10bf f385 20bf b3a8 21bf
00000070: 4f7e 70bf 8051 d4be 67ab 0ebf 130b 57be
-0.1536724 -0.3072522 -0.8983762 -0.53461903 -0.5035017 -0.20977327 -0.42710534 -0.65653574
-0.4283771 -0.42137867 -0.78777444 -0.57058203 -0.30082884 -0.9732424 -0.64274985 -0.27191278
-0.4105159 -0.57029474 -0.5865258 -1.2870489 -0.5996968 -0.43594438 -1.1884807 -0.5468036
-0.5769753 -0.5641332 -0.6270439 -0.6314804 -0.9394273 -0.4146843 -0.5573029 -0.21000318

layer2.1.running_var f4 [32]
00000000: b92f 7f3e 38b3 6b3e 0ea9 e33e c916 553e
00000010: 5aa4 613e 8f8f 9c3e 0977 6c3e 4aa5 173f
00000020: 27d3 443f e659 1b3f f84b 363f 02f1 f73e
00000030: ebe4 313e f38d ea3e a771 be3e 3ad1 853e
00000040: d512 fc3e c8b8 8d3e fdf4 ef3e b685 193f
00000050: 75ad 8e3e abeb 6a3e 9139 0f3f 7f2b 223f
00000060: 4a2d 643e 89b8 623e 5875 b03e a17f db3e
00000070: e64e cc3e 54d8 a93e 9047 553e a551 553e
0.24920548 0.23017585 0.44464916 0.20809473 0.22035351 0.30578277 0.23092283 0.59236586
0.7688469 0.6068405 0.7120967 0.48426062 0.17372482 0.45811424 0.37196085 0.2613619
0.49233118 0.2768004 0.468666 0.5996965 0.27866712 0.22941463 0.55947214 0.6334762
0.22282901 0.22140707 0.34464526 0.4287081 0.39903945 0.33172858 0.2082808 0.20831926

layer3.0.weight f4 [32, 32, 3, 3]
00000000: 98ed fcbc e3b4 56bb 2c22 15bc d1b9 843c
00000010: fb84 7cbc 0d92 613d e871 4a3d 17f0 3f3d
00000020: 67bc cb3c 77fd 3abc 6b17 193d 036c 113d
00000030: 2441 84bc 0159 033d dec3 d83b 3d2f 45bb
00000040: 0166 8c3b fb19 c23c 7c0c 9c3c d352 4c3d
00000050: 8035 fd3b e46e 20bc e3cc 6bbd 4ba8 2c3d
00000060: ed70 8a3d aa48 2dbc fc9e e53c 70a1 723c
00000070: 686d b23b d58f 183d fc2d 1ebc 6d45 6b3c
00000080: 4db8 8bbd 17af e7bb 3308 b03d b579 0c3e
00000090: d168 a0bd 6767 0a3d 04e6 66bd 1369 ad3d
000000a0: 3569 0c3d 0ee5 f4bc b1c2 333c 3868 52bd
000000b0: 79a0 4cbb 8274 37bb 854d a23c 6884 ae3d
000000c0: d9bc 933c 97a5 603b 3afc 13bd d4ff 4fba
000000d0: 4607 263c c450 1e3d 6269 c33c b491 5c3b
000000e0: 9d43 48bd ded4 1bbd 6728 b33b b8c6 a93c
000000f0: e8eb 353d 907f be3c 3504 9c3c 6658 d03c
00000100: 1768 96bd 9888 abbc 2ad9 dbbd dc2e b3bd
00000110: 8914 8c3c 0310 6fbd ecd5 78bd 35df 933d
00000120: 70bd 72bc df63 513d 129e a1ba c651 a43c
00000130: 8818 ae3c 40b2 65bb f946 163d ec0d 013d
00000140: ea60 3f3d 6d3b 873d 8ed1 80bc 0a18 bf3c
00000150: 9424 28bd 19d0 c63b 3fbf 2f3c 60ce ee3c
00000160: d7fc 333b 80e1 1fbd 1a35 c53d b466 b3bc
00000170: 246a 28bd c2ff 0ebc 9e5a 1ebc a3da d9bd
00000180: 9dc9 2abd 61fa b63c 5154 b33c 2046 41bd
00000190: aef1 eebc c13a eb3c 45db cf3c 6abf ddbc
000001a0: 00b3 f73c a596 0c3d 4af5 2c3d 7a52 ab3d
000001b0: ad8f 1bbd f02a 903d 398b c43c 7a53 a23d
000001c0: 9f48 83bc be6e c03a 8a92 c63a b194 edbc
000001d0: d096 51bd b9a3 b13b 7ddd c33c 26a2 683c
000001e0: e700 053d 2dce 593c f920 2a3d 4e92 743d
000001f0: c180 8bbc 20ac 0fbc c8cb eb3c 1cdd e4bc
00000200: 1e51 573c 1458 3abd f21b f8bc 89a0 55bd
00000210: afde a83b 2acd 943c 05d0 3bbd 5384 5abc
00000220: 06c4 953c 3863 373d 4cf9 aebd 4364 2f3d
00000230: f59c 4e3c 30a2 49bc 3c7e 77bd 6bce 24be
00000240: 14d6 83bd a8aa c23c 5113 eb3b 21a7 a1bc
00000250: 8b7c 593d fc5c 08bc d5aa 883c 0ad4 943b
00000260: a954 843d cd9c ff3c ed7a e1bc 5bfa 5abd
00000270: 5ae6 61bb 7250 923d 19ed 0fbd aecd 38bd
00000280: 1af4 573d f67b 893d f6a4 3fbd e85b 8b3d
00000290: 3e9f a13d 7760 ae3b 1a85 f6bb 36ac 61bd
000002a0: 44ce 5b3c 9dc9 33bd df72 8dbb d211 4e3d
000002b0: d8c3 653d 0e6c 593d c94d 633d c0a3 5fbc
000002c0: c278 043d a3a3 bb3c fda0 9ebc 1f58 15bc
000002d0: 1731 063d 58e3 7bbc 519a ef3c dcc8 39bc
000002e0: 686e 3abd a9cc b23c dcb4 6ebd e65b a83b
000002f0: 5df9 afbd 3258 ebbd e773 a7bc 3d41 62bd
00000300: 6ad7 c8bc ac8b 84bc 823c 33bd 6958 273c
00000310: ba16 f2bb 93d9 ad3c 552b e1bc b857 4cbd
00000320: a4fd c6bd 6d0f 95bc 307b 0d3d 7763 95bd
00000330: 8343 6e3c d993 a5bd 80b4 69bd 2cc4 7bbd
00000340: 95ef 8dbb 72f7 a13c 66a9 cf3d d30e 173c
00000350: 6709 83bc f22e 2c3d 4924 1ebd 7794 3bbd
00000360: 06ea 0fbc 5f73 ff3b 13a1 89bc 16cc ef3c
00000370: 21a1 4f3c e0e0 85bd 271c 51bd 1488 fcbc
00000380: 62de 39bc 2ef3 313d 3513 053d 9bba df3b
00000390: e036 483d bd68 b43d 4634 c43c 7bcb d4bc
000003a0: e674 c7bc 86a9 1cbd 6e95 2ebd fbc7 99ba
000003b0: bda9 5fbd 4360 a53a 3e27 8e3c 7c2f 183d
000003c0: 3fed 853d c3fd 50bb cba4 1cbd 94a3 24bd
000003d0: f7fa d0bc c60b ba3d 8214 263c 02e1 da3c
000003e0: 5187 953d 0225 4fbd b91a 1a3d 87da 1cbd
000003f0: 4fd8 8bbc 93f7 8ebc 458b 1abd 028a 8b3c
-0.030875012 -0.0032761625 -0.0091023855 0.016201885 -0.015412564 0.055070926 0.049425036 0.046859827
0.02487011 -0.01141297 0.03737585 0.0355034 -0.016144343 0.032067303 0.006615146 -0.003008797
0.0042846208 0.02369403 0.019048922 0.049883675 0.007727325 -0.009792063 -0.057568442 0.042152684
0.0675982 -0.0105764065 0.028029911 0.0148089975 0.005445171 0.037246544 -0.009654518 0.014359814
-0.06822262 -0.007070433 0.08595314 0.13718303 -0.07832492 0.03379002 -0.056371704 0.08467307
0.03428002 -0.029894378 0.010971711 -0.051368922 -0.003122358 -0.0027993028 0.019812355 0.08521348
0.018034386 0.0034278387 -0.036129214 -0.00079345447 0.01013357 0.038651243 0.023853961 0.0033656182
-0.048892606 -0.038044803 0.005467463 0.02072464 0.04441443 0.023254186 0.019044975 0.025432777
-0.07344072 -0.020939156 -0.1073478 -0.08749172 0.017099636 -0.05836488 -0.060750887 0.07220308
-0.014815673 0.051120635 -0.0012330434 0.020058524 0.021251932 -0.0035048872 0.03668878 0.031507418
0.046723284 0.066031314 -0.015724923 0.023326892 -0.04105051 0.0060672876 0.010726749 0.029151142
0.0027463937 -0.039033413 0.09629269 -0.021899559 -0.04111685 -0.00872797 -0.0096651595 -0.10637405
-0.04169618 0.022336187 0.021890791 -0.047186017 -0.029167976 0.02871454 0.02537311 -0.027068812
0.030236721 0.034323353 0.042226113 0.083653405 -0.037978817 0.0703944 0.023992168 0.07926078
-0.01602584 0.0014681441 0.0015149873 -0.029001566 -0.051169217 0.0054211286 0.023909325 0.014198815
0.032471564 0.013293785 0.04153535 0.05970984 -0.017029168 -0.008769065 0.028783694 -0.027937464
0.013141898 -0.045494154 -0.030286763 -0.05215505 0.005153499 0.018164236 -0.04585268 -0.013337213
0.018281948 0.044772357 -0.08543643 0.042820226 0.012610664 -0.012306735 -0.06042312 -0.16094367
-0.064373165 0.023763016 0.0071739336 -0.019733014 0.05309729 -0.00832295 0.016683022 0.0045418786
0.0646146 0.031202698 -0.027524436 -0.053461414 -0.0034469576 0.0714425 -0.035138223 -0.045118026
0.052723028 0.06713097 -0.04678818 0.06804639 0.07891701 0.005321558 -0.007523191 -0.055095874
0.013415877 -0.043893445 -0.004316672 0.050309964 0.056094974 0.053081565 0.055494104 -0.013649881
0.032341726 0.022905177 -0.019363875 -0.009115248 0.03276166 -0.015374027 0.029248388 -0.0113393925
-0.045515448 0.021826105 -0.05827795 0.0051379083 -0.08592484 -0.11491431 -0.020441009 -0.055237997
-0.02451678 -0.016179882 -0.043758877 0.01021395 -0.007387963 0.021221912 -0.027486483 -0.049888343
-0.09716347 -0.018195832 0.03454131 -0.07294362 0.014542463 -0.0808484 -0.057056904 -0.06146638
-0.004331539 0.019771311 0.10139732 0.009219843 -0.015995694 0.042036958 -0.038608823 -0.045795884
-0.008783823 0.0077957357 -0.016800439 0.02927212 0.0126726935 -0.06537032 -0.05105224 -0.030826606
-0.011344524 0.043444805 0.03248902 0.006827665 0.048880458 0.0880904 0.023950707 -0.025975933
-0.024347734 -0.038247608 -0.042622976 -0.0011732572 -0.054605234 0.0012617189 0.017352697 0.03715466
0.06539392 -0.0031889535 -0.038243096 -0.040195063 -0.025510294 0.09084277 0.010136725 0.02671862
0.073012 -0.050572403 0.03762314 -0.03829434 -0.017070917 -0.017452037 -0.037730474 0.01703358

layer3.0.bias f4 [32]
00000000: 3862 683d 7402 00bc f598 d8bc 2b8e 1f3c
00000010: 6a4f 373d 14de 37bd 7c75 523d d9a5 3dbd
00000020: 2a6b 1bbd ec8f 64bd ff99 d5bc 0fb7 bbba
00000030: 47d1 3ebc 2542 1abd c5b9 b03c 0df4 52bd
00000040: 5a06 48bd 8d69 6b3a ad5e a13b 3707 2bbd
00000050: 24e5 13bd 0c59 513d a081 3c3d f076 fcbc
00000060: da49 57bd f65c 04bd 3674 b3ba 6573 aebc
00000070: fbfc cb3c a3c2 62bb 774a f13c 8a3f 823b
0.056734294 -0.007813085 -0.026440123 0.009738485 0.04475347 -0.044889525 0.051381573 -0.046300743
-0.037943996 -0.055801317 -0.026074408 -0.0014321523 -0.011646575 -0.037660737 0.021572957 -0.051502276
-0.048834182 0.0008980267 0.0049246163 -0.041754927 -0.036107197 0.051110312 0.046022058 -0.030818433
-0.052560665 -0.032315217 -0.001369125 -0.021295259 0.024900904 -0.0034600876 0.029454453 0.0039748596

layer3.1.weight f4 [32]
00000000: 312c 9c3f a797 9b3f 969c 9c3f 6bb7 993f
00000010: db73 9e3f 4e7f a13f 9e3e 8e3f 4ab2 963f
00000020: aab2 9c3f bb9a 9b3f 9a67 983f a52e 9a3f
00000030: de1c 9d3f 17cb 9f3f 182d a03f f48d a03f
00000040: 91f9 8d3f 8d9f a23f 2add 9e3f 7d26 9d3f
00000050: 871e 9d3f 557f 9e3f 2230 a03f f3d5 9a3f
00000060: 212b 9d3f 423d a03f 5d36 983f f4b4 a13f
00000070: b6a5 963f 4177 943f 5361 963f 416a a13f
1.2200986 1.2155656 1.2235286 1.20091 1.2379106 1.2616975 1.1112859 1.177316
1.2242024 1.2156595 1.1906617 1.2045485 1.2274435 1.2483853 1.2513762 1.2543321
1.1091787 1.2704941 1.2411244 1.2277371 1.2274941 1.2382609 1.2514689 1.2096542
1.2278787 1.2518694 1.189159 1.2633348 1.1769321 1.1598893 1.1748451 1.2610551

layer3.1.bias f4 [32]
00000000: f41d 9abd 3f04 acbd a80d 98bd ced1 ecbd
00000010: 932c 45be d2b2 cebd 0de7 c3bd ecba eebd
00000020: 20c6 16bd 1043 e0bd 27be 91bd 5bb8 00bd
00000030: 8d80 a8bd aa8c 4bbd 9400 a8bd 4a73 54bd
00000040: 7359 a7bd a481 9bbd 762e e4bd 2f9f cabd
00000050: c04a ddbd dd5b 86bd 704d 6abd fc4c efbd
00000060: e09e e7bd 4044 74bd 6469 03bd c2cd 1cbe
00000070: f37f c2bd 74f7 a7bd 6d01 3bbd 7054 2fbe
-0.07525244 -0.083992474 -0.0742448 -0.115634546 -0.19255285 -0.10092701 -0.09565554 -0.11656746
-0.03681004 -0.10950291 -0.07116347 -0.031425815 -0.08227644 -0.049694695 -0.08203235 -0.05186776
-0.08171358 -0.07593086 -0.11141674 -0.09893643 -0.10805273 -0.0656049 -0.057202756 -0.116846055
-0.113096 -0.0596354 -0.03208293 -0.15312865 -0.094970606 -0.08201495 -0.045655657 -0.17122054

layer3.1.running_mean f4 [32]
00000000: df09 543e 8345 083e 2ab5 8c3d 6022 b03e
00000010: 2926 3a3d f053 133e 6f8d f33e 2d82 943e
00000020: f1ee 75bd 6eec 5f3d faf8 b9bd 4231 a2bd
00000030: 3983 383e 2aa1 26be 3fab 02be bfee 473e
00000040: 422b 7c3d 5bdf 913e aea9 553e a8bf 483e
00000050: e2af b53d 5965 b23d 603b f63c 02ee 013e
00000060: 174f aa3d ecc2 8e3e e233 523e 06d7 5d3d
00000070: c69c 90be f417 553e 053c a2be 9d63 ab3b
0.2070689 0.13307767 0.06870492 0.34401226 0.04544655 0.14387488 0.47568843 0.29005566
-0.060042325 0.054668836 -0.09080692 -0.079195514 0.18018807 -0.16272417 -0.12760638 0.19524668
0.06156469 0.2849072 0.20865509 0.19604361 0.088714376 0.08710737 0.03005761 0.12688449
0.083158664 0.2788309 0.20527604 0.05416014 -0.2824461 0.20809919 -0.31686416 0.0052303807

layer3.1.running_var f4 [32]
00000000: b13c 0a3e e23f 143e e399 323e 0dea f63d
00000010: ee5c 2b3e 4ef2 253e 01e2 313e d97d f03d
00000020: b505 533e e545 193e 5cf6 fa3d dc73 173e
00000030: a529 2d3e d5f6 123e c295 0f3e 022d 3a3e
00000040: df58 363e 0b9c 063e 49ec 223e 7892 0f3e
00000050: 2014 413e ccc1 3d3e 90ed 0e3e 235d 1b3e
00000060: 6bfc 213e 3738 4b3e f512 363e 11e3 0e3e
00000070: 1eb2 263e 7022 203e 8a29 093e 148b 283e
0.13499714 0.14477494 0.17441516 0.120563604 0.16734669 0.16205713 0.1737137 0.117427535
0.20607646 0.14968069 0.122540206 0.1479029 0.16910417 0.14351971 0.14021972 0.18181232
0.17807339 0.13145463 0.15910448 0.14020717 0.18855333 0.18530959 0.1395781 0.15172248
0.15818946 0.19845663 0.17780669 0.13953806 0.16278884 0.15638137 0.13394752 0.16459304

fc1.weight f4 [32, 512]
00000000: 23ba 21bd 3fc8 8cbb 0822 f83c 946c a8bc
00000010: 326b 543c ed92 b53c 5ced 55bd fb32 91bd
00000020: 426c 243c 9587 dcbd a838 b83b 5544 a93d
00000030: 22ad f6bc 1f9a 33bd ccfb 37bd 0a92 b5bd
00000040: d0e7 603c e45f 633c 748f 423d 240f 4cbc
00000050: 16d2 bc3c a055 c2bd 2d6d 2a3a 733d d23d
00000060: 307c 80bd 1677 a63d 43d8 c9bd c179 4e3d
00000070: 15a1 e63c 48e6 c73d 122f 51bb a75a a7bd
00000080: e5a7 163c dbbe 483d dc7e 90bc b32e 0fbd
00000090: 3441 883d e81e 993d 81e2 663d 53be 9f3c
000000a0: ad05 8c3d f355 6f3d c6d4 5ebd aed8 4fbd
000000b0: f6b8 89bd 4040 abbd 9b62 89bd 16a4 06bd
000000c0: 4bdc 6c3d b76e 8e3c e62b 81bd 0504 1bbd
000000d0: 5573 993c 5106 0e3d 0ee0 c33c 4ae5 43bc
000000e0: cb22 633d 34dd dcbd 2c6e 923c 3f3a 5ebc
000000f0: 94fc b93c 9f12 bd3c 4a3e 86bd b7c5 77bc
00000100: f1f3 b43c ac36 43bd 43a8 d43c 1b4e 333c
00000110: 4a71 af3c 8ebe 6d3d 155b c2bd b132 a0bb
00000120: 8c22 5e3d 26a1 0eba 1fde bf3c 1939 8cbc
00000130: 13de ec3c 1b2b c7bd 4de9 f5bc 6a32 13bb
00000140: 30d1 023d e97a 863c 3212 6bbd e26c 4c3b
00000150: 862c 663b a39f c5bd d505 8c3d b3a1 e9bc
00000160: e4f8 153d f7d3 fbbd 3db2 92bc 90c4 82bd
00000170: 7811 103c 57f9 8ebc 4818 77bd 992b 0d3d
00000180: 410a e3bc 70f6 ebbc 165c f1bc 76ef bcbc
00000190: 65cb aebc c94d 503d 906c 983c e673 0bbc
000001a0: aa71 7f3d beca 253c 7d4b 283d 26df 6a3c
000001b0: 4045 7cbc 67c9 bf3c d153 e9bc fda5 28bc
000001c0: 08e4 183d 0f44 b6bb 79a1 3f3d aca8 cbba
000001d0: eddf 0cbd b91d 1bbe 804f e73d d532 06bd
000001e0: 14b5 283d cf48 bf3d 1749 813d ac6c 1dbd
000001f0: d1a2 a13c 3fe4 0abc fd7e 40bd 933a f53a
00000200: 712f 9fbd c924 943c 3a08 223d 6c52 343d
00000210: bfdb c0bc 8ffb 2a3d 7839 83bc b15e 873c
00000220: c0c4 08bb 9980 17be c34c 053d 119e 8d3d
00000230: 311a 663d bcab 79bd 81e8 3e3d 4304 a23c
00000240: 94ee f8bc f6dd 2c3c 9e00 35bd 37c6 2fbd
00000250: 356e 1f3d 983a 17be 76a2 9dbd 0e44 573d
00000260: 2b56 d33c c5f5 8a3d a65f 103d fe52 edbc
00000270: 2a9b b5ba 7063 a3bc 199d 343d 98d9 99bc
00000280: fc74 0f3d d319 56bc e864 f8b9 bf0a 6b38
00000290: 4cd2 983c ec56 a3bc 492c 31be 5532 0f3c
000002a0: 2e76 123d a352 03be 82b7 553c 34b7 c93d
000002b0: d988 753d 8067 d1bc 903a 0c3d 757d 9c3d
000002c0: b8a1 4f3c 5c09 28bd 9fe7 50bc 96dc aaba
000002d0: 8792 c13c 4f5d 5bbd a083 c53d fce6 d4bc
000002e0: 5feb 443d e7cc 48be 9d8d c1bd d61b abbc
000002f0: ef02 30bd e8f9 253d 50e6 5dbd d94c 98bc
00000300: d123 c13c 8356 833d aa90 91bd 4605 aabb
00000310: f224 3f3d 9e86 70bc 32f1 9bbd 0155 8b3d
00000320: d6fa 393d 4a0b 7d3d 1e09 00bd 52cc d6bb
00000330: 5cff a9bc 0ec1 acbc b31d 1dbd 66b6 20bc
00000340: edbc ac3c 2a8e eb3c 77db 49bd ee4a 27bd
00000350: d663 f43a fbba b63d 744c ef3d 6c3b d7bc
00000360: c544 9b3c 8feb 793c f27b 14be 3770 183c
00000370: 1175 fabc d82b 3c3b 8e0e a4bc 8758 aebc
00000380: 978f a9bb 5abf e33b 510d 233d 9b5d d6bc
00000390: 97b3 29bc 7f6f d23c 1e0e 3c3d c24e 05bb
000003a0: 79e6 01bd e4ad 3abd 3a2f 6e3d f0cb 0d3b
000003b0: edbd 603c a087 93bd f372 84bc 4743 7bbd
000003c0: d63e abbc a7c3 16bb 45d3 093d 3018 38bc
000003d0: 9d40 113d 4d62 5ebc fcc5 bbbd 6c33 a738
000003e0: abcb f13c 697e bfbd 7587 013d c12c 1d3d
000003f0: bc58 713d 6756 a83d 9a3b 253d 3838 c13c
-0.039484154 -0.004296332 0.030289665 -0.020559587 0.0129650105 0.022164786 -0.052228317 -0.07089802
0.010035576 -0.10768048 0.0056219883 0.082649864 -0.030111853 -0.043848153 -0.044917867 -0.08865745
0.013727143 0.013877843 0.04750009 -0.012454782 0.023049396 -0.09488988 0.0006501254 0.10265627
-0.06273687 0.081281826 -0.09855702 0.050409082 0.028152982 0.097607195 -0.0031918925 -0.081715874
0.009195303 0.04901014 -0.017638616 -0.034956645 0.066530615 0.07476598 0.056368355 0.019499933
0.0683702 0.058431577 -0.054402135 -0.05074375 -0.067247316 -0.08361864 -0.067082606 -0.03287133
0.057827275 0.017386777 -0.06307201 -0.03784563 0.018731752 0.034673993 0.023910549 -0.011956522
0.055453103 -0.10784379 0.0178748 -0.013563692 0.022703446 0.023080168 -0.065548494 -0.0151228225
0.022088977 -0.04765956 0.02595914 0.010943915 0.021416325 0.058043055 -0.09490029 -0.0048888554
0.054232165 -0.0005440883 0.023421345 -0.01711707 0.028914487 -0.097250186 -0.030018473 -0.002246047
0.031937778 0.01641603 -0.0573904 0.003119283 0.0035121753 -0.09649589 0.0683705 -0.028519487
0.036614314 -0.122962885 -0.017907256 -0.063851476 0.008793227 -0.017452879 -0.06032589 0.034465406
-0.02771485 -0.028804034 -0.029462855 -0.023063403 -0.02133722 0.05085543 0.018606454 -0.008511519
0.062364258 0.010119138 0.041087616 0.014335429 -0.01539737 0.023411466 -0.02848235 -0.010293481
0.037326843 -0.0055623124 0.04678485 -0.0015537939 -0.03439324 -0.15148057 0.1129446 -0.03276332
0.041188315 0.09340059 0.06312769 -0.038433716 0.019730957 -0.00847727 -0.046996105 0.0018709473
-0.077727206 0.018083947 0.039558627 0.044023916 -0.023542283 0.04174381 -0.016018614 0.016524645
-0.0020869225 -0.1479515 0.03254391 0.069149144 0.05617732 -0.060954794 0.04660845 0.019777423
-0.0303872 0.0105509665 -0.04419004 -0.04291364 0.03892346 -0.14768445 -0.076970026 0.052555136
0.025797924 0.06785158 0.035247467 -0.028970238 -0.0013855447 -0.019944876 0.044095132 -0.018780515
0.035023674 -0.01306768 -0.00047377427 5.6038374e-05 0.018654965 -0.019938909 -0.1730205 0.008740027
0.035757236 -0.12824492 0.01304424 0.09849396 0.05994496 -0.025562048 0.034235537 0.076411165
0.012672834 -0.04102455 -0.012750535 -0.001303571 0.02362944 -0.053555783 0.09644246 -0.025989048
0.04807603 -0.19609414 -0.09450839 -0.020887297 -0.042971548 0.040521532 -0.05417472 -0.018591331
0.023576649 0.06412985 -0.071076706 -0.005188617 0.046666093 -0.014680533 -0.07614364 0.068033226
0.04540523 0.061778344 -0.031258695 -0.0065551186 -0.020751648 -0.02108815 -0.0383584 -0.009809112
0.02108618 0.028754313 -0.049281564 -0.040842943 0.0018645476 0.089223824 0.11684504 -0.026273452
0.01895369 0.015253915 -0.14500406 0.009304098 -0.0305734 0.0028712656 -0.020026471 -0.021282448
-0.005174588 0.006950301 0.03980762 -0.026167681 -0.010357759 0.025687931 0.0459119 -0.0020341133
-0.031713936 -0.04557599 0.058150508 0.0021636449 0.013717157 -0.07203603 -0.016168093 -0.061343458
-0.020903986 -0.0023004801 0.033648748 -0.0112362355 0.03546201 -0.013573241 -0.09168622 7.9727586e-05
0.029516062 -0.09350283 0.031623323 0.03837276 0.058922514 0.08219605 0.040340044 0.023586378

fc1.bias f4 [32]
00000000: f4a5 173d 336e c4bc a050 8d3c 18c8 e53c
00000010: 3b5a f63c bef9 06bd 3d66 1dbc 60c7 3ebc
00000020: bbd9 383d 34ff 053c fbb0 b9bc 2238 d1b9
00000030: e88e 72bc 0edc 06bd 6658 333d 0060 ce3c
00000040: 0fe1 7d3d 1d97 86bc cfa6 6c3c ec0f d9bc
00000050: 985e 023d d860 953c fda1 de3c ff1e cf3b
00000060: 1b51 37bd 2091 703c f0a7 033d 140a 9abc
00000070: a399 2ebd 8aa9 e83c 8a9b ffbc f40d 093d
0.0370235 -0.023978328 0.017250359 0.028049514 0.030072322 -0.032953016 -0.009606895 -0.011644214
0.04512952 0.008178521 -0.022667399 -0.0003990541 -0.014804579 -0.032924704 0.043785475 0.02519226
0.06198221 -0.016429478 0.014444067 -0.02649685 0.031828493 0.018234655 0.027176851 0.0063208337
-0.044755083 0.014683038 0.03214258 -0.018803634 -0.04262699 0.028401155 -0.031202096 0.033460572

fc2.weight f4 [13, 32]
00000000: e775 603e d0ed 60be 9284 4abc fcaa 493d
00000010: 4e6b c43d ca59 3e3d 5bf8 473e 2930 3dbe
00000020: 3eaf 7dbe 20b8 d13d f7ee 00bd a390 50be
00000030: f93d b23d 5dcb 073d d2a3 593e ce9f 143e
00000040: b111 463e 7631 d83d b28d 26be 2cac 283e
00000050: a5d8 4dbd 1033 37be 816c 3fbe 119a ef3d
00000060: 252c 453e 7f00 62be 7647 173e e430 403e
00000070: 621b 983d 4d5d 78bd fcdf 043e 770a 8a3d
00000080: cc43 82bd 7085 073e d816 163b db60 02bd
00000090: 1bcd 9abe 5b04 503e 3bde 5fbe aa67 83be
000000a0: 1258 863e 43a2 efbd ad26 a93d 7341 34be
000000b0: eca9 26be 5eea 9d3d 4df6 8ebe df96 a23d
000000c0: 13d1 953d e88d 0e3e b8a2 edbd f255 35be
000000d0: 0ddb 323c afc3 573e f302 46be 4aa4 953e
000000e0: a1ad 27be 62a8 843d f672 56bc e6e9 c3bd
000000f0: 7627 a3be 7086 57be 9ad7 903e 17f0 6d3e
00000100: 984d a2be d816 f1bd 7ea9 93bd f345 61be
00000110: 8689 ccbd 3b8c 71bc b2e3 b4bd fce3 e0bd
00000120: 3f3f 183d cc37 b4bd a268 7b3e a48e b3bc
00000130: b5f5 98bc 658f d8bd 5e5e 82be 809b 16bc
00000140: 11c5 063d ce7f 91bd 7b69 8dbe 6ba6 36be
00000150: 22eb 7f3e 156f 303e aa5a 223c 7671 82be
00000160: 96b6 093e 2011 55be ce7a 343d c60c 4b3d
00000170: a74f 273e 8e0a 85be 9f81 98bd 410c 0cbe
00000180: 9d31 3ebe e412 2d3e 08c2 743e ed96 063d
00000190: 04c6 183e 07d8 4fbe 17dd 5abd 5e6e 633e
000001a0: 780a d5bc 3ba7 82bd 7f67 55be c654 00be
000001b0: 28e4 e73d 20bf a13e b684 d3bd d9e7 09be
000001c0: 2e4c 3b3e e2da 5ebe 27cb fcbd 838e 653d
000001d0: 1fbc 6d3d 6ee3 98be 7a54 3fbe 6197 07be
000001e0: aee7 d0bb 5d42 8bbd 8168 6cbe 4381 2bbe
000001f0: 23fe 893e 210d 253e 93d1 5bbe 5796 453e
00000200: 2d55 d5bd 7177 c73d c9b4 80be 3b04 45be
00000210: fe61 3c3d 7ebd 6a3e 5ae3 a13e 95d2 34be
00000220: 2eee 86be 7871 69be 3c96 83be c913 023e
00000230: f441 1ebe 56c0 e83c 0a0f 283d 22cd 3a3e
00000240: edb4 443d b7f7 12bb 96df c83d e579 05be
00000250: 8a8b 493e fa12 603e ab3c d0bd d6f7 773e
00000260: 34ed 2ebe a732 4cbe fe9e 91be c61f 53ba
00000270: 17bc be3d 1188 413c 0c7f 39be 7b29 89bd
00000280: 285d 09be ba5d 893e 734c 673e 1632 013d
00000290: 89c6 64be 4a04 20be 1093 7d3e cbd3 a23e
000002a0: 6ae0 37be 78b8 9dbe 5c81 403e 96a2 d1bd
000002b0: 0c19 16be defd bbbb c827 e9bb 2564 9b3d
000002c0: 0b70 25be edf6 123e 6268 4d3e bcbb c5bd
000002d0: bad2 09be a3ad ce3d c0c8 4cbe b21c 7d3e
000002e0: 2f25 f43d 5c64 6dbe f461 5cbe 3c6a 003c
000002f0: 11b8 8f3e c5ae 75be 4924 d13d cf1d 8d3d
00000300: ff72 6f3d 6956 923d 05f3 bb3d 6bd8 54be
00000310: fa84 6c3e 5cb6 20be e585 743e cd0c 193d
00000320: 0c97 29be 0f4f 9c3c e97a 5cbc d12d d1bd
00000330: 731d 28bd 8531 2d3c 7166 893e d38f a13d
00000340: 850e 3c3e 5968 c93c 1e9b 4a3e 2ae9 e4bc
00000350: f377 5dbd 7123 de3d 397c d73d 37c3 08be
00000360: 5918 06be 34a9 fc3d 892d a73c 4a12 85bd
00000370: 7246 6cbe e560 24be 682b c13d 4cc1 86be
00000380: 661c 4bbd 3726 963d 8cd5 a1be 4dfa 863e
00000390: 84e4 13bd d82e 05be 9c01 d0bd b645 a5bb
000003a0: f5a1 243e e7f9 6a3d 57cd 233e 1bb6 4bbd
000003b0: ad2f 2c3e c0a6 f9bc 5187 833d 0a40 79be
000003c0: 7e92 79be 0a41 dd3d 0cf5 7ebd 0941 b83e
000003d0: 7382 54be 277d 8dbe c58f b8bb 3fba d53d
000003e0: 4d80 293e e9dd 3f3e 265e 723d 21e5 24bc
000003f0: e853 e7bd b1c7 813e e44e 25be e53f 64be
0.21919976 -0.21965718 -0.012360709 0.04923533 0.09590779 0.04647235 0.19528334 -0.18475403
-0.24773881 0.10240197 -0.031477895 -0.20367675 0.087032266 0.033152927 0.21253899 0.14514086
0.19342686 0.10556309 -0.1626499 0.16471928 -0.050255436 -0.17890573 -0.18693735 0.11699308
0.19255121 -0.22070502 0.14773354 0.1876865 0.07427098 -0.060635854 0.12976068 0.06740277
-0.063605875 0.13234496 0.00229018 -0.03183065 -0.30234608 0.20314161 -0.21862118 -0.25665027
0.26239067 -0.11700871 0.0825933 -0.17603092 -0.16275758 0.077107176 -0.27922288 0.079389326
0.07315268 0.1392132 -0.11603302 -0.17708567 0.010916484 0.21070741 -0.19337063 0.29226905
-0.16374828 0.06477429 -0.013088932 -0.09566097 -0.31866044 -0.21047378 0.2828949 0.23236118
-0.31699824 -0.11771935 -0.072100624 -0.2199934 -0.09987168 -0.014742906 -0.08832492 -0.109809846
0.03716969 -0.08799705 0.24551633 -0.021918602 -0.01867185 -0.10574225 -0.2546262 -0.0091923475
0.03290278 -0.07104455 -0.27619538 -0.17836921 0.2499204 0.17229874 0.009909311 -0.2547719
0.13448557 -0.20807314 0.04406243 0.04957273 0.16338979 -0.25984615 -0.07446598 -0.1367655
-0.18573613 0.16901737 0.23902142 0.032858778 0.14919287 -0.20297252 -0.053433504 0.2221007
-0.026005968 -0.06379553 -0.20840262 -0.12532339 0.11322814 0.3159113 -0.10328047 -0.13467349
0.18290779 -0.21763185 -0.12343436 0.056044113 0.058040734 -0.29861015 -0.18684569 -0.1324134
-0.0063752746 -0.06799767 -0.2308674 -0.16748528 0.26951703 0.1611829 -0.21466665 0.19295631
-0.104166366 0.097395785 -0.25137928 -0.19239895 0.04599189 0.22923848 0.31618768 -0.17658456
-0.26353592 -0.22797191 -0.25700557 0.1270286 -0.15454847 0.028412025 0.041029967 0.18242314
0.048024107 -0.0022425482 0.09808271 -0.1303478 0.19682136 0.21882239 -0.101678215 0.24215636
-0.17082673 -0.19941197 -0.28441614 -0.0008053746 0.09313219 0.011812226 -0.18114871 -0.06697365
-0.13414443 0.2682932 0.22587757 0.031541906 -0.2234136 -0.15626636 0.24763131 0.3180221
-0.17956701 -0.308048 0.18799347 -0.10236089 -0.14657992 -0.0057370504 -0.007115338 0.075874604
-0.16156022 0.14352007 0.2005935 -0.09654948 -0.13459292 0.10091712 -0.19998455 0.24717978
0.11921155 -0.23182815 -0.21521741 0.007837828 0.2807012 -0.2399245 0.10211999 0.06890451
0.05845928 0.07145388 0.09177212 -0.20785682 0.23097602 -0.15694565 0.23879202 0.037365723
-0.16561526 0.019080667 -0.013457038 -0.10213817 -0.04104371 0.010570888 0.2683597 0.078887604
0.18364914 0.02458589 0.19785735 -0.027943213 -0.05406947 0.10846604 0.105217405 -0.13355719
-0.13095225 0.123369604 0.020407455 -0.06497629 -0.23073748 -0.16052587 0.09432107 -0.2631935
-0.04958763 0.07331508 -0.31608236 0.2636284 -0.0361066 -0.1300615 -0.10156557 -0.0050437106
0.16077407 0.05736723 0.159963 -0.049734216 0.16815062 -0.03047502 0.06422294 -0.24340835
-0.24372289 0.10803421 -0.062245414 0.35987118 -0.20752887 -0.27634546 -0.005632373 0.10435914
0.16552849 0.18736996 0.05917182 -0.010064394 -0.11295301 0.25347665 -0.16143376 -0.22289999

fc2.bias f4 [13]
00000000: 7323 04be d79c 463d 26ce 16be 12d5 16be
00000010: 7448 57bd a74c 06bd 4465 12be 1970 da3c
00000020: 785c 0c3e d431 803d e520 083e eff1 293e
00000030: c42f ae3d
-0.12904148 0.048489418 -0.14727077 -0.14729717 -0.05255933 -0.032787945 -0.14296442 0.02666478
0.13707149 0.06259504 0.13293798 0.16596197 0.08505204
