conv_net_model.pth (torch, 136922 bytes, 22 tensors)

weight f4 [16, 3, 3, 3]
00000000: 6e95 383e b44a 383d 8e29 24be 5c0c 463c
00000010: 85c5 3cbe 1bcb 07bd 0087 cebd 93eb 42be
00000020: 34cb 4abb d7f8 4fbd 3c91 3e3e 439a 09be
00000030: 8e14 0abe f1cc 0b3e 556a 3bbc 2d43 453e
00000040: cba6 233e 7251 303e 2bc4 00be 359c 383d
00000050: b065 0e3e a123 25bd eb05 0cbd d3b8 21be
00000060: 8e5c 4d3d bb9e 5fbd 2459 393d 9589 5a3d
00000070: cbf9 eabd 04e2 073e 38a6 2e3e 6801 9a3d
00000080: 79b5 113e 9bf1 aa3d bb22 f43d 8506 a6bd
00000090: de3c 65be ebee 17bd 879b bc3d bb1f 49be
000000a0: 8dd5 5bb9 0830 1a3c 44ea 143e 2dd8 293e
000000b0: 22bb 253d 375c c73d af67 f03d d83a 31be
000000c0: b83f efbd 0e60 edbc c97f 86ba 4cc7 d53d
000000d0: 75e5 6bbb f7b7 293e c935 67bc b35d 35bd
000000e0: da04 bd3d 4bc3 283d 569f e83d b12c 39be
000000f0: 2150 66be 989e 2cbd 627f a73d 8b48 303e
00000100: ea4a cbbd 5521 513d 9785 a13d eb0f 22bd
00000110: f6b7 8abd 23ee 5abe 2431 a9bd 62c5 a93d
00000120: b8c1 a1bd 3ce1 263e c1b8 1b3e 5d07 fb3d
00000130: e5dd 42bd 597e 853d 569d 44be 5f4d 963d
00000140: bf85 30bc 0622 5cbd 0c18 4dbe 4b70 0abd
00000150: 0846 b03d 5757 7dbd 244f c93d 04f3 c0bd
00000160: 1dc0 403d 5f31 18be ca09 263e 8a2d 803d
00000170: 3d08 3fbd d3eb 863c a141 203d 9f59 443a
00000180: a4b4 033e 082f 383e eb33 a1bd 98f4 363e
00000190: 3263 1abe 4f5b bdbd d5b5 073e 37f5 083e
000001a0: be42 6ebb 3feb e6bd 239d 02bc 7174 dabc
000001b0: d083 8bbc 919e 8b3d ac4e 01be 3947 f1bd
000001c0: 116a 423e 7abf 08bc 1c63 3bbd 71e8 4b3d
000001d0: b7db 8ebd 1257 cfbd 9609 0d3b 51d1 1e3c
000001e0: c2d3 ecbd 23a9 193e 5960 03be 378f 75be
000001f0: f2aa 39be 78bd 38bc ddca d7bd 4155 3e3e
00000200: 69d4 073d 7370 cdbd ca61 ff3d 0c16 93bc
00000210: 8443 4fbc 2f3f fc3d 3f08 fdbc 281c a23c
00000220: 095a 4f3d 4199 543d 071c 2abd dd7d 153e
00000230: a6a9 bdbd cb66 5ebb 7981 063e 6c94 f73c
00000240: 941f 5ebc 1b76 903d 9aed e6bd cb14 af3d
00000250: e484 31bd 7366 fc3d c85c e9bd 4f7d 95bd
00000260: 237a 04be 51ef 1a3e b2cb b33d 9df7 10bd
00000270: c4db a0bd 5f21 963d 65c4 f43d 532a dabd
00000280: e52c 78be 0877 2cbe 4d1d 1cbe 9f8f 88bd
00000290: 552e bbbd bc61 a8bd db1d 16be 7eee 0e3e
000002a0: bca8 f83c a018 8dbd 0cc7 d23d 432c 883d
000002b0: b16b 4d3e c3aa 46be 9c36 303e 09ec 033e
000002c0: 9f37 023e 7b41 d6bd 4789 c5bc a022 ec3c
000002d0: 0a87 a4bd 4cae 183e 036f 0ebd d8a5 0fbe
000002e0: 89a7 4abd eef7 9bbd ad09 273d 7584 3a3e
000002f0: efad f13d 5ec7 243e f7b8 80bd c5ca 43be
00000300: ad56 2c3e b177 1d3e 0a5e 2c3e 17b3 b83d
00000310: 9665 25be 722b 0e3e 642a 21be 1f84 cabd
00000320: 1c5f 143d f6e1 193d 5752 96bb c29e e7bd
00000330: b33c f03a e155 34be 53f7 c8bd 37b4 273e
00000340: 226e 53be 7f93 92bd f5ec c63d 28d4 5dbe
00000350: 7022 e93d 112b 1f3e 9a03 1abc 86e4 8ebd
00000360: a375 183e 5a72 8fba 010c f0bd c7fc e23d
00000370: cb97 16bd 86d2 26be b8a3 db3d bdb4 05bd
00000380: db69 7abd 9b85 9c3c 3f9f 203e 5c87 8b3c
00000390: 4243 353e 2f97 1ebe 94c6 33be 1c84 84bc
000003a0: 02e7 1abe 617a 333e 1494 c7bc 3697 3c3e
000003b0: 0010 453c 1774 993d af31 dabd ad8b 1fbe
000003c0: 578e 673d ae71 d33c 6fc6 c0bd bf18 473c
000003d0: 626c 1dbe 6d37 c6bd f873 efbc ca80 34bc
000003e0: 011d 823d eb02 f7bd 2469 e7bd e08f 4e3e
000003f0: 95d0 bdbd fc31 943d 3b19 273c 43ba db3c
0.18025753 0.044993117 -0.16031477 0.012087908 -0.18434723 -0.03315268 -0.10084343 -0.19035177
-0.0030943872 -0.05077442 0.1861009 -0.13437752 -0.13484403 0.13652398 -0.011438926 0.19263907
0.15981595 0.17218569 -0.12574832 0.045070846 0.13905978 -0.04031718 -0.03418533 -0.15793161
0.050137095 -0.054594737 0.045251027 0.053353865 -0.114734255 0.13269812 0.17055595 0.075197995
0.14229383 0.08346864 0.11920687 -0.08106712 -0.223865 -0.037093084 0.09209352 -0.1964101
-0.00020965021 0.009410866 0.1454249 0.16586371 0.040461667 0.097343855 0.11738526 -0.17307603
-0.11682075 -0.028976467 -0.0010261472 0.104384035 -0.0035994921 0.16574083 -0.0141119445 -0.04427881
0.09229441 0.04120187 0.11358516 -0.18083455 -0.22491504 -0.042143434 0.08178593 0.17215173
-0.09926398 0.05105718 0.07886808 -0.03956596 -0.06773369 -0.21379904 -0.08261326 0.08289601
-0.07898277 0.16296858 0.15207197 0.12257264 -0.047574896 0.065182395 -0.19200644 0.07338976
-0.010774075 -0.053743385 -0.20028704 -0.033798497 0.086071074 -0.061850872 0.09829548 -0.094213516
0.047058214 -0.14862584 0.16214672 0.06258686 -0.046638716 0.016469872 0.03912509 0.0007490161
0.12861878 0.17986691 -0.07871231 0.17866743 -0.15076903 -0.09245931 0.13252957 0.13374792
-0.00363557 -0.112753384 -0.007972035 -0.026666852 -0.017030627 0.068173535 -0.12627667 -0.11781163
0.18985774 -0.008346433 -0.045748815 0.04978222 -0.06975501 -0.10124029 0.0021520606 0.00969346
-0.11563827 0.15005927 -0.12829722 -0.23980413 -0.18131617 -0.011275642 -0.1053674 0.1858721
0.033161554 -0.100312136 0.12469824 -0.017954849 -0.012650374 0.12316739 -0.030887721 0.019788817
0.050622974 0.051903967 -0.041530635 0.14598794 -0.092608735 -0.003393578 0.13135327 0.03022214
-0.0135573335 0.07053777 -0.11275788 0.08548888 -0.043339625 0.12324228 -0.1139465 -0.07299291
-0.12937216 0.15130354 0.08779086 -0.035392392 -0.07854417 0.07330584 0.11951522 -0.10652604
-0.24235876 -0.16842282 -0.15245552 -0.066680185 -0.091396965 -0.08221766 -0.14659826 0.13958165
0.030353896 -0.068894625 0.102918714 0.06649067 0.20060612 -0.19401078 0.17208332 0.12883009
0.1271653 -0.10461708 -0.02411331 0.028825104 -0.08033569 0.14910239 -0.034773838 -0.14028108
-0.04947618 -0.07615648 0.040780712 0.18214591 0.11800753 0.16091678 -0.06285279 -0.19120319
0.16829939 0.1537769 0.16832748 0.09018534 -0.16152033 0.1388376 -0.15738827 -0.09888481
0.036223516 0.03756901 -0.0045874524 -0.113095775 0.0018328637 -0.17610885 -0.09812798 0.1637734
-0.20647481 -0.07157039 0.09713165 -0.21662962 0.113835216 0.15543772 -0.009400273 -0.06977181
0.14888625 -0.0010944114 -0.117210396 0.1108337 -0.036765855 -0.16291246 0.10724586 -0.03264307
-0.061136108 0.019106677 0.15685748 0.017032318 0.17701438 -0.1548736 -0.1755622 -0.016176276
-0.15127185 0.17527153 -0.024362601 0.18417057 0.0120277405 0.074928455 -0.10654008 -0.15580626
0.05653223 0.025811043 -0.09412848 0.012151896 -0.15373376 -0.096785404 -0.029230103 -0.011017034
0.06353188 -0.120611034 -0.11299351 0.20172071 -0.092682995 0.07236096 0.0101988865 0.026822215

bias f4 [16]
00000000: 5072 fcbc 2097 743d c3eb ba3d ed63 ef3c
00000010: dfe6 4ebe 272b be3d 00a8 2fbd dfed 5d3a
00000020: 57d6 073e 2381 ebbc f6ec 103e 4b61 1dbd
00000030: 8e5a e7bd 50a3 613e 050c d73d 4462 2f3e
-0.030816227 0.059714437 0.09126999 0.029222453 -0.20205258 0.092855744 -0.042884827 0.00084659265
0.13265358 -0.0287481 0.14152893 -0.038422864 -0.11296569 0.22034955 0.105003394 0.17127329

weight f4 [16]
00000000: 7a93 7d3f 25cc 6c3f 2cf3 833f 2b4d 6c3f
00000010: 215b 7c3f c89f 893f 0c9c 6e3f 527c 723f
00000020: ae61 8b3f 712f 7e3f 4955 853f 7016 683f
00000030: 3252 8a3f ed86 923f b5c0 653f 60a3 843f
0.99053156 0.92499 1.0308585 0.9230525 0.9857655 1.0751886 0.9320686 0.9472095
1.0889184 0.9929114 1.0416652 0.90659237 1.0806334 1.1447426 0.8974717 1.0362358

bias f4 [16]
00000000: dc03 053b 0cb7 303d c0c6 b43d c7e6 98bb
00000010: 5911 11be c6e6 6d3d 30fb 70bc 1931 153c
00000020: 787a f73d ab24 28bd 1df9 3cbd fa90 3dbd
00000030: d5a3 c23d 2262 e23d 95ae 70bd f9e8 8f3d
0.002029649 0.043143317 0.08826971 -0.0046661827 -0.14166774 0.05808141 -0.014708325 0.009105944
0.12083906 -0.041050594 -0.04613601 -0.04628084 0.09503905 0.110538736 -0.058760244 0.07026858

running_mean f4 [16]
00000000: df0a 0ebd 6bd7 13be 5db5 d23d 2a50 f9bc
00000010: 90db 47bd 7139 153e 10f1 fdbd b60a 983d
00000020: 353c 163e 500e 11bc 472b 7a3e 3977 b3be
00000030: d425 02be 9662 653e 6ed3 92bd 5372 133e
-0.034678336 -0.14437644 0.102884986 -0.030433733 -0.048793375 0.14572693 -0.12399495 0.07423918
0.14671405 -0.00885351 0.24430571 -0.35051897 -0.12709743 0.22400889 -0.07169233 0.1439908

running_var f4 [16]
00000000: fada 4e3c 9b85 163e 050d e83c 6120 be3c
00000010: 6d28 913d fd2e ee3c 94e9 a73c b854 103d
00000020: 0ecc 1d3d 13d9 8f3c 911c dd3c f39f 993e
00000030: 48bb 923c 63bb d13c d2ee b33d 8d34 3c3c
0.01262545 0.14699404 0.02832652 0.023208799 0.07087789 0.02907514 0.02049712 0.035237044
0.03852468 0.017559564 0.02699116 0.30004844 0.017911568 0.025602048 0.08785786 0.011487138

weight f4 [32, 16, 3, 3]
00000000: bbae 1fbd 019b d13c 11e7 b7bd 9c10 1f3d
00000010: e963 203d 0444 e6bc 7180 e2bc b650 203b
00000020: 5172 ed3c c17f a0bc cd86 07bc 7c8b 9bbc
00000030: d5a3 993c 595f 76bd 6f61 80bd fbe8 38bc
00000040: 1f53 613c 5adf 72bd ce4f 66bd 5b04 e3bb
00000050: 8fef 363c c0a6 b6bd c736 54bd 1952 b4bd
00000060: 2213 9dbd 4c21 033d 0d04 05bc 4c48 ef3c
00000070: ddd8 593d f0a8 cc3b 08d8 ccbb ca37 33bd
00000080: 6903 313d 22bc 083d 0c2d fbbc 7baf 033d
00000090: d118 f9bc 3a20 423d 26d3 a5bc a85b d13d
000000a0: 4a5e 83bd d695 a33d 3626 633d 62c6 37bd
000000b0: 9b8f 383d ac01 df3c 231f f33d 5742 b93c
000000c0: 85d7 59bd de0d 1abc 1630 01bd 09af 2dbd
000000d0: 93ff 51bd 2806 00be 1afe ba3d 8dc3 65bd
000000e0: e662 843d c603 803d c273 563d d66d b6bc
000000f0: 82c8 25bd 7107 373d aa04 20bd 8e31 51bd
00000100: c581 0c3d 4b9d b2bd cc05 653d 3bf1 b8ba
00000110: 3c8d 3a3d 2da4 3d3d 30c2 f73c f44b 273c
00000120: ab1e 163d ed91 85bd bbd8 f0bc 3097 893d
00000130: de02 bb3d 9f22 de3d 3269 00be 2fdd 33bd
00000140: 4bbf 15be d217 6b3c 9e5f e53c da1a bd3d
00000150: ef43 5bbd be2d 92bd b191 bbbd 2dc6 7a3d
00000160: dcfa 4abd 2c95 da39 eb84 a9bc 8450 ebb9
00000170: c964 fdbc 1671 01bb c4da bf3c 91bb ba3c
00000180: 68d8 f7bc dfe4 a2bd 0628 febd d7ca 1ebc
00000190: 4f6c 353c 08b3 17bd 321e 803d b147 3c3d
000001a0: 9c05 813d 6190 94bc 9f5a 67bd 411f 55bc
000001b0: 1f7f 9bbc 99e9 b6bd 43cb cdbd 3ba3 acbd
000001c0: 7395 f6bc db5c 523d f976 a9bd 9e8e 4f3c
000001d0: cf9f 43bd 22bb 57bd e1af febc eefc dcbd
000001e0: 7678 4dbd ed48 1b3c b84b 76bc ad06 303c
000001f0: 781b 403d 23c9 2f3d 338b 87bd 11d7 28b9
00000200: c2f1 903c 9ab7 1d3d 3c0f 5f3c 1590 9b3d
00000210: 30ce e1bc 893b d4bc 2a68 2b3c 82f1 dbbc
00000220: a546 74bd b71e b7bd eef8 89bd 5420 e8bc
00000230: 40cf d3bd 984a e1bc a13b 343d bcaf 4cbc
00000240: 49b5 17bd 2090 93bd 3334 91bc 089b 99bd
00000250: ab2e 713a 6ac7 e4bc d1bc aabd d6af 0ebc
00000260: 50b5 d53c 9919 433d 444c 9dbd c6d1 753d
00000270: a303 813d 3c71 8e3d 1a8c 1d3d d504 04bd
00000280: df44 f93c 100b 84bc 1d08 4a3d ebd1 c13d
00000290: a7b6 b4bb 5ecd c8bd 0e3a 38bd 3caf 2a3d
000002a0: 941a 08be 4665 42bd 4f84 11bb f98f 9c3b
000002b0: d2a0 1bbd c775 13bd 4ed5 5d3d 029f fa3c
000002c0: 1db1 08bb 07d6 a5bd b8dd bcbc fe90 ac3c
000002d0: 4f67 0c3d 5403 033e 56b7 af3a c780 0fbc
000002e0: 03c5 f83b 839c 673d 73b2 213c 0f78 cc3d
000002f0: 43c6 473d 998b 193d 638b 413c 279b 87bc
00000300: 3c5a 1b3d 9f3a aebd e43a cebd 7cf8 3cbd
00000310: 2bf0 a23c 9e04 28bc af0c ce3c 1917 053d
00000320: 2c7f 3fbd 06e2 403c f79d ad3d 4e62 9b3b
00000330: 8e3a 4a3d 9b04 5dbd 7c35 e9bc b3d1 08bc
00000340: c206 3a3d 884e 3bbc 919c efbb ec6f 0bbd
00000350: 5a70 3d3d 131d 5e3d be43 163d 6527 5c3d
00000360: 0c77 2ebc 0331 11bd 9c36 e9bd 8e70 703d
00000370: bff1 19bc 77a7 363b 5c9e 8bbd 67b0 e1bb
00000380: 6111 7c3d 61af bdbd ce1a 8abc 4c3f 743d
00000390: 7f54 96bc 90d6 3d3c 938a 463d 58bd 6a3c
000003a0: 4c90 e7bb db63 78bd 4911 053e cd0a cdbb
000003b0: 855a 50bd 71b6 c63d cbf2 833d 7438 b3bb
000003c0: 8e58 873d d415 033d 9258 a23d 16be a8bd
000003d0: 1f3b 443d 785f 863d ea67 323d faf9 91bd
000003e0: f3ec 4e3c 738a 59bd be44 67bd 91f9 82bd
000003f0: e877 86bd 6c42 9ebd aa70 06be f94a b0bc
-0.038984995 0.025586607 -0.08979619 0.0388342 0.03915778 -0.028108604 -0.027649136 0.002446217
0.028985174 -0.019592168 -0.008271885 -0.01898741 0.018754879 -0.060149524 -0.06268584 -0.011286016
0.013752728 -0.059295036 -0.05622845 -0.0069280094 0.011165514 -0.08918524 -0.051810052 -0.088047214
-0.07669665 0.032014176 -0.008118642 0.029209279 0.053185333 0.006245725 -0.006251339 -0.043754376
0.043216143 0.033382542 -0.030661128 0.032149773 -0.030407341 0.047394015 -0.020242285 0.1022256
-0.064144686 0.07987563 0.055456363 -0.044866927 0.045058828 0.027222477 0.11871173 0.022614641
-0.05318405 -0.00940272 -0.03154 -0.042403255 -0.051269125 -0.12502348 0.09130497 -0.056094695
0.06464176 0.0625072 0.05235649 -0.02226917 -0.040474422 0.04468483 -0.039066948 -0.05107265
0.034303445 -0.087214075 0.05591373 -0.0014109978 0.045544848 0.04629915 0.030243963 0.01021098
0.03665034 -0.06521974 -0.02940022 0.0671829 0.09131406 0.10846447 -0.12540129 -0.04391211
-0.14623754 0.014348941 0.027999695 0.09233637 -0.053531583 -0.07137631 -0.09158648 0.06122415
-0.049555644 0.00041691342 -0.020693263 -0.00044882682 -0.030931847 -0.0019751242 0.023419745 0.022794517
-0.030254558 -0.0795381 -0.124099776 -0.0096919155 0.011073186 -0.037035972 0.06255759 0.045966808
0.06299898 -0.018135251 -0.056482907 -0.01300794 -0.018981514 -0.08931274 -0.10048535 -0.08429571
-0.03010056 0.051358085 -0.08274645 0.01266828 -0.047759827 -0.052668698 -0.031089725 -0.1079043
-0.05016371 0.009477836 -0.015032701 0.010743779 0.046901196 0.04291643 -0.06618347 -0.00016101847
0.017693404 0.038505174 0.013614472 0.07595841 -0.027564138 -0.025907295 0.010461846 -0.026848558
-0.059637684 -0.08941405 -0.06736933 -0.028335728 -0.10342264 -0.02750139 0.04400218 -0.01249307
-0.03703812 -0.07205224 -0.017725086 -0.07500273 0.00092003745 -0.02792712 -0.08336795 -0.008708915
0.026087433 0.047631834 -0.07680562 0.06001451 0.06299522 0.069551915 0.03846369 -0.03223117
0.030428348 -0.016118556 0.049324144 0.09463867 -0.005514938 -0.09804796 -0.04497724 0.041671023
-0.13291389 -0.047459863 -0.0022204106 0.004777905 -0.037995167 -0.036000993 0.0541585 0.030593399
-0.002085752 -0.08097463 -0.023054942 0.021065231 0.03427821 0.12794238 0.0013406079 -0.00875873
0.007591845 0.056545746 0.009869206 0.09983837 0.04877306 0.037486646 0.011813018 -0.016553475
0.03792785 -0.08507275 -0.10069826 -0.04613541 0.019889912 -0.010255007 0.025152532 0.03249273
-0.04675214 0.011772638 0.08477395 0.0047419434 0.04937225 -0.05395947 -0.028467886 -0.008350777
0.0454166 -0.0114322975 -0.0073123653 -0.034042284 0.046249725 0.054226946 0.036685698 0.053748507
-0.0106485 -0.03544713 -0.11387369 0.05870109 -0.009396016 0.0027870813 -0.06817314 -0.006887484
0.06154001 -0.092619665 -0.016858485 0.059630677 -0.018350838 0.0115868 0.048472 0.01432737
-0.007066762 -0.060642105 0.12994875 -0.006257391 -0.050867576 0.09702767 0.064427935 -0.005469376
0.06608687 0.03200324 0.0792705 -0.08239381 0.047907945 0.06561178 0.04355613 -0.07127757
0.012629735 -0.05311055 -0.056462042 -0.06395257 -0.06565839 -0.07727513 -0.13128915 -0.021520125

bias f4 [32]
00000000: f220 edbb 4ffe 92bd 8b9c 8f3d cd86 8dbd
00000010: 864e 28bd affb 4dbd 4c43 213d 65b0 513d
00000020: ef3e 5d3d d748 7b3d 9506 613d 41c2 be3c
00000030: d9dd 50bd b6e1 e03a b075 873d 0032 4d3c
00000040: 31b4 113d 3182 843d 9dd0 1ebd 2441 3d3d
00000050: 43e6 4ebd 014a f6bc 61bc 92bd cd68 b93c
00000060: a8b8 873d 9f0b 8ebc 05a1 8a3d 8054 96bd
00000070: 6cd1 96bc d003 7dbd 22bb 8bbd b295 453d
-0.0072365934 -0.07177412 0.0701228 -0.06910477 -0.04109051 -0.050288852 0.03937082 0.051193614
0.054015096 0.061348762 0.054937918 0.023285987 -0.05099282 0.0017157111 0.06614244 0.012524128
0.035572235 0.064701445 -0.038773168 0.0462047 -0.050512563 -0.030064585 -0.07164837 0.02263298
0.06627017 -0.017339526 0.06768993 -0.07340336 -0.018410407 -0.061771214 -0.06822802 0.048238464

weight f4 [32]
00000000: 2f68 893f 8bb3 873f 2b63 853f b022 793f
00000010: 62d8 7d3f 8e57 703f c0ac 843f 78c8 743f
00000020: bc53 733f bed4 813f fac0 7c3f 8f92 7d3f
00000030: ff8e 773f ec1d 833f 14ca 553f 811c 803f
00000040: 073c 803f 15da 743f 5714 8c3f 9703 853f
00000050: fd85 6a3f 80b9 713f d0df 6a3f dbcf 833f
00000060: 8804 743f 9af7 893f 2144 7e3f f450 763f
00000070: a7f1 8c3f 8ee2 6d3f 3f17 7a3f b035 863f
1.0734919 1.0601667 1.0420889 0.97318554 0.991583 0.938836 1.0365219 0.9561839
0.95049644 1.0143049 0.9873196 0.99051756 0.9670257 1.0243506 0.8351147 1.0008699
1.0018319 0.95645267 1.0943707 1.039172 0.916107 0.94423676 0.9174776 1.0297807
0.95319414 1.0778687 0.99322706 0.96217275 1.1011246 0.9292382 0.9769172 1.0485134

bias f4 [32]
00000000: ca17 32be 7658 5dbe 10d1 12be c9d1 3bbe
00000010: 155a a4bd 2526 09be 3ee1 e1bd 7ece 0bbd
00000020: 184d 3abe a475 21be bf49 c1bd a19a 5dbd
00000030: dcf3 8ebd d6ad c8bd 1110 efbd 38b3 35be
00000040: 2242 9bbd eb8c 41bd 6aeb 3cbe 3924 0dbe
00000050: 0125 16be fa17 95bd 5d32 a3bd 0f5e 9cbd
00000060: cf7c b9bd c505 71be 8288 07be a0b0 87bd
00000070: 933a 86be 3e82 afbd 55fe a1bd 20df 7ebd
-0.17391887 -0.21615776 -0.14337564 -0.18341745 -0.08024994 -0.13393457 -0.1102929 -0.034132473
-0.18193471 -0.15767533 -0.09437894 -0.054102544 -0.06980106 -0.097987816 -0.11672986 -0.17744148
-0.07580973 -0.04725353 -0.18449178 -0.13783349 -0.14662553 -0.07279964 -0.079685904 -0.07635128
-0.090570085 -0.23537357 -0.13235667 -0.066254854 -0.26216564 -0.085697636 -0.07909838 -0.062224507

running_mean f4 [32]
00000000: b07b 54bf da7c 31bf 60e3 28bf 3638 f8be
00000010: abaa 80be c57c 3fbf 67b3 7ebf 4b3b 79be
00000020: 9499 08bf 28db 04bf 5e4f e5be 3869 cbbe
00000030: 6e6c c9bd fb2d 6bbf 7f51 c3be a5b8 57bf
00000040: dbce f8be c059 a2be 670c 00bf 81da debe
00000050: 24a6 6fbf dc5d 90bf 87f9 75be 4fb2 2abf
00000060: 7100 07bf 55c2 82bf 4519 cdbe 05ee e7be
00000070: 30e7 09bf 0aca 04bf 76e3 69bf 5a35 fbbe
-0.8300123 -0.69331133 -0.65971947 -0.48480386 -0.2513021 -0.7479976 -0.99492496 -0.24339025
-0.5335934 -0.51896906 -0.44787115 -0.39728713 -0.098351344 -0.91867036 -0.38148114 -0.8426612
-0.48595318 -0.317091 -0.50018924 -0.4352608 -0.93612885 -1.1278644 -0.24020968 -0.6667833
-0.5273505 -1.0215555 -0.40058342 -0.45298782 -0.5386839 -0.5187079 -0.913627 -0.49064142

running_var f4 [32]
00000000: 505c a03e 1041 c33e 5ef1 cd3e 4c49 603e
00000010: dd53 6a3e 1f50 ca3e 8d9d c53e 9bbe 8e3e
00000020: 0773 a93e 0520 f23e cc8a 7b3e 5fa8 8d3e
00000030: 0f6a 9d3e fd40 b53e 7401 0d3f 8ff3 ed3e
00000040: f089 3a3e 5d0e 593e 6ea7 b43e 9f5c 783e
00000050: 472e d43e ac42 d83e 5a1a 9a3e 1694 d43e
00000060: 5f43 9a3e 6e59 123f e018 863e b651 3c3e
00000070: cb30 bc3e c205 fd3e 62d8 ee3e f85a 8e3e
0.3132043 0.38135576 0.4022321 0.2190296 0.22883554 0.39514253 0.38596764 0.27879795
0.3309557 0.47290054 0.24564666 0.2766752 0.3074498 0.35401145 0.5508034 0.46474883
0.18216681 0.21196885 0.3528399 0.24254082 0.41441557 0.42238367 0.3009823 0.4151923
0.30129525 0.5716771 0.26190853 0.18390545 0.36755976 0.49418455 0.46649462 0.2780378

weight f4 [32, 32, 3, 3]
00000000: 2964 8a3c 88d7 0a3e 1bc1 f43d 25da 43bc
00000010: fec5 36bd 2a00 02bd e777 30bb ffa4 3d3c
00000020: 6900 adbd 40d5 1c3d 5325 e7bc 64e7 4e3d
00000030: 9f1b 383d e6e7 6c3c c605 763c a136 283d
00000040: 7d3b b7bc 19a4 b23a 1570 0cbd eff7 76bc
00000050: ac53 be3d ae5a 433d c031 08bd 35f3 9f3d
00000060: cae8 903d 98d6 c2bc 063c c6bc 33ca ae3c
00000070: ca7d db3c 89a3 73bd 1fa2 373d dd77 10bd
00000080: 362d 71bd e022 243d 7a5a 22bd 80cc 26bc
00000090: ec46 99bc 6e4c 933b cda4 4dbc 9d25 85bb
000000a0: 9fb1 02ba 0d99 f4ba e021 3a3d b94c 843d
000000b0: 8ee6 9d3d 312f 5a3d bbc8 74bd f2ee d93c
000000c0: 2355 4abd 72b8 35bc bfd0 74bd 0cdc a2bc
000000d0: 692a de3c 8314 2bbd b525 0abd 4309 1c3d
000000e0: 5bb4 76bd ef90 28bc 41fe d23c 019c d93d
000000f0: 3093 753c 9026 b939 ecf8 dcbb 8e32 a3bb
00000100: 7b20 383d e15b 0f3d f55b 0ebd 0b1b cebc
00000110: 9db1 1abd 5b1e 5dba d014 6f3d 1cb5 2e3b
00000120: 4f55 823d 366c b2bc 84ea 1d3d 6d1d d13b
00000130: 5ac6 34bd 2e1f 69bb 9383 053d a525 1fbd
00000140: b5d9 9f3c 324b 34bc 87ef 8f3d 807a 8a3d
00000150: 2362 a23d d16e 1a3d d2d3 9cbd 61a9 fa3c
00000160: a26a 2c3b d55b 2dbd ad1d d13b 8783 a5bb
00000170: 0d4d 23bd 0e38 833d 26f6 12bc c255 7dbd
00000180: 3cf2 413d 1604 b5bb e3a2 b7bc 350a 513c
00000190: 8090 a0bb dfb5 7a3d c2e9 b3bc 77ba b53c
000001a0: 1190 143a d584 5d3b 77e0 1a3d ddd5 073d
000001b0: 7e6b a5bc 9b8a 11bd df86 f6bc de88 6bbd
000001c0: e394 d5bc 239e 823d 123f 58bd 30c4 c23c
000001d0: 6c0e 273d b9ca 3a3c 01cd 2d3d e9f6 cd3d
000001e0: 15b6 85bd 5614 0fbd 8186 af3d 5e7c 993c
000001f0: 43e3 7ebd 95f5 1cbd 2ddf 95bd b8a2 a23c
00000200: 2c60 74bc 1565 81ba 2d94 b83c fe5e b3bc
00000210: 7ac9 4b3d cde8 523d ef09 123d 6c84 b6bc
00000220: 3912 983c a0db 4fbd f224 963c 7386 243d
00000230: b92f c9bc 7bf5 32bd a791 a1bd 7f09 05bd
00000240: 07b1 5fbc 1dec 10bd 7a6a b63c a452 1dbc
00000250: 3bc1 78ba 1137 183d 0d7f 063d b212 72bc
00000260: a0f8 aa3d 69f1 3cbb 58e9 0bbd 6ea5 7abd
00000270: 87c3 94bc e384 9fbc 2b9e 193d 6eaa 9a3a
00000280: 3ff9 153d 23fc 71bc 515b 13bd a4e2 2cbd
00000290: 253d 5a3d 4a5c bf3a d6c9 a33d 8e44 693c
000002a0: 6b7c 3ebc 8e5f ab3c f75a 4d3c 6bb0 2fbc
000002b0: f545 b7bc a44c 573d dd43 c13a 109c 273c
000002c0: 011e f7bd 5e22 58bc 33e8 d2bc be37 203d
000002d0: 051b c7bc d536 05bd 4175 893c 21ce 413d
000002e0: 5e9d 14bb 8257 4fbc f9cd ce3c 1e91 6b3b
000002f0: 591a 60bd 10f4 43bc a15f 833c 51d3 aabc
00000300: bf7b 1cbc 9203 3e3d bccb 1a3d 74aa 01bc
00000310: b143 fcbc 9e8f 36bd 9caa 9cbc 9c4a fb3c
00000320: b5dc fdbb 16c5 08bd e430 063d f032 183d
00000330: 6d1f 293b 644d ebbc 7d4e 85bc edac d23c
00000340: 4983 66bd 2ae0 8ebb a187 7bbd b0d6 ac3a
00000350: 380a 3cbd 1594 35b9 610c d63c 2b34 d8bc
00000360: 80f7 a23a b1f9 cdbc 9139 c2bd 83fb 0a3d
00000370: 9f00 1c3c 9e67 90bd cefc 04bd 0bfd 453c
00000380: 77bb 5c3c 63a1 f4bb a9dd 68bd ace7 18bd
00000390: 10c6 b73c 593d c5b9 1597 24bd 730f 96bd
000003a0: 362b 3abb ccfc 663c c730 f7bb fb2d f4bd
000003b0: a7bc 183c e268 fd3c bb74 083d c789 803d
000003c0: f762 213c 3913 403d f062 b53d f7a4 24bc
000003d0: 0363 51bc 6ff4 3a3d 5520 c73c 5014 ff3c
000003e0: 2242 683b ff7d bbbc f50b 763b 3249 843d
000003f0: 1e1c f13a 9f43 423d 3f19 16bd 270e 563d
0.016893463 0.13558781 0.119508944 -0.011953865 -0.044622414 -0.031738438 -0.0026926936 0.011574983
-0.08447344 0.03828931 -0.02821604 0.05051364 0.044948217 0.014459586 0.015016025 0.041067723
-0.022367233 0.0013629227 -0.034286577 -0.01507376 0.09293303 0.0476939 -0.03325057 0.0781006
0.07075651 -0.023783967 -0.024198543 0.02133665 0.02679338 -0.05948213 0.044832345 -0.03527056
-0.058881007 0.040072322 -0.039637066 -0.010180593 -0.018710576 0.004495195 -0.012551499 -0.0040633217
-0.0004985574 -0.0018661335 0.045442462 0.06459946 0.077099904 0.05326766 -0.059761744 0.026603196
-0.0493976 -0.0110913385 -0.05976939 -0.019880317 0.027119832 -0.04176761 -0.033727366 0.03809477
-0.060230594 -0.010288461 0.025756003 0.106254585 0.0149887055 0.0003531468 -0.006743541 -0.004980392
0.04495285 0.034999732 -0.034755666 -0.02515938 -0.03776704 -0.0008435004 0.058369458 0.0026658243
0.063639276 -0.021780115 0.03855373 0.0063816817 -0.044134475 -0.0035571563 0.032596182 -0.03885426
0.01951299 -0.011004256 0.07028108 0.06761646 0.07928874 0.03770334 -0.07657589 0.030598344
0.0026308675 -0.042323906 0.0063817115 -0.0050510797 -0.039868403 0.06407176 -0.008969819 -0.061849363
0.047350153 -0.0055241687 -0.022416538 0.012758781 -0.0049000382 0.061208602 -0.02196205 0.02218364
0.00056672195 0.0033801098 0.037811723 0.03316294 -0.020192858 -0.035532575 -0.030093608 -0.057503574
-0.026071971 0.063778184 -0.052794524 0.02377519 0.04078524 0.011400872 0.042431835 0.1005686
-0.0652887 -0.034931503 0.085705765 0.01873606 -0.062228452 -0.038320143 -0.07317958 0.019852981
-0.014915507 -0.0009872044 0.022531593 -0.021895882 0.04975269 0.051491547 0.035654005 -0.02227994
0.018563377 -0.05074656 0.018328164 0.040167283 -0.024558889 -0.04369114 -0.07889109 -0.03247976
-0.013653046 -0.035381425 0.022267569 -0.009602223 -0.0009489243 0.03716189 0.03283601 -0.014774965
0.08348203 -0.0028830415 -0.03415808 -0.061192922 -0.018159641 -0.019472545 0.037504356 0.001180006
0.036614653 -0.014769587 -0.035975758 -0.04220833 0.05328097 0.0014599648 0.079974815 0.014237536
-0.011626343 0.020919587 0.012533895 -0.010723214 -0.022372225 0.052563325 0.0014744956 0.010230079
-0.1206627 -0.0131917875 -0.025745487 0.03911566 -0.024304876 -0.032522995 0.016779544 0.04731572
-0.0022676806 -0.012655141 0.0252447 0.003594465 -0.054712627 -0.0119600445 0.01603681 -0.020852717
-0.009550988 0.046390124 0.037791952 -0.007914174 -0.030793997 -0.044570558 -0.019124322 0.030675225
-0.0077472576 -0.03339108 0.03276147 0.037157953 0.0025806085 -0.028723426 -0.016272778 0.025717223
-0.056277547 -0.0043602185 -0.061408643 0.001318654 -0.045908183 -0.0001731667 0.02612895 -0.026392063
0.001243338 -0.025143476 -0.09483636 0.033931267 0.009521632 -0.070510134 -0.032467656 0.012084256
0.0134724295 -0.007465528 -0.056852017 -0.037330315 0.02243331 -0.00037620476 -0.040183146 -0.073271655
-0.0028407103 0.014098357 -0.0075436565 -0.119228326 0.009322322 0.030933801 0.033314448 0.06276279
0.009850255 0.046893332 0.088567615 -0.010049096 -0.012779954 0.045643266 0.02430741 0.031137615
0.003543981 -0.022887228 0.0037543748 0.064592734 0.001839522 0.04742777 -0.03664517 0.05225959

bias f4 [32]
00000000: fb5e 483c ae5e 07bd 955c 8fbc f986 3cbd
00000010: 24aa b1bc 0158 3abd 0859 a9bc 5870 8e3c
00000020: e979 dabb 4d68 70bc 8f6b 70bb 62b2 2fbd
00000030: 8934 15bc a866 63bc d792 84bd 15d5 85bd
00000040: e81a 3ebd 0d18 393c 189b 2c3c f811 5dbd
00000050: fbc1 b6bc 0b19 17bd f9fe 26bd 9fce 93bc
00000060: 6e9f 3bbd 53a9 a0bc b984 793b b88b 233c
00000070: ea41 7a3c 2dc8 1cbd 7884 023d 34d7 693c
0.012229676 -0.033049278 -0.017500201 -0.046027157 -0.021687575 -0.045494083 -0.020672336 0.017387554
-0.006667365 -0.014673305 -0.0036685204 -0.04289473 -0.009106764 -0.013879456 -0.0647332 -0.06534783
-0.04641238 0.011297238 0.010535024 -0.053972214 -0.022309294 -0.036889117 -0.040770505 -0.01804286
-0.04580634 -0.01961199 0.0038073494 0.009982042 0.015274504 -0.03827684 0.031864613 0.0142725

weight f4 [32]
00000000: 5b2b 9d3f 5304 9b3f 6326 993f cf31 a13f
00000010: 645c 9e3f 0288 9c3f 08c6 8f3f aac0 a43f
00000020: b6ba 973f aeb1 a33f 383e 9f3f d905 993f
00000030: ccd0 973f 5b03 9b3f caa1 963f 34a1 933f
00000040: 2bb7 993f 8d49 9a3f 01c0 9d3f f9df 9d3f
00000050: ce98 a13f 941d 983f 2897 9b3f 740c 963f
00000060: 618d 9d3f 28d0 a23f 3cdb 973f da6d 9f3f
00000070: 1071 963f f690 993f 887b 9b3f e3d4 9b3f
1.2278856 1.2110695 1.196484 1.2593325 1.2371945 1.2229006 1.1232309 1.2871296
1.1853855 1.2788599 1.2440863 1.195491 1.1860595 1.2110399 1.1768124 1.153357
1.2009023 1.2053696 1.232422 1.2333976 1.2624757 1.1884027 1.2155504 1.172255
1.230877 1.2719774 1.186378 1.2455399 1.1753254 1.1997364 1.2147074 1.2174343

bias f4 [32]
00000000: b72b 81bd 4d43 94bd fbb4 64bc 055a 13be
00000010: f079 ffbd 24be 85bd 7931 b3bd e6dc 0abe
00000020: 394c acbd 7a04 dcbd 480c adbd 8e99 92bd
00000030: 1468 dbbd d2ea d7bd 8e9e 58bd 23ff 42bd
00000040: a58f adbd 5810 e0bc 9646 8abd 077e fabd
00000050: 8f0a dcbd 6d72 92bd faf0 debd 6e6b a7bc
00000060: b564 afbd 3517 00be fbf3 9cbd cab1 b2bd
00000070: b767 b3bd 96ca 9fbd 04f9 e2bd 88c4 7abd
-0.06307166 -0.07239399 -0.013959165 -0.14389808 -0.124744296 -0.06530407 -0.087496705 -0.13560829
-0.08412976 -0.10743041 -0.08449608 -0.071581945 -0.10713211 -0.10542835 -0.052885585 -0.0476066
-0.08474664 -0.027351543 -0.067517444 -0.12231069 -0.107442014 -0.07150731 -0.108858064 -0.020436969
-0.0856413 -0.12508853 -0.07663723 -0.08725317 -0.087600164 -0.07802312 -0.11082652 -0.061222583

running_mean f4 [32]
00000000: 0c04 ab3e a232 dc3e b5f7 bdbe 8f6b d9bc
00000010: 97b7 533e 03f3 0ebd 2579 fb3e 9aba 973c
00000020: 3600 c9bc 96ee 783e b974 8a3c a461 1bbe
00000030: 118c 123d 0bc9 9cbe bea8 f4bd 21a7 f23d
00000040: e22c 303e d05f 91be efcb 9e3d 5398 1abe
00000050: 4fa4 a83d 4dc2 b8bd 79a1 c1bc 2ab8 01be
00000060: 4ca5 dfbc f2f0 c7bd 0db7 ea3d 680b a53e
00000070: 1153 03be 7960 f83e 8538 783d eb98 9c3e
0.33401525 0.4300738 -0.37103048 -0.026540546 0.20675503 -0.034899723 0.49115863 0.018521596
-0.024536233 0.24309763 0.01690136 -0.15173966 0.03577811 -0.30622134 -0.119462475 0.118482836
0.17204621 -0.28393412 0.07753741 -0.1509717 0.082344644 -0.09021435 -0.023636566 -0.1266791
-0.0273005 -0.097627535 0.114606954 0.32235265 -0.12824656 0.48511103 0.060600776 0.30585417

running_var f4 [32]
00000000: 7934 143e d727 463e 7c9e 213e 9b33 0a3e
00000010: 2dea f03d 572b 163e 99fe 273e 3a8a 1b3e
00000020: 6979 f43d 9d57 073e 2cf6 543e ce64 0e3e
00000030: a02e 033e 6dba ea3d 1e88 0c3e 98a2 053e
00000040: b851 2e3e 2845 113e d7bf 583e 319f 013e
00000050: 3254 313e e9af 0b3e d1a9 253e 55d6 1f3e
00000060: c058 423e 9104 f93d e8d9 f23d eb82 2f3e
00000070: c642 273e c2cd 173e abb8 1d3e 15cc 193e
0.14473142 0.19351135 0.15783113 0.13496248 0.117634155 0.1466497 0.16405715 0.15189448
0.1193722 0.13217016 0.20797032 0.13905641 0.12810755 0.11461339 0.137238 0.13050306
0.1702336 0.14186537 0.21166931 0.12658383 0.17317274 0.13641323 0.16178061 0.15609105
0.18979168 0.12159074 0.118579686 0.17139785 0.16334066 0.14824584 0.15402476 0.15019257

weight f4 [32, 512]
00000000: 1d2d babc 7bce 41bd 87c1 efbc c98a f4bb
00000010: 53ad 03bd 26d4 1bbb fcdb 383d 77f5 f03c
00000020: cacc 3d3d fcc8 b0bd 9d92 593c bd22 6c3b
00000030: 9363 e73c 7d34 3b3d b75b d13d 6500 e2bb
00000040: ac4a 133c a350 3ebc bee2 533d d421 cabb
00000050: 3208 0dbd 1d1c 7f3c daf5 173d 7dda 973c
00000060: a185 7e3c 70fc b7bd ed50 3c3d 8d56 973d
00000070: a3eb 33bd ddec 8bbd 46b4 27bc 16e7 e8bc
00000080: 9bcd e9bc fe3b 0cbd 4bfa 1dbd c715 03bd
00000090: cfe5 10bb a9b9 dfbb 0ff4 2fbc 5aa6 bbbc
000000a0: 8d29 7cbd b203 0dbe 986a 8d3c c857 bcbc
000000b0: d82d 44bd b39c 583c 91a3 043d ecf1 9ebc
000000c0: 0480 a23c 9968 c3bb a49b 93bc ec22 803c
000000d0: 7a96 b6bc 96a1 79bd 511d d6bd 6fc7 8bbc
000000e0: 9d0d da3c 650a eb3c 507d 053e b5c4 823d
000000f0: 12c3 563d 7007 87bd 9d9f 26bc 5c71 8a3b
00000100: 2898 c93c 2c28 63bc b9c2 a7bc 6683 bb3c
00000110: 6ad7 863c 438a 07bd 4bc9 10bd 0ddb 213d
00000120: 4338 443d c58d ecbb 2f87 203e 56cf abbd
00000130: 7a9f 5a3c 19da 0fbd 2793 3fbd 20ff e4bb
00000140: 8719 8abc 6429 09bd 5868 c4bc 582b bf3b
00000150: 29f4 6c3d 541b a7bd b463 4b3d c71c 983c
00000160: 1e18 49bd bf4b 8dbd 83e3 4bbd 9f95 a1ba
00000170: d3d4 43bd c4e7 dfbc 049e 0bbd 0df3 8bbd
00000180: dc66 463c 9903 673c 24ee c6bc 2829 3dbc
00000190: 136e d2bc c449 eebc e7c6 543d 1df6 f1b9
000001a0: f89a 7b3c a87e 42be 8ce1 fd3a ace5 ebbc
000001b0: 005c f1bc d1a1 00bd 7255 02bc f8d7 a13c
000001c0: 9644 45bd 4cfb 013d 56e1 ce3c 3ec4 043c
000001d0: 91a7 eb3b c333 c43d 0eac 7fbd 510b 8f3d
000001e0: 8549 0fbc 8fa2 bebd ef19 5ebd 087a 1abc
000001f0: dee7 8c3c 336e f2bc 94f9 443c abba 89bd
00000200: 0f8c 0f3d 408d 25bd aab5 1c3c c9e2 54bd
00000210: b2c7 363d 86db f3bc 8079 553d a2b5 10bd
00000220: 4e53 d13c bf73 9bbd 1783 fbbd bbf1 593c
00000230: 0971 3ebb 1a85 bc3d 53ec 25bd f674 3ebd
00000240: 4ac7 f5bc 24e7 fe3c a9bf 903d b01e 2d3d
00000250: c91e 0e3d 21f3 89bc 5700 d4bb c922 9f3c
00000260: 74aa e8bc 8f53 24be cf6c babd 2d24 df3c
00000270: 385b 013d 9923 ccbb 84d1 4abc 73f5 19bd
00000280: 46bf 26bd 9b3f 903c 50e5 c2ba 8eda f63c
00000290: aee1 753d 7f41 aebd 4dcc 95bd 1886 a5bb
000002a0: 0d9e 953a 2e01 79bc e6c1 ff3c 0039 6139
000002b0: 14b6 6bbc f9fe a8bb 1f48 293d bdd7 23bc
000002c0: 686c b4bc 7f5b 093d 1e20 d1bb 8686 7c3b
000002d0: 4f55 c53b 00fe 6d3e e773 023d 748d 663b
000002e0: c1cf 60bc 2b2b e93d 56c5 c53d 2f7c 1e3d
000002f0: 1fea 8dbc 9649 363d 3c78 0dbc c247 ba3c
00000300: d711 e3bc 6a99 373d 8f39 6e3d a485 353b
00000310: b086 76bd 0bcb 773d 2993 963d 646a eb3c
00000320: 7f53 69bd 2918 963c 2b41 ce3d 54da 74bc
00000330: c681 62bc 65a9 a23d 0893 a13d 4e18 d2bd
00000340: a05c 08bd cf88 47bc cbb0 f3bb 1415 84bc
00000350: ecc3 7fbd 3886 9dbd 0f1e b5bd 664c f13c
00000360: 7420 09bd 6628 b43d a02e 7b3d d333 153d
00000370: bb48 0cbc be25 6dbc 5227 78bd 6b19 53bd
00000380: 6f0b 4dbd ddf3 e8bc 8076 293c 6bdf 053d
00000390: bd3c 8abd 910b 86bd bbb9 3dbb 96d3 f8bc
000003a0: 1fd8 423c 9519 b7bd cd33 d03c c1ab 87bd
000003b0: b119 ac3c 317d 91bd 20a8 0bbd 1da5 fc3b
000003c0: 58e7 1dbb 7561 94bc abd6 8ebd 01ae d3bc
000003d0: 5ad6 c8bb 3015 9a3d 860b b43c 60bf 1a3d
000003e0: af8a 473d 5a5e 893d bc24 523b 7925 b83c
000003f0: 8a74 a8bb a17e 7f3c 787e b03c ccf6 e2bc
-0.02272659 -0.047316056 -0.029267086 -0.0074628335 -0.032147717 -0.0023777573 0.04513167 0.029413922
0.04633788 -0.08632085 0.013279584 0.0036031448 0.028245723 0.045704354 0.10222571 -0.0068970197
0.008989971 -0.011615905 0.05172991 -0.0061685834 -0.034431644 0.015570668 0.037099697 0.0185368
0.015534789 -0.089836955 0.045975614 0.07389555 -0.043925893 -0.068322875 -0.010235852 -0.028430503
-0.028540423 -0.0342369 -0.038568776 -0.03200319 -0.0022109633 -0.0068275523 -0.01073934 -0.022906471
-0.061563063 -0.13770941 0.017262742 -0.022991076 -0.047895283 0.013220954 0.03238255 -0.019402467
0.019836433 -0.0059633967 -0.018018551 0.015641652 -0.02228855 -0.060945116 -0.104548104 -0.01706287
0.02661782 0.02869148 0.13036084 0.06385175 0.052432127 -0.065932155 -0.010169891 0.0042249393
0.024608687 -0.013864558 -0.020478593 0.022889804 0.01646014 -0.03309084 -0.035348218 0.039515544
0.047905218 -0.0072190487 0.15676568 -0.083891556 0.013343686 -0.035120104 -0.046771195 -0.006988421
-0.016857876 -0.03348674 -0.023975536 0.0058340244 0.057850037 -0.08159509 0.04965563 0.01856841
-0.049095266 -0.06899213 -0.04977752 -0.0012327916 -0.047810387 -0.027332194 -0.034086242 -0.06833468
0.0121094845 0.014099979 -0.024283476 -0.011545457 -0.025687253 -0.029087909 0.0519475 -0.0004615047
0.015356772 -0.18993628 0.0019369586 -0.02879604 -0.029462814 -0.03140432 -0.007954942 0.019756302
-0.04816111 0.031733796 0.025253933 0.008103428 0.0071916063 0.09580185 -0.062419944 0.0698458
-0.008745556 -0.09308349 -0.05422395 -0.009428509 0.017200407 -0.029593563 0.012022395 -0.06725057
0.03504568 -0.04041791 0.009564796 -0.05197409 0.044624038 -0.029767763 0.052117825 -0.03532947
0.025552418 -0.07590436 -0.12280863 0.013302262 -0.0029059073 0.092050746 -0.04050858 -0.04649826
-0.030002255 0.031116076 0.07067806 0.042265594 0.034697328 -0.016839566 -0.006469767 0.019425767
-0.02840159 -0.160475 -0.09102785 0.02723893 0.031581134 -0.0062298295 -0.012379054 -0.037587594
-0.040709756 0.017608454 -0.0014869366 0.030133512 0.060029678 -0.08508586 -0.07314358 -0.0050513856
0.0011414901 -0.015198035 0.031220388 0.00021478906 -0.0143866725 -0.0051573482 0.041328546 -0.0100001665
-0.022024348 0.033534523 -0.0063820025 0.003853233 0.0060221325 0.23241425 0.031848814 0.0035179527
-0.013721407 0.11385187 0.096567795 0.03869265 -0.017323552 0.04450377 -0.008634623 0.022739295
-0.027718468 0.04482404 0.05816036 0.0027698064 -0.06018704 0.06049637 0.07352287 0.028737254
-0.056964394 0.018322067 0.100710236 -0.014944632 -0.013824886 0.07942466 0.07889372 -0.10258542
-0.03329146 -0.012178614 -0.007436847 -0.016123332 -0.062442705 -0.07691616 -0.08843624 0.029455375
-0.033478215 0.08796768 0.061323762 0.036426377 -0.008562262 -0.0144743305 -0.060584374 -0.051537912
-0.050059732 -0.028436596 0.010343194 0.03268377 -0.06749866 -0.06545175 -0.0028949815 -0.03037433
0.011892348 -0.08940426 0.025415326 -0.06624556 0.021008344 -0.071039565 -0.034095883 0.0077101127
-0.002409419 -0.018112877 -0.069745384 -0.025839807 -0.0061290683 0.075235724 0.021978151 0.037780166
0.048716243 0.06707449 0.0032065352 0.022478806 -0.0051408457 0.0155941555 0.02154468 -0.027705573

bias f4 [32]
00000000: 05b0 47bd 0852 aebc 48d6 313c 396e c53c
00000010: bb46 9e3c 3a3d 163c 3610 513c 674d 9bbc
00000020: 62cf 67bb 956b a43c 73a4 47bd d56d 363c
00000030: 4848 7ebc cf14 343d 9e22 29bd 5464 463d
00000040: ceb3 a6bc a7df 75bc 421b a33b f27f b73c
00000050: f460 e73a 8761 2c3d d4bb c6bc 6233 023d
00000060: bfc4 243c e811 42bd 2bac b73b 27d0 ddbb
00000070: 213a 7bbc 4105 cdbc 99c4 b1bc 3349 31bd
-0.04875185 -0.02127935 0.010854311 0.02410041 0.019320836 0.009169871 0.012760213 -0.018957807
-0.0035371413 0.02007083 -0.048740815 0.011134584 -0.015520163 0.043965157 -0.04129278 0.048435524
-0.02034941 -0.015006936 0.0049776146 0.022399876 0.0017652796 0.042085197 -0.024259485 0.031787284
0.010056674 -0.047380358 0.005605241 -0.0067691985 -0.015333683 -0.02502692 -0.02170019 -0.0432827

weight f4 [13, 32]
00000000: 0ad8 533e c408 1c3e dbcb 02bd 0c3b fd3c
00000010: 75c9 673e 9555 223e 6bd9 673e bd63 403e
00000020: 6cdb 003e b28d 65be 28dd 073e c33d 733e
00000030: e2aa 75b9 d42a 7e3d 4070 89bd 7c2e 1abe
00000040: 76b1 ed3d 4293 bc3d 5c5d 6f3e fb6f f2bd
00000050: b708 b43d 5901 4f3e 7649 e93d 5375 65bd
00000060: 7199 d2bd a637 073e e0ec 90bd 7cee 5d3e
00000070: fa29 f43d 4003 213c 25a0 8dbc cbb0 f93d
00000080: f013 15bd dec0 74be 80d9 fb3d 8871 24be
00000090: 1e15 9fbc 5d13 5bbe 2b48 81be ced4 9c3c
000000a0: 985f ae3d a5ae 0f3e cec1 0ebe 389d acbd
000000b0: c4f7 c93c 6a9b 343e fc0a 513d 7f7e 7f3e
000000c0: d20a 84be 4e11 60be e5fa a3bd d8a0 a53c
000000d0: dd71 ca3e 69d4 033c 398e 9abd 7aab e4bc
000000e0: 73bc 31be 7052 363d b22a ebbd 2a07 82be
000000f0: 58d5 37be 2c2a 3f3e 3ee7 303e 86cb 4e3e
00000100: 86e6 69be 12b4 4b3e 5634 433e ecc2 bdbd
00000110: dc3d dcbd 673e 333d 54bd 063d 1a8e 86be
00000120: 9539 54be ecfe b53d 219e 5c3e 5db3 3b3e
00000130: ade8 85be 4449 9d3c 9051 063e 4843 82bc
00000140: 2c3d 2cbe d5e3 243e 9ac5 fb3d 96a7 f1bd
00000150: 99df 4abe fa82 94be a2ec 92be 07cb dfbd
00000160: 881b 6cbe 9b89 6e3e 76c8 443e 73a9 40be
00000170: d6d2 1abe 77ac f9bd f4ec d33c 500a 91be
00000180: cc9e 1d3d 3a1b febd ee65 193e fb72 cb3d
00000190: 9597 bb3d 87d9 e63d b9ad 823e a7a7 19be
000001a0: 7b2e b3bd 27b1 2a3e 4e90 9dbe fd96 223e
000001b0: 780e a13d 2d3b c8bd de36 2b3e 88c2 7dbe
000001c0: 6712 82be 9aae 2d3d 983c 80be daf6 323e
000001d0: 474b 97be 2567 9a3d 3569 7cbe 88a2 803e
000001e0: 77cf b8bd 43e3 6fbe f43a 0fbe 910f 423e
000001f0: 8852 6fbe 7811 06bd 9bee a7bd 07a1 493e
00000200: 0e14 933e 62dc 2cbe 46e9 1fbe ff39 0bbd
00000210: 8e74 d93c dad9 293e 9225 60be a88c 15be
00000220: da49 903e e781 4ebe 3b71 88be de74 32be
00000230: 0d1f 033e 36a7 02be b86e 12be b3d0 5b3d
00000240: ea8c 0a3e de94 8f3e fa3b 9bbe c2ac 28be
00000250: fc0a c73d dbd0 e9bd 421a 40be ecb5 25bd
00000260: 25ff 24be 6803 de3d f659 8abc a722 0dbe
00000270: 58dd c13d 9648 a6bc ce07 353d c9bc 0f3e
00000280: 221e 083e 00d1 1b3e db5d 05be 9ffc 27be
00000290: 16f9 473e 8039 f2bd 6682 48be e796 ab3d
000002a0: 2a99 aa3d 4df5 8bbe f333 f63d 33b7 463e
000002b0: 0423 87bd 51e5 30be 93c7 af3e 365b f83d
000002c0: 1379 a4be 0470 25bd 094f 5ebe 5572 60be
000002d0: fc32 31be 2836 0fbe 2a9a e13c f31f 383e
000002e0: 2410 d53b 324c 393e fcc1 703e 3f17 8fbe
000002f0: 9437 7c3e 2a46 eb3d 5df5 2c3e a52b 0a3e
00000300: 094b 37be 84ad 5fbd b4d9 7dbe 7399 d3bd
00000310: 7a2b 023e 6515 11be d559 0c3b 90b7 533d
00000320: eec9 26be a2bc 85bc 2198 d0bd 4358 29bc
00000330: 72b7 6bbe 6cfd 61be f3a8 24be 5bfa 8d3e
00000340: a456 4a3e c5aa 97bd 039b c33d cc6d 34b7
00000350: dcd5 93bd 7abc 853e 075c 423e d245 2abe
00000360: 4ed1 9cbd 165c 92bd 3abb 56be 1e9b 5d3e
00000370: 6e66 5e3d eca8 07be 2e18 e43d 9751 c83d
00000380: 9093 1bbc 8c44 df3d f785 3c3e f977 8abe
00000390: 34e7 183e f477 ea3d bf37 1c3e ebf6 ddbc
000003a0: 8f47 78be 8bee 8dbc e7ea 133d 1804 2ebd
000003b0: a92b d93d a381 8ebc 16a1 7cbe a02b a63d
000003c0: a9b8 0bbe b4a8 65be 264a 473b f1b1 c33d
000003d0: e80d c6bc ea3f 5e3e 2dc9 febd 42fe a7bd
000003e0: 35b1 2b3e fb47 a23e dd2b ac3d f727 c33d
000003f0: b7cf adbc aa58 923e 35fa 72be ea82 b03d
0.20687881 0.15237719 -0.031932693 0.030911945 0.22635444 0.1585296 0.22641532 0.18788047
0.12583703 -0.22417334 0.13267958 0.23754029 -0.0002342868 0.062052563 -0.06710863 -0.15056795
0.116061136 0.09207775 0.23375458 -0.11837765 0.08790725 0.20215358 0.11390965 -0.056020092
-0.10283173 0.13204822 -0.0707643 0.21673006 0.11922069 0.009827435 -0.017288277 0.12191924
-0.036395967 -0.23901698 0.12297344 -0.16058934 -0.01941925 -0.21394105 -0.25250372 0.019144442
0.08514327 0.14031465 -0.13941118 -0.084284246 0.024654277 0.17637411 0.051035866 0.24950598
-0.25789505 -0.21881601 -0.08006839 0.020218298 0.39539996 0.008046248 -0.07546658 -0.027913798
-0.17357044 0.044512212 -0.11482753 -0.2539609 -0.17952478 0.18668431 0.17275712 0.20194826
-0.22841844 0.1989291 0.19062933 -0.09265694 -0.10753986 0.043760683 0.0328954 -0.2628029
-0.20725091 0.08886513 0.21544696 0.1833014 -0.2615408 0.019199975 0.13117051 -0.015901223
-0.1682021 0.16102536 0.12293549 -0.117995426 -0.19811858 -0.29006177 -0.28696162 -0.10927396
-0.23057377 0.2329468 0.19217095 -0.1881464 -0.1511949 -0.12191098 0.025869824 -0.2832818
0.03848152 -0.12407537 0.1498029 0.0993404 0.09159771 0.11271959 0.25523165 -0.1500536
-0.087491 0.16669141 -0.30774158 0.1587791 0.07864088 -0.09776912 0.16720149 -0.24781239
-0.25404665 0.04240284 -0.2504623 0.17476979 -0.2954962 0.075392045 -0.24649508 0.25124002
-0.09023946 -0.23426537 -0.13987333 0.1895125 -0.23371327 -0.032731503 -0.08199807 0.19690333
0.28726238 -0.16880944 -0.1561633 -0.033990856 0.026544835 0.1658701 -0.21889332 -0.14604437
0.28181344 -0.20166741 -0.26648888 -0.17427394 0.12804814 -0.12759098 -0.14300048 0.053665828
0.13530317 0.28043264 -0.30319196 -0.16472152 0.09718892 -0.11416789 -0.18760017 -0.040456697
-0.16112955 0.108404934 -0.0168886 -0.1378275 0.09466046 -0.020298284 0.044196896 0.1403686
0.13292745 0.15216446 -0.13024084 -0.16404961 0.19528612 -0.118273735 -0.19580993 0.08378392
0.08329995 -0.27335587 0.12021627 0.19405822 -0.065984756 -0.17274977 0.3433195 0.12126772
-0.32123622 -0.04039003 -0.21709837 -0.21918614 -0.17304605 -0.13985503 0.027539331 0.17980938
0.0065021683 0.18095472 0.23511499 -0.27947423 0.24630576 0.11487992 0.16890474 0.13493212
-0.17899717 -0.054608837 -0.24790078 -0.103320025 0.12711897 -0.14168318 0.0021415849 0.05168873
-0.16287968 -0.016325299 -0.10185266 -0.010335985 -0.23019198 -0.22069329 -0.16080074 0.2773007
0.19759613 -0.074056186 0.095510505 -1.07544e-05 -0.07218525 0.2612036 0.18980418 -0.16628197
-0.07657109 -0.0714647 -0.20969859 0.21641204 0.054296903 -0.13248032 0.111374244 0.09781187
-0.009495631 0.10901746 0.18410479 -0.27044657 0.14931947 0.114486605 0.1525564 -0.027095279
-0.24246047 -0.01732566 0.036112692 -0.042484373 0.10604031 -0.0173958 -0.24670824 0.081137896
-0.13644661 -0.22427636 0.0030409186 0.09555424 -0.024176553 0.21704069 -0.12440715 -0.08202793
0.16766818 0.31695542 0.08406804 0.09529107 -0.02121721 0.2858327 -0.23728259 0.0861872

bias f4 [13]
00000000: b835 aabd 81e0 863c 969a fbbd b96f 1bbe
00000010: 0f32 e03d ab11 4dbe 539a b3bd 5eac 1f3e
00000020: dcbd aabc 04c7 22be e8ce 22bd 0d4f fb3d
00000030: 0dd3 33bd
-0.08311027 0.016464474 -0.12285344 -0.15179338 0.10947048 -0.20026271 -0.087696694 0.15593097
-0.020842485 -0.15896231 -0.039748102 0.12270937 -0.043902446
