conv_net_model.ckpt (torch, 133338 bytes, 22 tensors)

layer1.0.weight f4 [16, 3, 3, 3]
00000000: ebb2 bbba 9872 80ba 22af 0a3d 72d9 cf3d
00000010: 4797 abbb 61da 0cbd 73ad 09bc 427e e8bd
00000020: c0d5 b43d 4655 6ebd a3bb b2bd 716c 1cbe
00000030: 0d84 833d 11d6 a7bd 3e4f da3b fd23 27bd
00000040: 6f2f 663d 3754 dd3a 8763 523e f4af 153e
00000050: cec0 4cbe d0fd 153d eb89 073e 6aa6 313d
00000060: 1c44 f13d 83c2 34be 67c0 e0bd 8e63 803b
00000070: 08c3 c2bd 19a0 e13d 58a6 14bd 8afd 0c3e
00000080: a382 2bbe 096f bf3d 344d dd3d 43c1 3abe
00000090: 0f8b ec3b 85dc 243e 2a3c 8bbd eb32 62bd
000000a0: 03db 46bd 390f 3bbe c2f8 26bd bd78 e73d
000000b0: b00f a3bd 0e65 f13d 8e93 09be f2f9 03be
000000c0: 9db2 3f3e 2e3c 453e 0406 c63d 7925 a13d
000000d0: e083 d2bd 0c4c 3b3d a16a 85bd 25c4 343e
000000e0: 60ed f5bd 6788 c73c 0c82 35bd bf63 003e
000000f0: e8a7 efbd cb22 53bd 8f54 363e cf79 05be
00000100: 2fa8 62be 2f0a c73d 330c 53be fab5 af3d
00000110: 6fbb d9bd adf8 61be f9e2 19be d5fc 843c
00000120: dfbc 293e 7608 9fbd 422b cbbc 65db 12be
00000130: c119 95bd 3879 7f3e 782c 403e 1178 b0bd
00000140: 9b57 69bd 534a aebb c8ba e73d 8a99 b0bd
00000150: 1168 5cbd 0ecf a13d e31c cabd 5840 dd3d
00000160: c81b 213d 1e25 d43d 709a 99bd c435 f93c
00000170: 2574 e43d 7a1e dfbc 9fdf e03d 252e 11be
00000180: 1373 c7bc d1ad debd 0830 4c3d 115a 3abe
00000190: 8103 6dbe 1537 b13d 6395 26be c12d a4be
000001a0: 5748 3bbe d5ec 9b3c 8728 cc3d 292c d8bd
000001b0: f05e 343d ed12 3bbd 40aa 25bc 7fc3 1d3e
000001c0: 9573 923d 1f88 c03d 0c67 133e b1ae 6b3c
000001d0: 421b 1fbd 9b80 24be 4277 d7bb ba00 26be
000001e0: 79e6 dabc 0f6e 37be b2e6 393e d0e9 c43d
000001f0: 308a 813d 300b 21be 952e 5fba 44bb 22be
00000200: bfb5 d7bd ae10 27be 8995 173e ce12 5f3d
00000210: c8b9 10be 7a3d 0b3e 60b9 aa3d f466 fe3c
00000220: 0649 bd3d 9f93 df3d db4b e7bd e644 50be
00000230: 714d 8dbd 8525 1a3d 085b b8bd 7806 ea3d
00000240: 9796 a5bd ad81 3bbd c5f0 0e3e b627 0e3d
00000250: ad8b 1f3e 8725 e2bd 1991 4c3e 4115 0dbe
00000260: 310d 083e bfb1 e1bd 4e3e 973d c98e e2bd
00000270: d6ed d73d 9013 e4bc 2a41 e7bd aa2a 19bd
00000280: 530d 0abe 7b94 ca3d a207 ea3d a458 4bbe
00000290: 4b32 633d 5b95 b1bc 5577 cd3c d431 263e
000002a0: 7466 e13d 3e5a 64be 7319 48be 7d81 b73d
000002b0: 1885 503e bfd2 053e 92be 343d 96ea 13be
000002c0: e869 41be 37ae eb3d 33dc 72bd 236e 1dbe
000002d0: 2842 10bd e0c1 09be c67a 40bd 3c4e 7f3c
000002e0: bf2a 4c3e 072e 023e b045 0abe 8794 263d
000002f0: 78ef 5c3d 7f7e 38be 4ad5 02be 6191 e83d
00000300: e0d5 56be 4226 bc3d 3307 033e 129a d93d
00000310: ab4f 4dbe 4079 9cbd 84f4 4d3e 2e14 a5bd
00000320: c4ec 323e 0bd5 0a3e 4ce0 fdba 62bd 40bd
00000330: 340f 25be dc81 f8bd 6ff2 7a3d 2307 98bb
00000340: d113 ab3d a53e 383e 9d7c 14be 8615 e93d
00000350: 9b9a 4b3c 08f8 d13d 0015 0dbe 1848 75bc
00000360: 9c0a 95bd 2214 af3c 1d41 27be 578d a83d
00000370: dc03 00be 4c12 3ebe 1d5a be3c da17 0f3e
00000380: ff8c 19be f69e e2bc cdf6 ad3d 7df3 33be
00000390: 978b 1fbd 85de 2f3e 0674 0dbe 0215 ea3d
000003a0: 4565 a7bc cf41 0f3e db93 33bd 225e c63d
000003b0: d2df 193d 8998 afbd fc13 053e 1ceb 853d
000003c0: ca9b 863d 6889 ebbd b7fa a43d 8c4a 0cbe
000003d0: fdf8 fdbd 24f3 27be c8c5 19bc 3ed9 42be
000003e0: 417f 39be 54c5 3d3e a9e4 a8bd 7f22 cebd
000003f0: e4b8 123e e362 b43d df8d 103e b4d3 24be
-0.001432029 -0.0009799777 0.033858426 0.10148896 -0.0052365395 -0.03438795 -0.00840317 -0.11352207
0.08829832 -0.05818679 -0.08727195 -0.15275742 0.06421671 -0.08195127 0.0066622784 -0.040805805
0.05619758 0.001688606 0.20545779 0.14617902 -0.19995424 0.036619008 0.13236205 0.043371595
0.11780569 -0.17652325 -0.10974198 0.003918118 -0.095098555 0.11016864 -0.03629145 0.13768592
-0.16749053 0.0934735 0.10805741 -0.18237786 0.0072187255 0.16099747 -0.06798585 -0.05522434
-0.04854871 -0.18267526 -0.040764578 0.11302326 -0.079619765 0.11786853 -0.13435194 -0.12888315
0.1872048 0.19261238 0.09669116 0.078684755 -0.102790594 0.04572682 -0.065144785 0.17652948
-0.12008166 0.024357034 -0.044313475 0.1253805 -0.117019475 -0.051546853 0.17805694 -0.13034748
-0.2213447 0.09718739 -0.20610122 0.08579631 -0.10631453 -0.22067519 -0.1502799 0.016233841
0.16575955 -0.07765286 -0.0248009 -0.14341505 -0.07280303 0.24948585 0.18766963 -0.08616651
-0.056968313 -0.0053189187 0.113149226 -0.08623035 -0.053810183 0.07900821 -0.09868791 0.10803288
0.039333135 0.10358642 -0.0750016 0.030421145 0.11154965 -0.027236212 0.10980152 -0.14177759
-0.024346864 -0.108729966 0.049850494 -0.1819842 -0.23145868 0.08653084 -0.16267924 -0.32066157
-0.18289314 0.019033829 0.099686675 -0.10555298 0.044035852 -0.045672346 -0.010111392 0.15406607
0.07150952 0.09400963 0.14394778 0.014384911 -0.038844354 -0.16064684 -0.006575496 -0.16211215
-0.026721226 -0.17913078 0.1815441 0.09614909 0.06325185 -0.15726924 -0.0008513716 -0.15891749
-0.10532712 -0.16314957 0.14803137 0.054461293 -0.1413337 0.1359767 0.08336139 0.031054951
0.09242444 0.10916828 -0.11293765 -0.20338783 -0.068995364 0.037633438 -0.09001738 0.11427015
-0.08085363 -0.045777965 0.13959034 0.03470584 0.15580626 -0.11042314 0.19977225 -0.13777639
0.13286282 -0.110202305 0.073849306 -0.1106239 0.105434105 -0.02784136 -0.11291726 -0.037394203
-0.13481645 0.09891602 0.11427237 -0.19858032 0.055467885 -0.021677664 0.025081316 0.16229945
0.110058695 -0.2230005 -0.19540958 0.08960245 0.20363271 0.13068675 0.044127055 -0.14444956
-0.18888056 0.11507838 -0.05929203 -0.15374045 -0.03521934 -0.13452864 -0.046992086 0.015582617
0.19938181 0.1271287 -0.13503146 0.04066899 0.053939313 -0.18017004 -0.12776676 0.11355854
-0.20980024 0.091869846 0.12795715 0.1062509 -0.20049922 -0.07640314 0.20112807 -0.080604896
0.17473131 0.13557832 -0.0019369214 -0.04705561 -0.16119081 -0.12134144 0.06126636 -0.0046395226
0.08353389 0.17992647 -0.14500661 0.113810584 0.012426998 0.10252386 -0.13777542 -0.014970802
-0.07277414 0.021371905 -0.16333432 0.082300834 -0.12501472 -0.18561667 0.023236329 0.13973942
-0.14995192 -0.02766369 0.08494339 -0.17573352 -0.038951483 0.17174728 -0.1381379 0.11429788
-0.020434031 0.13989948 -0.043842178 0.09685923 0.037566967 -0.08574016 0.12995905 0.06538984
0.06572683 -0.115008175 0.080556326 -0.13700312 -0.12401006 -0.16401345 -0.009385534 -0.19028184
-0.1811495 0.18532306 -0.082467385 -0.10065173 0.14328343 0.08807924 0.1411662 -0.16096383

layer1.0.bias f4 [16]
00000000: 9269 083d 3ee6 c9bd 72ea 27be 8d0d f03d
00000010: afe4 cf3d 1754 2c3e 54c1 da3d f273 9f3d
00000020: bd9e 97bd 7c34 efbd 91b2 5b3d d1a6 553d
00000030: ad06 8fbd 53af 1ebe d7e5 04be fb75 ebbd
0.033303805 -0.09858368 -0.16398028 0.117213346 0.1015104 0.16828953 0.10681406 0.07785787
-0.07403324 -0.116799325 0.05363709 0.05216104 -0.06983695 -0.15496568 -0.12978302 -0.11497112

layer1.1.weight f4 [16]
00000000: 4f1d 893f 9d20 673f 1fda 7e3f 7084 7f3f
00000010: 6780 853f dbec 7e3f 5f91 803f 0bae 8d3f
00000020: 1a7c 883f c222 7f3f 6819 883f 8e43 893f
00000030: bf3a 603f 7e01 823f 0646 683f 9ae5 663f
1.0712069 0.9028414 0.99551576 0.9981146 1.042981 0.9958016 1.0044364 1.1068739
1.0662873 0.9966241 1.0632753 1.0723741 0.8758964 1.0156705 0.9073185 0.90194094

layer1.1.bias f4 [16]
00000000: 393a a93d eb33 ac3c 52f0 1abe 5680 0cbe
00000010: a889 4f3d a581 3a3e c72a a33d 7a6e f03d
00000020: 688e 0cbe 241b 12be a967 49bc 73b8 66bd
00000030: bb9b e63c c014 15bd 066e dbbc f2e1 ed3d
0.08263058 0.02102085 -0.15130737 -0.13720831 0.05066839 0.18213518 0.079671435 0.11739822
-0.13726199 -0.14268166 -0.012292781 -0.05632825 0.02815043 -0.036396742 -0.026785862 0.11615361

layer1.1.running_mean f4 [16]
00000000: d2c7 4c3d fda7 17be 2ad2 6e3d c66f d23e
00000010: aa5a 213e 16a8 373e 2f46 e33d 4f4f 833d
00000020: 9db1 9ebd 7103 abbd 677c 1c3e 983a 1a3e
00000030: f68c d3be 2105 15be 4bff 25be 2ae1 bcbd
0.04999525 -0.14810176 0.058305897 0.411009 0.15757242 0.17935213 0.11097371 0.06411611
-0.07748721 -0.08350266 0.1528183 0.15061414 -0.41318482 -0.14552738 -0.16210668 -0.09222634

layer1.1.running_var f4 [16]
00000000: 5c65 733c 8a0e c93c ce7a e43d bd81 3b3e
00000010: 7fd1 ce3c 6a1f b53b 6758 613c 102a 073d
00000020: cb2f b83c 3949 573d 8353 d73c 1e96 c23c
00000030: 665a a73e ae3a 813c 60cc aa3c f07d e13c
0.014855709 0.024543066 0.11156236 0.1831121 0.02524638 0.0055274265 0.013753987 0.0329991
0.022483727 0.052560065 0.026284939 0.023753222 0.32686156 0.015775051 0.020849407 0.027525872

layer2.0.weight f4 [32, 16, 3, 3]
00000000: 52a5 3f3c 72e9 31bd 3592 843d 0236 83bd
00000010: d53f 013d 6468 a4bb 0ce4 66bc e3e6 8abd
00000020: 1c10 efbb 068f 28bd ef06 503d b969 28bc
00000030: 7ad0 cdbd 6a58 03bd b4f8 c5bd 40d8 c9bc
00000040: 3e59 c2bd 49c3 263b e2bb 913c fd84 033d
00000050: b586 2c3c 6327 2e3d 1585 623d 2e6c adbc
00000060: 1b05 43bd 8599 95bd 60d7 513c d36e bbbc
00000070: c710 18bd c97d 253d 3f08 5e3d 6045 b53d
00000080: d970 99bd ebd5 7a3d b3af b93d 1472 153d
00000090: 5190 963d 9101 02bd f471 b4bc 8e25 803c
000000a0: 0b25 0838 c486 cc3c 25ab d93d a37d 7a3d
000000b0: d6e5 03bc 65a2 273d 5789 b83d 1795 a93d
000000c0: 6988 84bc a935 583d e99d 00be 1359 2a3d
000000d0: 3893 363d 4bac 893d bfae 89bc 1b2a 0dbd
000000e0: f32d 4ebb a204 d63c e4d7 d6bb f04f bbbc
000000f0: 5b06 02bd 0604 b9bd c951 a7bc d7e3 273d
00000100: 73cf 1f3d 738a e2b9 bc71 263d 9207 983c
00000110: 5bca 5b3d 010f 1ebd 66d0 e4bc 15b2 103d
00000120: c1e5 a63d a286 dd3d 13d1 c43d 6bcd a93d
00000130: eec9 5bbd 1a5c 76bd 3b66 a8bc 740d 2a3c
00000140: 8f49 8a3c 1e5a 493d 93a6 1f3d 7627 053d
00000150: f965 b33d 00c8 083c 655e 17bd 222d 1d3d
00000160: eece 603d 9734 4c3d ae56 a43d 799a 82bc
00000170: b14e d6bd dfb3 dc3d 7651 803d 62d9 303d
00000180: 2d87 9a3d b426 1c3d 0002 5abd 73be 543d
00000190: 8a62 98bc abc5 dfbd 7702 ff3c 3012 a6bc
000001a0: eb1f d03c ed9c 3ebd 9f7d a6bc 0a3d 80bd
000001b0: e3c2 3e3a 2c33 98bb 6021 463d 7346 2f3d
000001c0: 740f 9abd b642 4d3c 2d35 863d 2951 88bd
000001d0: 90f6 b33c ebf6 e53b 7d2c dc3d ecb1 6e3c
000001e0: efeb 58bd 6f29 7abd 1792 c33d f56d a63c
000001f0: 5021 0fbc ebd5 bb3b 73f7 2d3d e21a c13c
00000200: e7c4 90bd 6102 d2bd 0233 01bc 330e e13b
00000210: 37d1 1b3d a883 63bc c5ef 253b c781 5dbd
00000220: 923d bebc 5f83 84bd 1b69 713d fd1e 8fbb
00000230: 18e0 a93c 7fc7 3fbd 8a12 aabc f917 633b
00000240: 6490 a7bb af77 24bd a3a4 58bc e360 3d3d
00000250: 5983 52bc 51a5 40bd a0e4 e9bd 3879 dabd
00000260: 8c6a 003e 5480 d7bc 3632 153d 5c15 60bd
00000270: 9833 93bb e82d 8e3d 1d1e 4bbd 541d 583d
00000280: 2f44 17bd 0b72 55bc 853f aabd 5c6b 9ebd
00000290: 02f9 dc3d b7e7 aebd d0ed 5dbd 0c47 88bc
000002a0: 48b7 963d e54b dbb9 90ce f13a c367 203d
000002b0: cf7a 823d 416e cd3d a879 933b 1941 b2bd
000002c0: 9ecd cc3d 8822 1ebd f8f5 2f39 c3c3 c5bc
000002d0: 183b 293c 0475 213d 20d8 6bbc 87a8 8abb
000002e0: f7b5 6cbd c2c1 91bd 64dd a63c 4512 203d
000002f0: a2f3 25bd ffbf 06be 3f7b 783d 7c56 9cbd
00000300: 347f cb3c 1183 62bd 6cbc 68bd f5b6 163d
00000310: dd4e 003d f4f8 2ebe 48c6 9b3b 0631 573d
00000320: 79c6 17bd 663a c43d 71a0 c93d 1368 73bd
00000330: 9971 ae3d 84c6 6c3c c72e a0bd 056f d2bc
00000340: 6b55 b2bd 2334 d93d 9592 73bb 914d c4bc
00000350: a31c c7bc d29b bebd ed3a 04bd 475b ffbc
00000360: 8797 cb3c 794c 89bc 689b 5d3d f81b b0bc
00000370: 13f6 87bd 4f3a 593d a638 11bd b28a 63b9
00000380: 8b39 62bd 9b50 86bd f577 45ba 1385 473d
00000390: 7309 47bd c6c8 4e3d cd57 003d bae1 80bc
000003a0: 2683 14bd 14d9 9f3d 887f 52bd 0222 cf3d
000003b0: 83c0 b4bc 62d0 20bd 2656 65bd f6a0 57bd
000003c0: b42a 853d 7722 21bd 1509 f5bc ae36 99bd
000003d0: b09e bebd 30f5 bc3d 7645 90bd 6202 b7bc
000003e0: 9383 89bc 1510 df3b 3951 bebd 00a4 783d
000003f0: 00df 89bd 9250 f2bc d89b b5bd 28f0 893d
0.01169713 -0.04343552 0.06473199 -0.064067855 0.031555016 -0.005017327 -0.014092457 -0.067823194
-0.0072956216 -0.041152023 0.050787862 -0.0102791125 -0.100495294 -0.03206674 -0.09666577 -0.024639249
-0.09489678 0.002544599 0.017789785 0.03210925 0.0105301635 0.04251803 0.0553027 -0.021169748
-0.04761229 -0.07304672 0.012807697 -0.022879994 -0.037125375 0.04040316 0.054207083 0.08851123
-0.07492227 0.061239164 0.09066715 0.036485747 0.07351745 -0.031739775 -0.022026993 0.015642907
3.2459426e-05 0.024966605 0.10628346 0.061154973 -0.008050403 0.040926356 0.090105705 0.0828039
-0.016178327 0.05278555 -0.12560238 0.041588854 0.044573992 0.067223154 -0.016806958 -0.034463983
-0.0031460493 0.026125256 -0.006556498 -0.022865266 -0.031744342 -0.090339705 -0.02042474 0.04098877
0.0390162 -0.00043209232 0.04063581 0.018558297 0.053659778 -0.038588528 -0.027931403 0.035326082
0.08149291 0.10816695 0.0961019 0.082911335 -0.053659372 -0.06014643 -0.02055656 0.010379184
0.016880779 0.049158208 0.038977217 0.032508336 0.08759684 0.008348465 -0.036955256 0.03837312
0.054884844 0.04985484 0.08024345 -0.015942799 -0.10464228 0.10776495 0.062655374 0.043176062
0.07545314 0.038122848 -0.053224564 0.05193944 -0.018601675 -0.10926374 0.031129105 -0.020272344
0.025405845 -0.046536375 -0.020323573 -0.06261642 0.0007276965 -0.004644772 0.048371673 0.042791795
-0.07522479 0.012528112 0.06553111 -0.06656105 0.021968156 0.0070179603 0.10750673 0.014568787
-0.05295938 -0.06107467 0.09549349 0.020316103 -0.00873597 0.005732288 0.042472314 0.023572389
-0.07068806 -0.1025436 -0.007885696 0.0068681478 0.03804132 -0.01388637 0.0025319916 -0.054078843
-0.023222718 -0.064703695 0.058938127 -0.0043677078 0.020736739 -0.046821114 -0.020760793 0.003465174
-0.0051136483 -0.0401532 -0.013222846 0.046234977 -0.0128486985 -0.047032658 -0.1142056 -0.10667652
0.12540644 -0.026306309 0.036424838 -0.05470787 -0.0044922344 0.0694235 -0.049589265 0.052762344
-0.03693026 -0.013027678 -0.08312897 -0.07735321 0.10789682 -0.0854029 -0.054181874 -0.01663544
0.07359177 -0.0004182748 0.0018448401 0.039161455 0.0637108 0.10030795 0.0045005865 -0.08703823
0.10000156 -0.03860715 0.00016780931 -0.024141198 0.01032903 0.039418235 -0.01439479 -0.004231516
-0.057790723 -0.071170345 0.02036924 0.039079923 -0.04051555 -0.13159178 0.06066441 -0.07633683
0.024840929 -0.055300776 -0.056820318 0.036795575 0.03132521 -0.17087156 0.0047538616 0.052536987
-0.037054513 0.09581451 0.09845055 -0.059425425 0.08517761 0.014451627 -0.07821422 -0.025687704
-0.087076984 0.106056474 -0.0037166227 -0.023962768 -0.024305647 -0.09307064 -0.03228276 -0.031171454
0.024852527 -0.016760098 0.054103285 -0.021497712 -0.06638732 0.053034123 -0.035454415 -0.00021700075
-0.05523066 -0.06558343 -0.00075328286 0.048710894 -0.048592996 0.05048444 0.031333733 -0.015732635
-0.036257885 0.07805076 -0.051391155 0.10113908 -0.022064453 -0.03926123 -0.05599036 -0.05264374
0.065022856 -0.03933951 -0.029911557 -0.074811324 -0.09307611 0.09226453 -0.070444986 -0.022340003
-0.016786372 0.006807337 -0.09292836 0.060703278 -0.06731987 -0.029579435 -0.088676155 0.06735259

layer2.0.bias f4 [32]
00000000: c5bd 863c a04d 813d b42b 94bd a1b2 f13c
00000010: 5e4f 833d 5ede 94bd af7f 083a 38d3 333d
00000020: 8eaa 52bd 99ff 663d 4e4b a43d 4556 003c
00000030: a966 d53c 32f8 82bd 79ef 463d b228 b83c
00000040: 362b a7bd 9e48 e5bb 58da 72bd 5977 cc3b
00000050: 771b 973d 82b7 82bd 8d18 f13c ae04 413d
00000060: 9d1d 6dbc 7925 d7bc b042 7c3d 0963 493d
00000070: 70eb d73c 5eef 8abd 9f48 6c3d 20e4 74bd
0.016447911 0.06313634 -0.07234898 0.029504122 0.064116225 -0.07268976 0.00052070146 0.043902606
-0.051432185 0.0563961 0.08022176 0.007833068 0.026049929 -0.06394996 0.048568223 0.022480343
-0.08162539 -0.006997182 -0.05929026 0.0062398133 0.073782854 -0.063826576 0.029430652 0.047123604
-0.014472392 -0.026262986 0.061587036 0.049166713 0.026357383 -0.06783937 0.057686444 -0.05978787

layer2.1.weight f4 [32]
00000000: 7629 6a3f cb53 723f c786 663f bd8c 743f
00000010: d784 883f 6c05 7d3f 66cf 843f 450a 8b3f
00000020: ce36 773f 73ba 803f a784 743f e96a 863f
00000030: 9ce1 893f 90b4 813f c19c 803f 3130 763f
00000040: dc5d 813f 23c0 673f be90 7c3f 3cd9 773f
00000050: 026e 733f d781 833f 1d26 883f dfb1 683f
00000060: 361c 7f3f 96ed 763f 26e7 853f 1400 823f
00000070: 3590 803f b9ec 853f 992b 713f e639 793f
0.91469514 0.9465911 0.90049404 0.9552725 1.066554 0.988364 1.0375793 1.0862509
0.96568 1.00569 0.9551491 1.0501376 1.0771976 1.0133228 1.0047837 0.96167284
1.0106769 0.9052755 0.9865836 0.9681585 0.95089734 1.0273999 1.0636631 0.9089641
0.9965242 0.9645628 1.0461166 1.0156274 1.0044008 1.0462867 0.9420715 0.9735397

layer2.1.bias f4 [32]
00000000: 77f2 c0bd c000 92bd 0da9 2ebe cf6a f1bd
00000010: d6fc 53be 7499 4ebe f333 18be cae8 a5bd
00000020: 3f71 bcbd 5011 0dbe b63c d3bd d666 02bd
00000030: d057 73be 9df2 4fbe ca0e 11be 0197 16be
00000040: 1530 24be 5a9d 05be 854a 9f3c 10b0 14be
00000050: 806e 35be bab1 aabd 6b75 d8bd b67e ecbd
00000060: c591 e6bd 86dc e6bd 8d37 adbd 47fa 70be
00000070: 6359 66be 11a1 2ebe 2d1d bdbd d2b3 16be
-0.094212465 -0.07129049 -0.17056675 -0.1178795 -0.20701918 -0.20175725 -0.14863567 -0.081010416
-0.092012875 -0.13776135 -0.10314314 -0.031836353 -0.23763967 -0.20307393 -0.14165798 -0.14706041
-0.16033967 -0.13048306 0.019444713 -0.14520288 -0.17717934 -0.0833468 -0.10569271 -0.11547606
-0.11258272 -0.1127253 -0.08457861 -0.23532973 -0.22495036 -0.1705363 -0.092340805 -0.14717034

layer2.1.running_mean f4 [32]
00000000: 9adb c83e d829 47bf 2591 86bf c199 2cbf
00000010: 85ea 82be 932d 33bf d532 29bf 5af9 d3be
00000020: 985a 27be 68e5 0fbf d1a0 96be a933 2cbf
00000030: 231e 32bf 483e 3ebf d994 29bf 9687 3bbf
00000040: 6e6e 3abf 4971 1cbf 4488 4bbf bb1b 94be
00000050: a21e 91bf 0082 efbe 5f0e 46bf 7bb4 b9be
00000060: 6045 31bf 57ee 25bf fbe3 d9be 016c 06bf
00000070: 9c49 3dbf ea61 2cbf 948d 94bf 111b 39bf
0.39230043 -0.77798223 -1.0513045 -0.6742211 -0.2556955 -0.69991416 -0.6609319 -0.41401178
-0.16343153 -0.5620942 -0.29419568 -0.6726633 -0.69577235 -0.74313784 -0.6624275 -0.7325376
-0.7282475 -0.6111036 -0.795048 -0.28927407 -1.1337473 -0.4677887 -0.7736568 -0.36270508
-0.6924648 -0.648168 -0.42556748 -0.5250855 -0.73940444 -0.67336905 -1.1605706 -0.72306925

layer2.1.running_var f4 [32]
00000000: b41f a93e 9ea9 9f3e 1394 dd3e d634 e83e
00000010: caa3 c53e 0cd4 c63e 9c71 aa3e bed2 9c3e
00000020: 5339 d23e 3505 b23e 2d1e 7d3e c092 e83e
00000030: 4f3a c73e c6ca 023f 8f87 113f 1050 c73e
00000040: 4c9d e93e 17ee c53e 278f a13e 06fb fa3e
00000050: fd3e 343f 4847 2e3e 53ae 0a3f 488f a93e
00000060: 7ec4 f03e f7a9 dc3e f557 c43e c021 803e
00000070: 48d1 c23e efff 873e c41f 023f 954b c13e
0.33032 0.31184095 0.43277034 0.4535281 0.38601524 0.38833654 0.33289802 0.30629534
0.4105936 0.34769598 0.24718542 0.4542446 0.38911673 0.5109066 0.5684747 0.3892827
0.4562782 0.3865821 0.3155453 0.4901964 0.7040861 0.17019379 0.5417225 0.33117127
0.47024912 0.43098423 0.38348356 0.2502575 0.38050294 0.2656245 0.5082972 0.37752977

layer3.0.weight f4 [32, 32, 3, 3]
00000000: a70d 98bd ca34 2fbd cf8e 083d c813 83bd
00000010: 3562 7cbc 9d9d 35b9 7355 01bd 7e1d 883c
00000020: 57a0 143d d513 803d 3fba 1e3c cc5a 45bd
00000030: 15b8 c43b aa09 dc3d d79b 73bb 34cd a93d
00000040: 61fc 06bc 090e c43b 3cc1 73bd 40a9 503d
00000050: b0c2 303d 3657 223d 61c2 7f3d 5e65 a53c
00000060: ab24 073d c400 413d 790f 02bd db4a cd3c
00000070: 1ab7 9dbd dc91 e8bc 3d67 93bc 46ca 073c
00000080: a2b3 553d 675e 2cbd e33a 22bc b207 383d
00000090: 35e8 2abc 79f5 773c a59f 8dbd 58e3 f33d
000000a0: f568 213d dae7 7b3c e06c d63d f263 593d
000000b0: 4fc1 1c3b 3d38 523d a2a4 40bd 918c a43c
000000c0: 2b03 503b 3112 8d3b 3663 37bd 9a29 673c
000000d0: 875a c13c 77eb 53bd 24f0 20bd fa49 01bd
000000e0: 41a8 dd3c 108d de39 1c61 b03a 5c4f 273d
000000f0: 25e3 eb3c 3fec 4a3c 246a 843d fd75 023c
00000100: 0b73 cd3b 6213 0bbc 8045 043d 4f37 903b
00000110: 2091 903c 54e1 5dbc 06c1 6cbd d58e c2bc
00000120: bd5e 2ebb d2b7 833d 1b8b ac3c a1d8 473b
00000130: dfaa 88bc d81f 2bbd f028 7d39 134e 9ebc
00000140: 3c8d b8bc 849a a43c 9d33 13bc bfeb 2a3c
00000150: 5179 5e3d e0ec b73c 7bf2 7c3d d1f4 a73d
00000160: 8ae6 3d3c fd49 783d 83a6 1dbd c2cd 2b3d
00000170: 0f8f 2c3d 10fa 103d 9290 d6bb 4bbd 303d
00000180: 8b33 1c3d 1db0 8d3d 7aa9 1bbd 557d a23d
00000190: c881 903d 62b1 9e3d 726f d8bc 3292 d2bc
000001a0: 5caa b4bc 35f5 44bd 5d2d a8bd 29d7 76bc
000001b0: f44b a23d 811e 043b 5e15 14bc fa72 1a3e
000001c0: 4e67 f43c 510c 2fbc ae93 ad3b 17da 803d
000001d0: 2e23 11bc de61 8bbd 62ee 59bd 246d c4bc
000001e0: ee3d 9cbd 5777 fabc 482b 2fbd 6455 4abd
000001f0: ae75 cebc 9295 32bd c05d 28ba bf60 51bd
00000200: 7c61 083c 640a 4b3c 2e71 8bbd 3c56 393d
00000210: d902 e33c a201 adbd d6dd 8d3c a54a 25bd
00000220: 0a85 c2bc 8f3d 123d f8f3 74bb 9801 373c
00000230: e2c5 d5bc efb8 523d 5dbe 55bd b8cc 833d
00000240: f909 efbb 78f1 b5bd d32d 2fbc a0dd e0bc
00000250: 661a 96bb d107 c43c 0ed7 9bbd f897 e5bc
00000260: 2197 11bd 00d8 55bd 9e7e babc e673 103d
00000270: 2b36 44bd ea8b d839 2fef ab3c 0375 70bc
00000280: b7c6 63bd 2e1f ddbc 84da 563d 88f2 20bc
00000290: 60b8 143d 1315 88bc de70 adbb c2da b0bd
000002a0: 58a6 e63c 5415 5bbc 261b 2abd 6175 27bd
000002b0: 4335 f3bc e0cd c1bb 4d84 dabc 11da b13b
000002c0: 8786 58bd d692 d13c 4c8b 6cbc 7d08 e1bb
000002d0: 93ec 0d3b 769f 393d 5c3c 523d e133 25bd
000002e0: 9fe9 553d df8d ea3c 168d b6bc 57a2 54bd
000002f0: 75fe a5bd 4b39 ac3d fe80 83bd 7380 ddbc
00000300: b7be 2f3d c528 96bc 0dec 293c 3e06 5cbc
00000310: 361f 1dbd 8736 cd3d 6a04 ecbc cafe 9d3b
00000320: be92 cd3a 2218 71bd c53e 383d 7df4 683d
00000330: ff71 34bd fc8b 263c 0702 883d 0299 473d
00000340: c4d8 513d e5da 48bd afc6 0a3d b185 d83c
00000350: 039b 2ebd 214d 5d3d 7ce3 513d 357d fcb8
00000360: 608d 13bd fcbe d9bc 7627 923b 2e69 513d
00000370: e30d f6bc 696d 553d b2ec f83c ef84 593c
00000380: 4442 203d 3a49 013d 6ec3 593d 4160 7f3d
00000390: 1d97 92bd 85e8 64bc 1766 1b3c a25d 813c
000003a0: fe7c d5bc 3764 cb3c f129 c5bc 0490 1fbb
000003b0: 7194 e7bc 7f54 1c3d 85f3 b33b c58d 6f3c
000003c0: 0017 723d e726 143d a8b8 e33c ef8e 663b
000003d0: 79f5 46bc 87f0 b1bd 2ec8 3dbd 1845 21bd
000003e0: bd45 cfbd 2c11 70bd 90c4 adbc 2160 45bd
000003f0: 3c75 913b 5961 5dbb d0eb 15bd 48ce 3dbd
-0.07424479 -0.042774953 0.033339318 -0.06400257 -0.015404274 -0.0001732022 -0.03157563 0.016615625
0.036285724 0.06253783 0.009687959 -0.048182294 0.0060033896 0.10744031 -0.0037171745 0.082910925
-0.008238883 0.0059831184 -0.059510455 0.05094266 0.04315442 0.039633952 0.062441234 0.020189937
0.032993954 0.04711987 -0.031753037 0.025060108 -0.077009395 -0.028389864 -0.017993564 0.008287972
0.052173264 -0.042082217 -0.009901735 0.044929214 -0.010431339 0.015134209 -0.069152154 0.11908597
0.039406735 0.015375102 0.10469985 0.05307383 0.0023918932 0.051323164 -0.047032006 0.020086559
0.003174017 0.004305147 -0.04477235 0.01410904 0.023602737 -0.05173823 -0.039291516 -0.03156469
0.027057769 0.0004244824 0.0013456675 0.040847167 0.028794834 0.012385427 0.06465557 0.007962701
0.0062698177 -0.008488508 0.032292843 0.0044011245 0.017647326 -0.013542492 -0.05780127 -0.023749748
-0.0026606761 0.06431545 0.021062424 0.003049411 -0.01668304 -0.041778415 0.0002414321 -0.019324338
-0.022528283 0.02009321 -0.0089844735 0.010432183 0.054314915 0.022451818 0.061754685 0.08200992
0.011590609 0.060617436 -0.038488876 0.041944273 0.04212862 0.03539473 -0.006547996 0.043149274
0.038135093 0.069183566 -0.038003422 0.079340614 0.07056004 0.07748677 -0.026420329 -0.025704477
-0.02205389 -0.04808541 -0.08211777 -0.015065947 0.07924643 0.0020159783 -0.009038297 0.15082923
0.029834416 -0.010684089 0.005297146 0.06291597 -0.008858485 -0.06805776 -0.053205855 -0.023977824
-0.07629 -0.030574484 -0.042765886 -0.04939784 -0.025202598 -0.043599673 -0.0006422661 -0.051117655
0.008324023 0.012392614 -0.06808697 0.045248255 0.027711319 -0.08447577 0.017317694 -0.04035439
-0.023745079 0.035703238 -0.0037376862 0.011169814 -0.026095334 0.051445898 -0.052183498 0.064355314
-0.00729489 -0.08883947 -0.010692078 -0.027449429 -0.0045807837 0.023929508 -0.07609378 -0.028026566
-0.03554452 -0.052207947 -0.022765454 0.03526678 -0.04790322 0.00041302975 0.020988075 -0.014676335
-0.05560943 -0.026992407 0.052454486 -0.009823449 0.036308646 -0.016611611 -0.005292996 -0.08635475
0.02815549 -0.013371784 -0.041529797 -0.040883426 -0.029688483 -0.005914435 -0.026674414 0.005427607
-0.05286267 0.025582712 -0.014437508 -0.006867467 0.0021655902 0.04531809 0.051327094 -0.04033268
0.05222475 0.028632103 -0.022284072 -0.05191263 -0.081051745 0.08409365 -0.06421088 -0.027038788
0.04290649 -0.018329987 0.01037122 -0.013429223 -0.038359843 0.10020166 -0.028810699 0.004821633
0.0015683991 -0.058860905 0.044981737 0.056873787 -0.044054028 0.010165211 0.06641012 0.048729904
0.051232114 -0.04903688 0.033880886 0.026430937 -0.0426283 0.054028634 0.051242337 -0.00012039618
-0.036023498 -0.026580326 0.0044602705 0.051125698 -0.030035919 0.052106295 0.030386303 0.013276323
0.039125696 0.031563975 0.053164892 0.062347654 -0.07157729 -0.013971453 0.009484789 0.015791718
-0.026060577 0.02482806 -0.02406785 -0.0024347315 -0.028269025 0.03816652 0.0054916763 0.014621203
0.059103966 0.036169913 0.027798012 0.003518041 -0.012143486 -0.08688455 -0.046333484 -0.039372534
-0.101207234 -0.058610126 -0.021211892 -0.04818738 0.0044390243 -0.0033779948 -0.03660184 -0.046339303

layer3.0.bias f4 [32]
00000000: f193 1fbd 75b9 e63c efe8 4b3d bee7 84bc
00000010: 817a 01bd 57bd e43c 7f65 d93c 09ec 7dbc
00000020: b1a8 50bd 3bcb fa3c aea7 17bc 21f1 3dbc
00000030: 2be0 dfbc 1dad f43c 33e0 563d 7989 083d
00000040: 5379 4bbd 988e d83c 7374 f5bc 93f7 833c
00000050: a2a8 a33c c9e8 5b39 ef56 543c c936 bd3c
00000060: 72a8 64bd 475f 00bd 0d89 0bbc 63bf df3c
00000070: a548 e7bc 31bb 7ebd 86d7 72bc bd2a de3b
-0.038959447 0.028164605 0.04978269 -0.016223785 -0.03161097 0.027922316 0.026537655 -0.01549817
-0.050942127 0.030614486 -0.009256287 -0.011593134 -0.027328571 0.029867703 0.052459907 0.03333423
-0.04967625 0.026435181 -0.029962754 0.016109264 0.019977871 0.00020972187 0.01296018 0.023097413
-0.055824704 -0.031340864 -0.008516562 0.02731294 -0.028232882 -0.06219024 -0.014821893 0.006779997

layer3.1.weight f4 [32]
00000000: 89ae 993f 1c27 9a3f cf73 9c3f 3247 9d3f
00000010: f044 983f bd48 943f f7df 993f a9b3 903f
00000020: b1d9 a63f 8ce4 9d3f 3896 a23f 0aca 993f
00000030: f0c5 9f3f 70e0 9e3f d40f 9b3f a05b 993f
00000040: 0c78 993f 9e8a 963f 0da4 9c3f 2324 9c3f
00000050: acbb 9a3f aa92 9f3f ad45 9c3f 3555 9d3f
00000060: dac4 9f3f 5138 a43f bafd 9a3f 75b6 9a3f
00000070: 71b1 a03f d8d1 973f cb42 a13f 5837 9b3f
1.2006389 1.2043185 1.2222842 1.2287352 1.1896038 1.1584698 1.2021474 1.1304828
1.3035184 1.2335372 1.2702093 1.2014782 1.2482281 1.2412243 1.2114205 1.1981087
1.198976 1.1761053 1.2237564 1.2198528 1.2088523 1.2466633 1.2208763 1.2291628
1.2481949 1.2829686 1.2108681 1.2086931 1.2554151 1.1860914 1.2598509 1.2126265

layer3.1.bias f4 [32]
00000000: f6ee e0bd 9122 cfbd 87b0 f4bd a68e 8bbd
00000010: f960 41bd e523 adbd 837a 82bd 0454 94bd
00000020: 3359 d8bd dbd9 85bd 0b56 0dbe 66ea c1bd
00000030: 3d65 fcbd 232f b2bd a3bc 17bb f9e7 a0bd
00000040: 9376 b3bd d14f 48bd 1b5c 10be 7999 a0bd
00000050: 986a f2bd 8db7 cfbd 8655 00be d78c a7bd
00000060: 1988 ebbd 5850 c4bd 55fc 9cbd 834e 5cbd
00000070: 5744 d9bd 4a26 b0bd a7dc 1abe 8a8e a4bd
-0.10983078 -0.10114015 -0.119477324 -0.068143174 -0.04721162 -0.08454112 -0.063710235 -0.07242587
-0.105638884 -0.06535693 -0.13802354 -0.09468536 -0.12323997 -0.08700397 -0.0023153208 -0.07856745
-0.087628506 -0.048904244 -0.14097635 -0.078417726 -0.118367374 -0.101424314 -0.12532625 -0.0818116
-0.11500568 -0.09585637 -0.07665316 -0.053785812 -0.10608738 -0.08601053 -0.15123235 -0.08035

layer3.1.running_mean f4 [32]
00000000: 047e 413d e3d0 9a3c 373b 9a3e 543e de3e
00000010: 3f00 3b3d 86bf 3c3f 1784 103d a7f2 213f
00000020: f55a e9bc 5c36 3a3e 4eb2 6bbe ccf9 8c3e
00000030: fb1f 5a3e ea6e 803d 5706 39be 69e4 143e
00000040: f301 8c3d 0864 6a3e f6b5 873e 75d3 f43c
00000050: c03a 74bd 5a71 6f3e 4f04 4d3d 19b6 84bd
00000060: 846d 883e bdcc 54bc b272 ae3e abc5 fd3e
00000070: d072 fa3d 2e3e 283f ab23 3bbe 633d 063e
0.04723932 0.018898433 0.30123302 0.43406928 0.04565453 0.7372974 0.03528222 0.63260883
-0.028485755 0.18184799 -0.23017237 0.2753433 0.21301262 0.06271155 -0.18068825 0.14540257
0.06836309 0.22889721 0.26506013 0.029885987 -0.05962634 0.23383084 0.050052937 -0.06480045
0.26646054 -0.012988267 0.3407188 0.4956487 0.1222893 0.6571988 -0.18275325 0.13109355

layer3.1.running_var f4 [32]
00000000: 04a2 193e 368d 193e e65b 043e 5083 133e
00000010: 71e0 0f3e 157b 263e 4746 fa3d 9b58 1b3e
00000020: a973 1c3e a2af 273e 2091 fd3d 4b22 443e
00000030: 1d3e ec3d 4469 133e 5265 203e 2fc3 1e3e
00000040: b536 1d3e d7c4 fd3d b237 173e 15bc 163e
00000050: 31a3 283e fd1d 0a3e 324d ef3d cd97 f33d
00000060: 3a09 ec3d bd60 f43d 525d 203e b5d8 273e
00000070: 7c7c f83d e273 213e 7d34 c73d b99f 153e
0.1500321 0.14995274 0.12925681 0.1440556 0.14050461 0.1625789 0.122204356 0.15170519
0.15278496 0.16375592 0.12381196 0.19153707 0.11535285 0.14395624 0.1566365 0.15504144
0.153529 0.1239106 0.1476734 0.14720185 0.16468503 0.13488002 0.11684646 0.11894188
0.11525197 0.11932514 0.15660599 0.16391261 0.121331185 0.15766862 0.09726808 0.1461171

fc1.weight f4 [32, 512]
00000000: 8781 6dbd da5d 9fbc d032 31bd 3f1a b1bc
00000010: 7a39 23bc 229a 82bd 29b7 88bd 1a8e 00bd
00000020: 2444 48bd 0236 9e3c 2542 06bb 8730 893b
00000030: 3dff 47bc 0b9b 343d 4d16 1f3d aafd d3bc
00000040: 3b71 51bc 5a10 643c 86ed 9b3c 6adf b13c
00000050: 6384 393d b2dd 863c 3b7e 023e bf2c 7ebc
00000060: 22a7 493c e3f6 22bd f4f3 173d 0797 7e3c
00000070: 5fec 813d 6ee3 073d ae33 ea3b 42f7 aabc
00000080: c9f7 5f3d ea23 153d 9f67 b13c fe11 f63c
00000090: d35b 0a3d d0e2 023d 9fc4 16bc e84f 33bd
000000a0: 2e97 1d3d 30fa 7dbb c555 0c3d f81a 2fbc
000000b0: a1d8 d73c ae0d 983d e9fe 9fbc bce1 b5bc
000000c0: 6a69 103d 0c11 073d 0faf ee3c b04e cb3c
000000d0: 2b07 a13d 7beb 04bc cafd 1abd 393e 183c
000000e0: 4254 ae3d 5fb9 12be 6c7c 16bd acb0 45bd
000000f0: 9ff3 873c ceb3 9bbc c291 7b3b 2c3c b2bc
00000100: 380e 16bd c6f4 f03c f8d2 aebc c881 313a
00000110: a127 c53c 0ed4 413c 0cdf 24bd 9706 4d3d
00000120: f4d4 ff3c 5ba7 66bd 6fcc 88bd ced6 74bb
00000130: 3601 d7bc f0ce b9b9 670c cf3c fffd 833d
00000140: 5725 953a 64f2 f13c 18e0 913c b68e 4bbc
00000150: 2f33 413d d96c babc 9eec 2a3b 34db f2bc
00000160: 98ff d33d 366b 47bd 3a3e 933c cd38 48bc
00000170: 430c 8fbb 2d46 5bbc 20f3 b33b 67fc bfbc
00000180: c826 42bc 300b a73c ec55 dbba 6abc 7c3c
00000190: 8a07 bdbc 3d31 5abc df9f b6bd 60c8 5ebc
000001a0: 1435 9fbc d24f 9cbd 28e8 613d 94ca 183d
000001b0: fef9 083c dcab d8bc 0740 40bc b384 ffbc
000001c0: d9f1 65bd 761e 49bb 8572 b03c c574 fbbc
000001d0: 9825 e9bc db02 c1bd 53a1 d9bc 7edf ea3c
000001e0: 1828 95bd 6849 afbd 0d9d 3abd f8ed ffbc
000001f0: b9d9 5bbd d792 563c b830 d7bc b8d2 8ebc
00000200: 09c6 0e3d 5114 473d f34c 3a3d 4886 12bd
00000210: a348 b23c 678c 0abc 290f 62bd 5e12 113c
00000220: 33b6 943d 31ca 1b3d 360d ca3d dde1 0abd
00000230: 97ab fbbb fbf9 cd3d 87c0 263c 10b1 86bc
00000240: 6635 8b3d 4f02 2b3d d98e c03d fff7 973d
00000250: 7fb1 0b3c 031c 253c b5f6 f63c 1114 4e3c
00000260: 8ded ba3c 26c2 f83b 53a8 00bd d023 b9bc
00000270: c8c4 98bb accc 0cbc 89b5 33bd 1c6d c5bc
00000280: 289f 953c 9d45 45bc ed5d f23b 52a6 ec3c
00000290: 0722 443c 453a e3bd c70f 5b3d d6dc 783d
000002a0: 8f0d b03c 8475 903d f166 203d b906 933b
000002b0: 7041 4b3d 749c 01bd 91f2 603d dee1 1cbd
000002c0: 430f 323d 2c27 0d3a 5ae8 ddbc f9b8 af3c
000002d0: 259d 6c3d c9ed be3c 88de e93b ac84 3cbb
000002e0: dca8 593d 9961 11bd b929 73bc e272 5bbd
000002f0: ce86 843d 8d6f 7c3d 3cf7 55bd 7bd9 123d
00000300: f222 17bc 6e7f c7bc cf53 383d 6f1c 343b
00000310: 9175 293b c76f 043d 01ad 9b3c 6d92 97bb
00000320: 672f 713d c581 e23c 7b6c 81bc 5881 f1bc
00000330: 9c47 ca3b 49e4 dc3c 6956 2b3b ce50 4a3b
00000340: 5bd7 033d adb6 213c b59a 60bc e769 48ba
00000350: a261 14bd c2dd 743d 5323 363d c813 cc3c
00000360: aa65 8cbd 77a0 303d 6105 acbb 0d1e 9dbc
00000370: 78a5 c63c 0e9f d23d 8f78 103d 2fad 1639
00000380: 84bc 5d3c c584 9dbc d8fc 073d 5b68 d03c
00000390: 49dd c8bc 1c4f 2c3c 0126 e03c 71e9 61bb
000003a0: 6333 12bd fef5 9e3d 41b3 b4bc b988 313d
000003b0: 66d5 7b3d 2d18 05bd 7ec9 fcbc d491 7fbc
000003c0: 9d58 1e3c 9c79 873d 2ee6 a83c 1d4c 713d
000003d0: 65bd d63b 6ec0 44bd 0a99 8f3d f6ec 5bbb
000003e0: d1c1 943d f5fa 713d fcfa 3b3a 20fa 26bd
000003f0: a086 613d c700 063d 9274 12bd 7e50 2b3d
-0.057984855 -0.019453932 -0.04326135 -0.02161896 -0.009962434 -0.06377055 -0.0667556 -0.03138552
-0.04889311 0.019312862 -0.0020486203 0.004186693 -0.01220685 0.044093173 0.038839627 -0.025877792
-0.012783344 0.013919914 0.019034158 0.021712977 0.04529227 0.016463134 0.12743466 -0.015513598
0.012307914 -0.03978623 0.037097886 0.015538937 0.06343912 0.03317588 0.007147274 -0.020869855
0.054679666 0.036411203 0.021655856 0.030037876 0.033778977 0.031954587 -0.009202152 -0.043777376
0.038474254 -0.003875386 0.034261484 -0.010687582 0.026348414 0.07424484 -0.01953073 -0.022202365
0.03525678 0.03297524 0.029136209 0.024817795 0.07862695 -0.008112784 -0.03783969 0.009292179
0.08512165 -0.14328526 -0.03673975 -0.04826419 0.01659566 -0.019006636 0.003838644 -0.021757208
-0.036634654 0.029413592 -0.021340832 0.0006771353 0.024066748 0.011830343 -0.040251777 0.050055113
0.031229474 -0.056311946 -0.066796176 -0.003735948 -0.026245695 -0.0003544013 0.025274469 0.0644493
0.0011378926 0.029534526 0.017807052 -0.012424162 0.047167953 -0.02275698 0.0026080976 -0.02964554
0.10351485 -0.04868623 0.017974008 -0.012220574 -0.0043654754 -0.01338343 0.0054916292 -0.023435785
-0.0118500665 0.020391077 -0.0016733981 0.015425781 -0.023074884 -0.013317403 -0.08917212 -0.013597578
-0.01943449 -0.07632412 0.055153042 0.03730257 0.008360384 -0.026449136 -0.011734015 -0.031191206
-0.056138847 -0.0030688322 0.021538982 -0.030695328 -0.028460309 -0.09424373 -0.026566183 0.028671023
-0.07283038 -0.08558923 -0.04555993 -0.031241402 -0.053674433 0.013096533 -0.026268348 -0.017434463
0.03485683 0.04860336 0.04548354 -0.03577259 0.021763152 -0.008456326 -0.05519024 0.008854477
0.07261314 0.03803462 0.09865801 -0.033906806 -0.007680367 0.100574456 0.010177738 -0.016441852
0.06797294 0.04175025 0.09402246 0.074203484 0.008526205 0.010077479 0.030146936 0.012578026
0.022818351 0.0075915037 -0.031410526 -0.022600085 -0.00466213 -0.008593719 -0.043874297 -0.024099879
0.018264368 -0.012040523 0.0073964507 0.028887901 0.011971003 -0.110950984 0.053481843 0.06075748
0.02149084 0.07053664 0.039160673 0.0044868854 0.049622953 -0.031643346 0.05491883 -0.03830134
0.043471586 0.000538456 -0.027088333 0.021450507 0.057767052 0.023306744 0.0071371235 -0.0028765602
0.053139552 -0.035493467 -0.01484149 -0.053576358 0.064710245 0.06162982 -0.052237734 0.035851937
-0.00922464 -0.024352755 0.0450018 0.0027482768 0.0025857429 0.03233316 0.019003393 -0.0046256096
0.058883097 0.02764977 -0.015798798 -0.029480621 0.0061730873 0.026964324 0.0026144034 0.0030870917
0.0321878 0.009870213 -0.01370876 -0.0007645175 -0.036225922 0.059781797 0.04446728 0.024911776
-0.068553284 0.04312178 -0.0052496647 -0.019179368 0.024248824 0.102842435 0.035271224 0.0001436963
0.013533715 -0.019228349 0.033200115 0.025440386 -0.02451958 0.010516908 0.027361872 -0.0034471417
-0.035693537 0.07761763 -0.022058131 0.04334328 0.06148281 -0.03249376 -0.030857798 -0.015598733
0.009664682 0.06614992 0.02061757 0.058910478 0.0065533393 -0.048035078 0.07011612 -0.0033557988
0.0726353 0.059077222 0.00071708835 -0.04076588 0.05506003 0.032715585 -0.0357557 0.04182481

fc1.bias f4 [32]
00000000: 8cd3 c9ba 6614 4e3c f315 01bd 29b0 433b
00000010: 9faf 663c 5259 07bc 1c7e d03c 33af 6a3c
00000020: 1b34 82bc a2c3 b6bc 0ed2 4abd 741a e93c
00000030: 9ed3 df3c da74 64bc 1355 85b5 99d4 57bc
00000040: 59c1 f63c 686b 693c 8be8 d23c bb8d f93c
00000050: 8a95 e73c 66e6 a23c 6c9e 1cbd 13d3 a0bc
00000060: 961f bfbc 095f 26bd d71f 0e3c 41f0 a33c
00000070: 75b2 89bc ceed 1abd c412 bebc 16c8 4abd
-0.0015398129 0.012578106 -0.031515073 0.0029859638 0.014079957 -0.008261042 0.025450759 0.014323997
-0.015893986 -0.022310082 -0.04951673 0.028454997 0.027322587 -0.013943875 -9.934032e-07 -0.013173246
0.030121492 0.014246799 0.02574565 0.03046309 0.028269548 0.019885253 -0.03823702 -0.019631898
-0.023330491 -0.040617976 0.008674583 0.020012023 -0.016808728 -0.037824444 -0.023202308 -0.049507223

fc2.weight f4 [13, 32]
00000000: f657 4f3e be26 76be 16cb 84bc 470e 52be
00000010: a47e 9abd 7a6c 89bd b273 88be 93a8 643e
00000020: 5672 53bd 9bce 8c3d f891 03be 37f0 65bd
00000030: 4221 e1bd 9e64 f13d f64b 47be 85f4 fd3d
00000040: ada3 9cbc 5b3a 963a 5858 403d cf59 85bd
00000050: 41bb cbbd 3ac7 553e 4449 fcbd 9f55 2a3e
00000060: 08cc b2bd 990d 37be d07d 483e f686 15bd
00000070: c8bc 1dbe 2e19 cfbd 754a 213e 3f0c 42be
00000080: 2a9f 5fbe f868 a0bd 7118 8c3d f27f f53d
00000090: e352 8f3e 58fa 8bbd c6a6 0a3e f442 36be
000000a0: 0930 76bd 4d2a afbd 0a2f 8b3d 702a 89bd
000000b0: 5ee3 03be 7889 a1be 0364 903e 1b1a 72be
000000c0: bc92 9bbe 441c 143e 04c0 5abe bb80 79be
000000d0: 167f 53be edba 39be a1f7 ce3c 167e e3bd
000000e0: 93a3 0abe e80f 7f3e cc1e 4b3e 16b8 023e
000000f0: 6eb3 51be afae 55bd dd9f f73d c63c 1a3e
00000100: e5a9 09be e302 323e 45e2 e43d 976d 8d3e
00000110: f522 8b3c 900c 80bc fe3e 863e d377 e23d
00000120: e1fb 94be bdba 16be 18fe acbd 1197 2ebd
00000130: a32b 303e 61d1 edbc 04a7 5f3d 0ff2 92be
00000140: 31ca 733e d7ea 343e ad05 4abe d1b4 12bc
00000150: 8ba2 15bd c823 243d 4aac 813d d0ff 9d3e
00000160: 8594 6fbd ea85 783e 9a3f 3b3b 4447 343e
00000170: 100e bf3d fb9b 943e 317c 3abd 04a3 6c3e
00000180: a12a 7abd 5575 b73d 35d0 d43d 68c6 e13d
00000190: 46c9 a1bd d74e 1f3e 3d9e 463e c2c9 533e
000001a0: fbd1 24be a205 43be 680c 753e 3eff 973e
000001b0: 1daa 01be 5145 3d3e 6eb5 143e 9ff2 9a3d
000001c0: 978d 883d 6512 a5be 906c 24be b0f8 ad3d
000001d0: 300e d8bd 3ae2 8c3e 65e9 58be 5316 adbe
000001e0: 6721 683e 8b46 403e bebe 57bd 5a1d 32be
000001f0: 7e47 2dbe 0c19 4b3e 4f30 71be e450 f7bd
00000200: 1619 0a3d 2d0a 65be 0beb 413e dba9 3bbe
00000210: c12a 1c3e 87c1 7c3d 1ba7 87be b7d0 6d3e
00000220: e89a 653e eee6 7ebe 844c 68be d0e4 2b3e
00000230: 5632 32be a0a1 70be c2bc febd 3fcc 353d
00000240: 6ccf e53d 646e 533e 8ead 81be a878 413e
00000250: 3ee7 153e cee2 163e 92c3 debd 26f7 ebbd
00000260: ae0e 2b3e f5b4 8e3e 37b6 cebc 90d8 fe3d
00000270: a589 763e a417 6dbe 6b6c febd 1a6b 423e
00000280: 7971 babd c2a5 6abe 7bfa 623e 2a27 adbd
00000290: f04d 3c3e 2134 963e d150 ad3d 2221 6fbe
000002a0: ab67 a0bd b920 95bc aa83 8a3e a118 783e
000002b0: 2e94 84be 9a68 9abd 81a9 8bbe 0d9d 50be
000002c0: 8a04 3f3e 5d6c e1bd 1ff6 8e3d aa51 c8bd
000002d0: f911 2b3d 4df6 44be 01f9 2f3e 1de0 943e
000002e0: 9472 973e ec13 8cbd d19f 0f3e 0efa d7bc
000002f0: 1cea d9bc 7fae 46be fb90 8c3e 21b1 b83d
00000300: 8ab2 89be 8bb0 fdbc 69c8 c53c e6e8 0cbe
00000310: 1c11 58bc be75 713d e756 fa3d 438a 1f3d
00000320: 997b 033e a541 853e cb9a 07be 9320 e43c
00000330: ab7e 173e 1d4d 173e 25cb 51be 32bf fd3d
00000340: 8b4f 2abd f3fd a03c 273d cd3d 671f 443e
00000350: cfa1 1dbe 96e5 7ebd c63e 1d3e 5d97 093d
00000360: 2861 1dbc 8cd1 bdbd 0e83 6d3e c552 4abe
00000370: 8f4d fbbb e3ac a43d 308d 2fbe 7b7b 4d3e
00000380: 3544 833e cda0 843d 2239 123e 4003 d7bd
00000390: d369 3fbe 7430 b3bd eb94 753d 9c7f 473d
000003a0: 2059 9a3d 0ad2 103e 0280 83be 7d53 983e
000003b0: 66eb 80be d502 12be 63bd 223e 1ece 333e
000003c0: b7f5 f63b e89b 593d fdff b33d 3568 f93d
000003d0: 18f6 823c 6c98 483e 83dc 873e 6d6f ae3d
000003e0: 5340 4fbd 2fe7 64be fc4c 61bd e46a 933e
000003f0: a05a 27bd 1eb4 eb3d 1c6d 123e 0d6a 2dbe
0.20248398 -0.24038216 -0.01621012 -0.20513259 -0.07543686 -0.067101434 -0.2665077 0.22329931
-0.05162271 0.06875344 -0.12848651 -0.05613729 -0.109926715 0.11786769 -0.1946257 0.12400154
-0.019121015 0.0011461483 0.04695925 -0.0651127 -0.09947825 0.2087678 -0.12318662 0.16634224
-0.08730322 -0.17876281 0.19579244 -0.036505662 -0.15404046 -0.101122245 0.1575106 -0.18949984
-0.2183806 -0.07832521 0.06840599 0.11987294 0.27992925 -0.06834859 0.13540182 -0.17798978
-0.060104404 -0.0855299 0.06796081 -0.066975474 -0.12879702 -0.31550193 0.28201303 -0.23642771
-0.30385387 0.14463907 -0.2136231 -0.24365513 -0.20653948 -0.18137713 0.025264563 -0.11108033
-0.13538961 0.24908412 0.19835967 0.12765536 -0.20478603 -0.052168544 0.120910384 0.15062246
-0.13443716 0.17383914 0.1117597 0.27622673 0.016984442 -0.01563099 0.26219934 0.11058011
-0.29098418 -0.14719673 -0.08446902 -0.042624537 0.17204146 -0.029030504 0.054602638 -0.287003
0.23807599 0.1766771 -0.19728728 -0.008954243 -0.036531966 0.040073186 0.0633169 0.30859232
-0.05849125 0.24269834 0.0028571845 0.1760531 0.09328854 0.29025254 -0.045528594 0.2310906
-0.06107581 0.08957926 0.10391275 0.11024171 -0.07899718 0.15557419 0.193963 0.20682433
-0.16095726 -0.19045117 0.23930514 0.29686922 -0.1266255 0.18483473 0.14522335 0.075658076
0.06667631 -0.32240596 -0.16057038 0.08494699 -0.10549581 0.27516347 -0.21182783 -0.33806095
0.22668992 0.1877691 -0.05267214 -0.17394009 -0.16921803 0.19833773 -0.23553585 -0.120759755
0.03371533 -0.22367163 0.18937318 -0.18326513 0.15250684 0.061708 -0.2649468 0.2322415
0.22422373 -0.2489278 -0.22685438 0.16786504 -0.17402014 -0.23499155 -0.124383464 0.044384237
0.11221203 0.2064758 -0.25327724 0.18893683 0.14638993 0.14734957 -0.10877146 -0.11521749
0.16704819 0.27872434 -0.025233371 0.1244365 0.24075945 -0.2315355 -0.12423023 0.18986169
-0.091036744 -0.22914794 0.22165863 -0.084547356 0.18389106 0.29336646 0.0846268 -0.23352483
-0.07832273 -0.01820408 0.27053577 0.24228145 -0.25894302 -0.075394824 -0.2727776 -0.2037241
0.18654075 -0.11006997 0.069805376 -0.09781201 0.041765187 -0.19234581 0.17184831 0.29077235
0.29579604 -0.06839737 0.14025809 -0.026364353 -0.02660089 -0.19402502 0.2745436 0.0901816
-0.26894027 -0.030967971 0.024143415 -0.13760719 -0.013187673 0.05895018 0.122236066 0.038950216
0.12840118 0.26026645 -0.13242643 0.027847564 0.14794414 0.1477551 -0.2048765 0.12389983
-0.041579764 0.019652342 0.100214295 0.19152604 -0.15393756 -0.06223067 0.15355977 0.033591617
-0.009605683 -0.092684835 0.23194525 -0.19758137 -0.007669158 0.08040788 -0.17143703 0.20066635
0.25637975 0.06475983 0.14279607 -0.10498667 -0.18692712 -0.08749476 0.059956472 0.048705682
0.075365305 0.14142624 -0.256836 0.29751197 -0.25179595 -0.14258893 0.15892558 0.17559096
0.0075366157 0.0531272 0.0878906 0.12178079 0.015986487 0.19589394 0.26535425 0.085173465
-0.050598454 -0.22353815 -0.05500506 0.2879249 -0.04085791 0.11508964 0.14299434 -0.16934986

fc2.bias f4 [13]
00000000: 5bd2 b6bd 3652 edbc 06f8 dfbc 100a 443c
00000010: be03 d1bd dd6a 2e3c 3b71 d5bb 9e12 1d3d
00000020: 6f16 63bc b804 ee3d 9184 bb3d 8f3a f7bd
00000030: 6ae4 003e
-0.08926841 -0.028969865 -0.027339946 0.01196529 -0.10205792 0.010645595 -0.0065137423 0.038347833
-0.013860329 0.11621994 0.091561444 -0.12071716 0.12587133
