conv_net_model.ckpt (torch, 133338 bytes, 22 tensors)

layer1.0.weight f4 [16, 3, 3, 3]
0	0xbd52aa7a	-0.05143211
1	0xbc6505b1	-0.013978408
2	0x3def3d9b	0.11681672
3	0x3dcc6f9a	0.09982224
4	0x3e14bd4c	0.14525336
5	0x3dbcb943	0.09215023
6	0x3e24e29e	0.16102073
7	0x3e090b01	0.13383104
8	0x3d9ca9fb	0.07649609
9	0x3d84eb11	0.06490148
10	0x3dd2e955	0.10298411
11	0xbe4d3325	-0.20039041
12	0x3d32eb5b	0.043681484
13	0x3cc11ea8	0.023574188
14	0xbd6f17d1	-0.058372322
15	0xbe4857b4	-0.19564706
16	0xbe551c7e	-0.2081165
17	0xbe4228e1	-0.18960907
18	0x3dbcfd54	0.09228006
19	0xbd73a301	-0.059481625
20	0xbe397110	-0.18109536
21	0xbd43a652	-0.047766037
22	0xbdfb40cf	-0.12268221
23	0xbd97d4f3	-0.07413664
24	0x3e3471c2	0.1762152
25	0xbddb3c53	-0.10704865
26	0xbd905f9c	-0.07049486
27	0x3d11caca	0.035593785
28	0xbda18212	-0.07886137
29	0x3d7dee1c	0.061994657
30	0xbe58960a	-0.21150985
31	0xbe0d518e	-0.13800642
32	0x3da2bc40	0.07946062
33	0xbbfd78d2	-0.00773535
34	0xbdeb7b31	-0.11498106
35	0x3deda189	0.11603076
36	0x3d48a720	0.048987508
37	0xbdbabe8e	-0.09118377
38	0xbbdf4e37	-0.006814744
39	0xbdd478d4	-0.10374609
40	0x3d4a832f	0.049441513
41	0x3d0322f8	0.03201577
42	0x3df86951	0.121294625
43	0xbd73e759	-0.059546802
44	0xbe1b046f	-0.1513841
45	0x3d69f42f	0.057117637
46	0x3e3614df	0.17781399
47	0x3d8de841	0.069290645
48	0x3e0216e9	0.12704052
49	0x3e40f4ae	0.18843338
50	0xbd24952a	-0.040181316
51	0x3cf60702	0.030032638
52	0x3e0f49c8	0.13992989
53	0x3de494b7	0.111611776
54	0x3d5c4b3e	0.053782694
55	0x3e085371	0.1331308
56	0xbe0579c4	-0.13034731
57	0xbc07e902	-0.0082952995
58	0x3d2f007e	0.04272508
59	0xbe0d56e3	-0.13802676
60	0x3dc47db6	0.0959429
61	0x3d42c438	0.04755041
62	0xbe15ab85	-0.14616211
63	0x3e0cd06c	0.13751382
64	0x3d8d6e28	0.06905776
65	0xbcbebd39	-0.023283588
66	0xbd41bbd6	-0.047298275
67	0x3e4747d2	0.19460991
68	0xbe048ef3	-0.12945156
69	0xbde90d7c	-0.11379525
70	0x3e15692c	0.14590901
71	0xbe4880e2	-0.19580415
72	0x3d8d57ec	0.069015354
73	0xbd909230	-0.07059133
74	0xbe03b97e	-0.12863728
75	0xbce06103	-0.027390009
76	0x3e2b1de4	0.16710621
77	0xbce3ecb4	-0.02782283
78	0x3dbf216c	0.093325466
79	0xbd76ce54	-0.060255364
80	0xbd5e7d04	-0.054318443
81	0x3d331ceb	0.04372875
82	0xbd848bd7	-0.06471985
83	0x3e31f62b	0.17379062
84	0xbdad9a01	-0.084766395
85	0x3e01d014	0.12677032
86	0x3d519f20	0.051177144
87	0x3dc32df7	0.095302515
88	0xbe3a1867	-0.18173371
89	0xbd97ac24	-0.0740588
90	0x3be59d53	0.00700728
91	0xbc8cc799	-0.01718502
92	0xbd34174b	-0.043967526
93	0x3e2fa168	0.17151415
94	0x3df2f095	0.11862294
95	0x3e387570	0.18013549
96	0xbd398501	-0.045292858
97	0xbd10b1bd	-0.035325754
98	0x3dcda22c	0.100406975
99	0xbd8f89ed	-0.07008729
100	0xbe1ee088	-0.1551534
101	0x3c9e6779	0.019336449
102	0xbdf0e169	-0.117617436
103	0xbe8b67ac	-0.27227533
104	0xbdc6f372	-0.09714402
105	0xbd157a58	-0.03649363
106	0xbe9fbacf	-0.3119721
107	0xbdf52711	-0.11970342
108	0xbe08920a	-0.1333696
109	0xbd35f1cc	-0.04442005
110	0xbd38d39a	-0.045123674
111	0xbe5d01a2	-0.21582654
112	0x3d93eb5a	0.07222624
113	0xbe3834fa	-0.17988959
114	0xbd82293b	-0.0635552
115	0xbe42cd6b	-0.19023673
116	0xbe65c33e	-0.2243776
117	0x3e3aa74d	0.18227883
118	0xbc469f6c	-0.01212297
119	0x3d9936b0	0.07481134
120	0x3dd20ead	0.102567054
121	0x3e38952d	0.18025656
122	0xbd144c35	-0.03620549
123	0xbe27a7da	-0.16372624
124	0xbe152611	-0.14565302
125	0xbda70f52	-0.08157219
126	0x3c62917f	0.013828634
127	0xbd53e3e0	-0.05173099
128	0x3e2616fc	0.16219705
129	0x3e0333ce	0.1281273
130	0x3e3d50e6	0.18487892
131	0xbe09ccd0	-0.13457036
132	0x3d049b8f	0.032374915
133	0x3e123c33	0.14280777
134	0xba5d9387	-0.0008452464
135	0xbe642fb8	-0.22283828
136	0xbd30af87	-0.043136146
137	0x3df44f37	0.119291715
138	0xbc3e8eb3	-0.011630702
139	0x3d7ebc72	0.062191434
140	0x3e35efd2	0.17767265
141	0x3dda9187	0.106722884
142	0x3d836e80	0.064175606
143	0xbd65fa3d	-0.05614685
144	0x3e1a1ce6	0.15050086
145	0x3e0a7523	0.13521247
146	0xbe09f6ec	-0.134731
147	0xbe5a805c	-0.21338028
148	0x3d01db45	0.031703252
149	0xbbfb928f	-0.0076773833
150	0xbe50cda8	-0.20390952
151	0xbe239f17	-0.15978657
152	0x3d75978a	0.059958972
153	0xbe159bd3	-0.14610223
154	0x3b8d677e	0.0043153157
155	0x3df58fc4	0.11990312
156	0xbd51cfe6	-0.051223658
157	0x3c2fff75	0.010742058
158	0x3d6ed114	0.05830486
159	0xbd9de9d7	-0.07710617
160	0x3d7cb482	0.061695583
161	0x3d873ab8	0.066029966
162	0xbd8f7a54	-0.07005754
163	0xbc8f1597	-0.01746635
164	0xbe0a0c33	-0.13481216
165	0x3c833d28	0.016020373
166	0x3e09c085	0.13452347
167	0xbd6e0b5b	-0.0581163
168	0xbce49914	-0.027905025
169	0xbe068458	-0.13136423
170	0x3e53fa43	0.20700936
171	0x3c8a8ea2	0.016913716
172	0xbdaf4679	-0.085583635
173	0x3e4035e2	0.18770555
174	0xbe32e767	-0.17471085
175	0xbe31a80b	-0.1734926
176	0x3c99bbf5	0.018766383
177	0xbc4081f0	-0.0117497295
178	0xbe081490	-0.13289094
179	0xbe39ee27	-0.18157254
180	0x3e258d47	0.16167174
181	0xbd696b3b	-0.05698703
182	0x3e3c19db	0.18369238
183	0x3d9f7fd5	0.07788054
184	0x3dc23db3	0.094844244
185	0xbcc5ad56	-0.024130505
186	0x3d6f4b28	0.058421284
187	0xbca47614	-0.020075835
188	0x3d284acb	0.041086953
189	0x3d747d31	0.059689704
190	0xbd5b149d	-0.053486455
191	0xbdc252f0	-0.09488475
192	0x3d322013	0.04348762
193	0xbdd5bd5e	-0.104365095
194	0x3b73c275	0.0037194763
195	0x3d8db0f1	0.069185145
196	0x3ce2ced9	0.027686523
197	0x3e2a8efa	0.16656104
198	0x3e03ade5	0.12859304
199	0xbdc63a20	-0.09679055
200	0x3ca80a01	0.020512583
201	0xbc3b67f5	-0.0114383595
202	0x3d07cce5	0.033154387
203	0xb9affd6f	-0.00033567424
204	0xbe01d296	-0.12677988
205	0x3dd25551	0.10270179
206	0x3c88b2c7	0.01668681
207	0xbe19b86a	-0.15011755
208	0x3c2dcfc1	0.010608614
209	0xbe23669b	-0.1595711
210	0xbc05df67	-0.008170939
211	0xbe29622a	-0.16541353
212	0x3da82f21	0.08212114
213	0x3e1961c7	0.14978705
214	0x3dd56fe2	0.104217306
215	0xbd6c3565	-0.05766811
216	0x3dca7227	0.09885054
217	0xbce7d591	-0.028300079
218	0xbe2aec38	-0.16691673
219	0x3df82474	0.12116328
220	0x3c097643	0.008390012
221	0xbe4aaea9	-0.1979319
222	0x3e11fe92	0.14257267
223	0xbe6561a0	-0.22400522
224	0x3e0d84ce	0.13820192
225	0x3dc750bd	0.097321965
226	0x3e1ae338	0.1512574
227	0xbd75943b	-0.059955817
228	0xbda70ef4	-0.08157149
229	0xbdfa906f	-0.1223458
230	0xbc153e7d	-0.009109137
231	0x3e00c178	0.12573802
232	0x3d60ccca	0.054882802
233	0x3d2e8ec1	0.04261661
234	0xbe2a75d1	-0.16646506
235	0x3e35961d	0.17733045
236	0xbd3b0e06	-0.04566767
237	0x3de098ba	0.1096663
238	0xbd58ab00	-0.052897453
239	0xbda3aa94	-0.079915196
240	0x3cfc460f	0.030795125
241	0xbe584a27	-0.21122037
242	0x3dccd8ed	0.10002313
243	0xbd9d7610	-0.07688534
244	0x3e1742eb	0.14771621
245	0xbd686156	-0.05673345
246	0x3d0db1ae	0.034593277
247	0x3e373d4b	0.17894475
248	0x3d806ca1	0.06270719
249	0x3e013825	0.12619074
250	0x382035fe	3.8197257e-05
251	0xbc391efc	-0.011298891
252	0xbe39dedb	-0.18151419
253	0x3e1cff45	0.15331753
254	0xbdf56f93	-0.11984172
255	0x3d5c1cde	0.053738467

layer1.0.bias f4 [16]
0	0x3cb0fd5b	0.021605184
1	0x3dbf7301	0.09348107
2	0xbe158226	-0.14600429
3	0xbe0a4713	-0.13503675
4	0x3d892d2d	0.0669807
5	0x3d905c5a	0.07048865
6	0x3e04f0a6	0.12982425
7	0xbe39a9c8	-0.18131173
8	0x3e20a722	0.15688756
9	0x3e35812b	0.17725055
10	0x3db3b59e	0.08774875
11	0xbe196263	-0.14978938
12	0x3dfbf465	0.12302474
13	0xbd83e0b3	-0.06439342
14	0x3dd6f2b1	0.104955085
15	0x3e36256e	0.17787716

layer1.1.weight f4 [16]
0	0x3f8c2098	1.0947447
1	0x3f5e9d9f	0.8695926
2	0x3f8adb94	1.084826
3	0x3f7a6d37	0.978229
4	0x3f7b1fd7	0.9809546
5	0x3f86e672	1.0539076
6	0x3f8166e5	1.0109526
7	0x3f664ba5	0.89959174
8	0x3f852491	1.0401784
9	0x3f809cb3	1.0047821
10	0x3f6ff0e4	0.93726945
11	0x3f86f091	1.0542165
12	0x3f5a98ab	0.853892
13	0x3f71bfe4	0.94433427
14	0x3f8d52e0	1.1040916
15	0x3f69b881	0.91297156

layer1.1.bias f4 [16]
0	0xbc1a32a9	-0.009411492
1	0x3d69fcfc	0.05712603
2	0x3ad373d8	0.0016132547
3	0xbde519f4	-0.11186591
4	0xbde4cc7c	-0.11171815
5	0x3d6cb23f	0.057787176
6	0xbdbce2b2	-0.09222926
7	0xbd48531b	-0.04890738
8	0x3deec624	0.11658886
9	0x3da3a646	0.079906985
10	0xbe0655fa	-0.13118735
11	0x3e1db326	0.15400371
12	0x3c720675	0.014772047
13	0x3c0549fb	0.008135314
14	0x3c86eb76	0.016469698
15	0x3bbdea70	0.0057957694

layer1.1.running_mean f4 [16]
0	0x3e1b6229	0.15174164
1	0xbd8e4364	-0.069464475
2	0xbe1c3896	-0.15255961
3	0x3dbed39c	0.09317705
4	0x3e182a96	0.14859995
5	0x3de0f8c6	0.1098495
6	0x3e326db8	0.17424667
7	0xbe2e9c45	-0.170518
8	0x3e2e7980	0.17038536
9	0x3e80cbbe	0.25155443
10	0x3ebae2cc	0.36501157
11	0xbe1f8d00	-0.15581131
12	0xbd8b2b39	-0.067953534
13	0xbd0818d2	-0.033226795
14	0x3df18f77	0.11794942
15	0x3df883c2	0.12134506

layer1.1.running_var f4 [16]
0	0x3d6274da	0.05528722
1	0x3d8230b5	0.063569464
2	0x3d162135	0.036652762
3	0x3e0b42f7	0.13599764
4	0x3df3a836	0.11897318
5	0x3ce521a5	0.027970145
6	0x3c91d115	0.017799893
7	0x3c807821	0.015682282
8	0x3c8ac77d	0.016940827
9	0x3d34bafa	0.044123627
10	0x3e627be4	0.22117573
11	0x3c97388b	0.018459579
12	0x3db90d37	0.09035724
13	0x3c2cb03e	0.010540066
14	0x3d649891	0.05580956
15	0x3d4447a3	0.04791988

layer2.0.weight f4 [32, 16, 3, 3]
0	0x3e00dcf1	0.12584282
1	0x3d16a38e	0.03677707
2	0x3c9110f2	0.017708275
3	0x3dd900a1	0.10595823
4	0xbc049c96	-0.008093974
5	0x3de7e098	0.11322135
6	0x3cb0555d	0.02152508
7	0x3d156bcb	0.036479753
8	0x3cab8dbd	0.02094161
9	0xbc6a79c5	-0.014311259
10	0xbc077eeb	-0.008270006
11	0x3dcc5e0c	0.099788755
12	0x3d2a963f	0.041647192
13	0xbaf94b84	-0.0019019698
14	0xbd2fe9b1	-0.042947475
15	0x3d5f15f0	0.05446428
16	0xbbad6cd8	-0.005292516
17	0xbc94e630	-0.018176168
18	0xbc301490	-0.01074709
19	0xbd8e4515	-0.0694677
20	0xbd3730c6	-0.04472425
21	0xbba76a03	-0.005109073
22	0x3d8acf03	0.067777656
23	0x3d8e8963	0.06959798
24	0x3c85b79a	0.0163229
25	0x3c81b21f	0.015832005
26	0x3c1c7193	0.009548563
27	0x3db38961	0.08766437
28	0x3d48b825	0.04900374
29	0x3d8f1650	0.06986678
30	0x3da45505	0.08024029
31	0x3d95a195	0.0730621
32	0x3ce193f7	0.027536375
33	0x3d7d2b06	0.06180861
34	0xbc99c3eb	-0.018770179
35	0xbcbab6e0	-0.02279228
36	0x3bb33d26	0.005469936
37	0xbd2b7110	-0.04185587
38	0x3c32dfa0	0.010917574
39	0xbbd3f6c3	-0.0064686253
40	0xbd7c09bf	-0.061532732
41	0x3daed12f	0.08535992
42	0xbd69cad7	-0.05707821
43	0xbd919ce7	-0.07110005
44	0xbd64348a	-0.055714168
45	0xbd5fadae	-0.054608993
46	0xbbf8696e	-0.0075809276
47	0x3b7db9b8	0.0038715433
48	0x3d37cfe3	0.04487599
49	0x3d80177f	0.062544815
50	0xbce8f8c8	-0.02843894
51	0xbd65363f	-0.055959936
52	0x3c9de1fb	0.019272795
53	0xbd69cca2	-0.05707992
54	0xbcb12fdd	-0.021629268
55	0xbd1cc0e5	-0.038269896
56	0x3dc04a6f	0.09389197
57	0x3bc232a9	0.0059264493
58	0xbc81bbe2	-0.01583666
59	0xbd08502f	-0.033279594
60	0xbcb724da	-0.02235644
61	0xbc0f5169	-0.008747437
62	0xbd2c62d1	-0.042086426
63	0x3c62656b	0.013818125
64	0xbc818133	-0.015808677
65	0xbd5304dc	-0.051518306
66	0xbcd035da	-0.025416303
67	0x3c6d4bee	0.014483435
68	0xbdedb0ea	-0.11606009
69	0x3d008557	0.031377163
70	0xbcc8eb04	-0.024526127
71	0x3b2ae3d9	0.002607575
72	0xbd714522	-0.05890382
73	0xbc553840	-0.013013899
74	0xbdcaaf5c	-0.098967284
75	0xbd372b82	-0.044719227
76	0x3c57c3c0	0.013169229
77	0xbcc705c6	-0.024294745
78	0xbc431746	-0.011907404
79	0xbd5118ba	-0.05104897
80	0x3dd8ce0c	0.10586175
81	0x3c5b0df5	0.013370027
82	0x3d87c5f2	0.06629552
83	0xbbe96449	-0.0071225506
84	0x3d440757	0.047858562
85	0x3d1500a4	0.036377564
86	0xbcd2a9a1	-0.025715651
87	0x3d3c4cce	0.045971684
88	0xbc5aae12	-0.013347166
89	0xbd9946d1	-0.0748421
90	0xbd74904b	-0.05970792
91	0x3dbd0109	0.09228713
92	0x3da1b3af	0.078956
93	0x3dc65cab	0.09685644
94	0x3d5e2b2e	0.054240398
95	0x3d40087c	0.04688309
96	0x3d9218bf	0.07133626
97	0xbc557c87	-0.013030178
98	0x3db71dba	0.08941217
99	0xbc68e9eb	-0.014215927
100	0x3d6780a5	0.05651917
101	0x3cb2f286	0.02184416
102	0xbdb35a26	-0.08757429
103	0xbd61922e	-0.05507105
104	0x3ca9dcd8	0.02073519
105	0xbc621dfa	-0.013801092
106	0xbb84a8f6	-0.004048462
107	0xbdb7c6b4	-0.089734465
108	0x3d2dd552	0.042439766
109	0x3bb2053c	0.005432753
110	0xbd6d414f	-0.05792361
111	0x3d1e552b	0.03865544
112	0x3c143e3b	0.00904804
113	0x3d668120	0.056275487
114	0xbc2973ef	-0.010342582
115	0xbd5d4599	-0.05402145
116	0xbd40ebf1	-0.04710001
117	0x3c2f4156	0.01069673
118	0x3d819e69	0.063290425
119	0xbca6886b	-0.020328721
120	0xbc5dfed3	-0.013549524
121	0x3d0dccb1	0.034619037
122	0xbcbe9c03	-0.023267752
123	0xbcd7c272	-0.026337836
124	0x3ccec6d0	0.025241286
125	0x3ce0b3a1	0.027429404
126	0x3d44fb5b	0.048091274
127	0x3d32e796	0.04367789
128	0x3cbc0e4a	0.022956032
129	0xbe242e63	-0.1603332
130	0xbdd4bc71	-0.10387505
131	0xbd866939	-0.065630384
132	0xbdf2c8c8	-0.11854702
133	0xbd845019	-0.0646059
134	0xbda8f892	-0.08250536
135	0xbd0afa01	-0.03392983
136	0x3dab9387	0.08377748
137	0xbd3ec0ca	-0.046570577
138	0xbd5f4646	-0.054510377
139	0xbc09129d	-0.008366254
140	0x3d2c3acb	0.042048257
141	0x3c4ffd29	0.012694635
142	0x3d766111	0.060151163
143	0x3d65430d	0.055972148
144	0x3dc352b8	0.09537262
145	0x3d29f46c	0.041492864
146	0xbda538c8	-0.08067471
147	0x3d37c682	0.044867046
148	0xbb8d4a23	-0.0043118163
149	0xbd7f37a8	-0.062308937
150	0x3d95a281	0.07306386
151	0xbcf7cbbf	-0.03024852
152	0x3d7d1c52	0.061794586
153	0x3d193b44	0.037410036
154	0xbc3737f7	-0.011182777
155	0xbd0fb16c	-0.035081312
156	0x3d1678dc	0.036736354
157	0xbc735235	-0.014851143
158	0xbd9e6dc8	-0.07735783
159	0x3d042319	0.032260034
160	0x3d53f14f	0.0517438
161	0xbbbc324c	-0.0057433005
162	0xbd82a88e	-0.063798055
163	0xbc90f9ef	-0.017697303
164	0xbd9e1d07	-0.0772038
165	0x3d408343	0.04700018
166	0xbbe82bc8	-0.0070852973
167	0xbdb5e71c	-0.08881971
168	0x3c5bbbdf	0.013411491
169	0x3ced4de5	0.028967807
170	0xbd328799	-0.043586347
171	0xbd5fcfbf	-0.05464148
172	0xbd781fff	-0.06057739
173	0x3b9fb195	0.0048734643
174	0x3d00cf5a	0.031447746
175	0xbd6ddc13	-0.058071207
176	0x3d4398a2	0.047752984
177	0x3d09c4fd	0.03363513
178	0xbd443bee	-0.047908716
179	0x3cca6647	0.024706973
180	0x3ca91f29	0.020644741
181	0x3c701bdd	0.014655081
182	0x3db3da64	0.08781889
183	0x3dc6dea7	0.09710436
184	0x3b746256	0.0037290058
185	0x3dbd5366	0.092444226
186	0x3d9977e0	0.074935675
187	0x3ce73ad4	0.028226294
188	0x3de49089	0.111603804
189	0xbc3dd9e8	-0.011587597
190	0x3db74213	0.089481495
191	0x3dc80a7d	0.097676255
192	0x3937f79d	0.00017544483
193	0x3ca40ed5	0.020026604
194	0xbda85a64	-0.08220366
195	0x3c6f2fd0	0.014598802
196	0x3c4631d6	0.012096843
197	0x3d55d387	0.05220368
198	0xbd04ba57	-0.03240427
199	0xbd199181	-0.03749228
200	0xbdb1e033	-0.08685341
201	0x3dec7881	0.11546422
202	0x3deb3342	0.11484386
203	0xbbd826c0	-0.0065964162
204	0x3dae31f1	0.08505619
205	0x3cd1c584	0.025606878
206	0x3dbd2732	0.092359915
207	0xbc81c5e7	-0.015841438
208	0x3cbc8a36	0.023015123
209	0x3d80b860	0.06285167
210	0x3d53ecca	0.05173949
211	0xbb696276	-0.0035611666
212	0x3dcc4da8	0.09975749
213	0x3d8eac5d	0.069664694
214	0xbd6821f7	-0.056673016
215	0x3d74efed	0.059799124
216	0xbc412338	-0.011788182
217	0xbd8cda98	-0.06877631
218	0xbde18c55	-0.11013094
219	0xbc78c8f9	-0.015184634
220	0xbd5149bc	-0.05109571
221	0x3cd48c31	0.025945755
222	0x3c339800	0.010961533
223	0x3d00dec6	0.031462453
224	0xbd942c2c	-0.072349876
225	0xbc851d0b	-0.0162492
226	0xbdc85926	-0.09782629
227	0xbc4866fe	-0.0122315865
228	0x3cc637d4	0.024196543
229	0xbcd76bff	-0.026296614
230	0xbc74835c	-0.014923897
231	0xbc131416	-0.008976957
232	0xbd08f7ac	-0.033439323
233	0xbd1380a7	-0.036011364
234	0xbda9ec8b	-0.0829707
235	0xbc2285ed	-0.009919626
236	0xbbb0bd7b	-0.0053936816
237	0x3bf93bc3	0.007606001
238	0x3cc1bb7c	0.02364897
239	0xbdca1aeb	-0.098684154
240	0x3d9353d9	0.07193727
241	0x3d4fb4e2	0.050709613
242	0xbce56243	-0.028000956
243	0xbd19144f	-0.037372883
244	0xbdc1ddc3	-0.09466126
245	0xbc94c553	-0.018160498
246	0xbde5d5d9	-0.11222429
247	0xbdb99888	-0.09062296
248	0xbd2cd968	-0.042199522
249	0xbd7d78df	-0.06188285
250	0xbd69cb96	-0.05707892
251	0xbdbe4e91	-0.09292329
252	0xbbbdc267	-0.005790997
253	0xbcd7b88f	-0.026333122
254	0xbca98c22	-0.020696703
255	0x3d3d8e18	0.04627809

layer2.0.bias f4 [32]
0	0xbd8bfc3e	-0.06835221
1	0x3d360f53	0.044448208
2	0x3d993f9d	0.074828364
3	0xbd987281	-0.07443715
4	0xbd36d563	-0.044637095
5	0xbd99a10d	-0.07501421
6	0x3c39d554	0.011342365
7	0x3d0d3351	0.034472767
8	0xbd102889	-0.035194907
9	0x3d7a949c	0.06117688
10	0x3d6406ab	0.05567042
11	0x3cd5b837	0.026088817
12	0x3d9a0705	0.0752087
13	0x3c5cfaaf	0.013487502
14	0xbc92164a	-0.017832894
15	0x3c3b0a7e	0.011416076
16	0x3c3ec667	0.0116439825
17	0xbcb2a4bd	-0.021807069
18	0xbd8a721e	-0.067600474
19	0xbd9c1454	-0.07621065
20	0xbd6c164e	-0.05763846
21	0x3c1ad25c	0.009449568
22	0xbb33de8e	-0.0027445885
23	0x3cfb6c43	0.030691272
24	0x3c930d0d	0.017950559
25	0x3dbc3311	0.09189428
26	0x3bd01e00	0.0063512325
27	0xbd393b00	-0.045222282
28	0xbb05b799	-0.0020403622
29	0xbd6eb831	-0.058281127
30	0x3cb3a174	0.021927573
31	0xbd030533	-0.03198738

layer2.1.weight f4 [32]
0	0x3f78d15b	0.9719445
1	0x3f749c61	0.95551115
2	0x3f8df3e8	1.1090059
3	0x3f7fb8a7	0.9989113
4	0x3f8ad7fc	1.0847163
5	0x3f80b662	1.0055659
6	0x3f7b05c9	0.980557
7	0x3f601ca0	0.8754368
8	0x3f78080e	0.9688729
9	0x3f74cf47	0.9562878
10	0x3f7816b7	0.9690966
11	0x3f818976	1.0120075
12	0x3f66a5cf	0.90096754
13	0x3f77892c	0.9669368
14	0x3f879d8a	1.0594952
15	0x3f6f6f57	0.93529266
16	0x3f857833	1.0427307
17	0x3f730b2a	0.9493891
18	0x3f7730ff	0.9655914
19	0x3f7e75f3	0.99398726
20	0x3f7265c6	0.94686544
21	0x3f5dedef	0.8669118
22	0x3f80ce2d	1.006292
23	0x3f7a3a53	0.97745246
24	0x3f812ba0	1.0091438
25	0x3f868a87	1.0511025
26	0x3f72dd73	0.94869155
27	0x3f8bc2c6	1.0918815
28	0x3f7cce39	0.9875217
29	0x3f7bbfc0	0.9833946
30	0x3f80fe20	1.0077553
31	0x3f81488c	1.0100265

layer2.1.bias f4 [32]
0	0xbe4e6951	-0.20157363
1	0xbe6b63df	-0.22987317
2	0xbde7c9c0	-0.11317778
3	0xbe63a434	-0.22230607
4	0xbe59bb1e	-0.21262786
5	0xbdd116de	-0.1020944
6	0xbdb99832	-0.09062232
7	0xbdb36a76	-0.0876054
8	0xbe25012b	-0.16113727
9	0xbde6bd02	-0.11266519
10	0xbe770086	-0.24121293
11	0xbe1ad59f	-0.15120552
12	0xbdef6c11	-0.11690534
13	0xbdb79501	-0.08963967
14	0xbe375ad6	-0.17905745
15	0xbd8b1dbb	-0.0679278
16	0xbe123ac0	-0.14280224
17	0xbe1a57ef	-0.15072607
18	0xbe2c5031	-0.16827466
19	0xbe0b9435	-0.13630755
20	0xbe24d9c3	-0.16098695
21	0xbdcff5c7	-0.101543
22	0xbe29af79	-0.16570844
23	0xbe372746	-0.17886075
24	0xbe7e9643	-0.24862008
25	0xbdc7708e	-0.09738265
26	0xbd92d42b	-0.07169374
27	0xbe38572f	-0.18002008
28	0xbe564f1b	-0.20928614
29	0xbe4e4268	-0.2014252
30	0xbd2161ae	-0.039399795
31	0xbdb98615	-0.09058777

layer2.1.running_mean f4 [32]
0	0x3d1ce851	0.03830749
1	0xbec88904	-0.39167035
2	0xbf7cdcc5	-0.9877437
3	0xbf506b45	-0.8141368
4	0xbf2639b6	-0.6493181
5	0xbf30f659	-0.69125897
6	0xbf68d382	-0.90947735
7	0x3f27a92a	0.654925
8	0xbf6177c6	-0.88073385
9	0xbef324d2	-0.4748903
10	0xbeabf3f8	-0.3358457
11	0xbed3d607	-0.41374227
12	0xbf07fd5e	-0.5312098
13	0xbf39089b	-0.72278756
14	0xbf1a3428	-0.60235834
15	0xbebd6b1f	-0.3699579
16	0xbf5b9bf3	-0.85784835
17	0xbf1f9b44	-0.6234629
18	0xbf681477	-0.90656227
19	0xbf166a67	-0.5875611
20	0xbf3f7d1d	-0.7480028
21	0xbe37ba4f	-0.17942165
22	0xbf817597	-1.011401
23	0xbf13d4a5	-0.57746345
24	0xbf5120e2	-0.816908
25	0xbef9f043	-0.48816118
26	0xbf570857	-0.839971
27	0xbf341b20	-0.7035389
28	0xbf1b0987	-0.6056141
29	0xbf98298a	-1.1887677
30	0xbeecbecf	-0.46239325
31	0xbf374ca2	-0.7160131

layer2.1.running_var f4 [32]
0	0x3ed08a71	0.40730622
1	0x3ee295fe	0.4425506
2	0x3f175f9f	0.5913028
3	0x3ee10e64	0.43956292
4	0x3ec7f706	0.3905565
5	0x3e80eef5	0.2518231
6	0x3f16884a	0.5880171
7	0x3edd3bca	0.43209678
8	0x3ed55a76	0.4167058
9	0x3ee29713	0.44255885
10	0x3f10d6a3	0.5657751
11	0x3e9c8e00	0.30577087
12	0x3eb9513a	0.36194783
13	0x3ef8df4a	0.48607856
14	0x3e98920d	0.29798928
15	0x3eaf686f	0.34259364
16	0x3ebe084b	0.37115702
17	0x3ebf62b0	0.3737998
18	0x3ee37f62	0.44433123
19	0x3eab8274	0.33497965
20	0x3ebee9be	0.37287706
21	0x3ee100f5	0.43946043
22	0x3f5f6e08	0.8727727
23	0x3e817404	0.25283825
24	0x3f077787	0.5291676
25	0x3e7490b7	0.2388333
26	0x3e9d00b2	0.30664593
27	0x3e91e0ce	0.28491825
28	0x3f0c3aea	0.54777396
29	0x3f32d0b9	0.69849735
30	0x3e43df47	0.19128142
31	0x3ea15413	0.31509456

layer3.0.weight f4 [32, 32, 3, 3]
0	0xbd9ac78b	-0.07557591
1	0xbb50df5b	-0.0031871411
2	0x3d09e579	0.033666108
3	0xbc17f1b5	-0.009273936
4	0x3c7758bc	0.0150968395
5	0xbd4e0c1c	-0.050304517
6	0xbaf5c7f9	-0.0018751613
7	0x3d9c0a0e	0.07619105
8	0x3d747527	0.059682038
9	0xbd93f426	-0.07224302
10	0xbc53abfe	-0.012919424
11	0x3d919562	0.07108571
12	0xbc9707e3	-0.018436378
13	0x3d545429	0.051838074
14	0x3cb597b7	0.02216707
15	0xbc01076a	-0.007875303
16	0xbd873a43	-0.066029094
17	0x3c1a3546	0.009412115
18	0x3d18c1a2	0.037294038
19	0x3cf39341	0.029733302
20	0xbd20e909	-0.03928474
21	0xbd5ef0e7	-0.05442896
22	0xbcc54dc5	-0.024084935
23	0x3c108aa3	0.008822116
24	0x3c1a15c8	0.009404607
25	0x3d52a28b	0.051424544
26	0x3d337244	0.043810144
27	0xbc45e62b	-0.012078802
28	0x3d394642	0.04523302
29	0xbc53fb00	-0.012938261
30	0xbd121d61	-0.03567255
31	0xbd458877	-0.048225846
32	0x3a1d8d6a	0.0006010147
33	0xbd52eae3	-0.051493537
34	0xbc57f634	-0.013181258
35	0xbd905060	-0.0704658
36	0xbd932149	-0.07184083
37	0xbbe3960e	-0.006945378
38	0xbd23a41b	-0.039951425
39	0x3d763e1e	0.060117833
40	0x3d449195	0.0479904
41	0x3ca75f41	0.020431163
42	0x3c33cab1	0.010973618
43	0x3cb97d35	0.022642711
44	0x3da87047	0.0822454
45	0x3d720527	0.059086945
46	0x3d178676	0.036993466
47	0x3d30ab9b	0.043132406
48	0x37cf3291	2.469987e-05
49	0xbb9995ba	-0.0046870383
50	0xbd903002	-0.07040407
51	0xbc2c43c6	-0.010514205
52	0x3d06102a	0.03273026
53	0x3daef672	0.085430995
54	0xbdcf931d	-0.101354815
55	0xbd37af60	-0.044844985
56	0x3bc7b82e	0.006094954
57	0xbd021d9d	-0.031766523
58	0xbd25b0a6	-0.04045167
59	0x3c8fbe0e	0.01754668
60	0xbd18501c	-0.037185773
61	0xbd09a44a	-0.033603944
62	0xbcd55fab	-0.026046595
63	0x3d24d88a	0.04024557
64	0x3d28ea02	0.041238792
65	0xba666a73	-0.0008789666
66	0x3cf612e8	0.030038312
67	0xbd2b1785	-0.041770477
68	0xbb98d32c	-0.0046638455
69	0xbcb1ab29	-0.02168806
70	0xbd2a298a	-0.04154352
71	0x3c8302e0	0.015992582
72	0xbd15d843	-0.036583196
73	0x3ad119e3	0.0015953149
74	0xbd2b1339	-0.04176638
75	0xbd82efb2	-0.063933745
76	0xbd619d52	-0.055081673
77	0xbcfb3edd	-0.030669624
78	0x3c842b36	0.016133886
79	0x3da7c9e8	0.081928074
80	0x3d2abe22	0.04168523
81	0x3ce151e7	0.027504874
82	0xbc2a42b5	-0.010391881
83	0x3d6fc644	0.05853869
84	0x3da75b1a	0.08171673
85	0x3c8c7a4f	0.017148165
86	0x3c8bfc3d	0.01708805
87	0xbd0aff25	-0.03393473
88	0x3d1f5bec	0.038906023
89	0xbd19a098	-0.03750667
90	0xbcff162d	-0.031138504
91	0x3d0c8f89	0.034316573
92	0xbc8bc436	-0.017061334
93	0xbd9ebbb6	-0.07750647
94	0xbc3195be	-0.010838924
95	0xbd63bce6	-0.05560007
96	0xbc8feb5c	-0.017568283
97	0xbd686789	-0.056739364
98	0x3c4606d4	0.012086589
99	0x3cabba63	0.0209629
100	0xbcde711e	-0.027153548
101	0x3d2d784b	0.04235105
102	0x3cf9c1ef	0.030487983
103	0x3c8a31b2	0.0168694
104	0x3d2d4638	0.042303294
105	0xbdb2e8e6	-0.08735828
106	0xbd9f729b	-0.07785531
107	0x3cad8df9	0.021185862
108	0x3d75f4a2	0.060047753
109	0xbc71090a	-0.014711628
110	0xbd334ad3	-0.04377253
111	0x3c98533e	0.01859438
112	0x3d7968aa	0.06089083
113	0x3c46cc8f	0.0121337315
114	0xbc90e642	-0.01768792
115	0x3cb3677f	0.021899937
116	0x3d90ac92	0.07064165
117	0x3d80733e	0.06271981
118	0xbce53e0b	-0.027983686
119	0x3d248c73	0.040173005
120	0x3d2c3a63	0.04204787
121	0x3cfe8aaf	0.031071989
122	0xbb559875	-0.0032592092
123	0x3d734c30	0.05939883
124	0x3bb23c80	0.005439341
125	0xbd4051cd	-0.04695301
126	0x3df6aeb2	0.12045039
127	0x3d9eb320	0.07749009
128	0x3de9f7df	0.11424231
129	0x3ce53f6e	0.027984347
130	0xbd061cc8	-0.03274229
131	0xbceed4ba	-0.02915417
132	0x3c8c6f5d	0.017142946
133	0xbcdcad74	-0.026938178
134	0xbce4221d	-0.027848298
135	0x3d783267	0.060594942
136	0x3ca9e035	0.020736793
137	0x3ca261ec	0.019822083
138	0x3d4c5ef4	0.04989524
139	0x3d1a6802	0.037696846
140	0xbc8064a1	-0.015672984
141	0xbbe6c619	-0.007042658
142	0xbd2e7f4d	-0.042601872
143	0xbcbb4ba7	-0.022863222
144	0x3e06ef55	0.13177235
145	0x3d2251b6	0.039628707
146	0x3d401f39	0.046904776
147	0x3d0dac66	0.03458824
148	0x3cd93b3a	0.0265175
149	0x3d3573bf	0.044299837
150	0x3bfbc1d7	0.0076830196
151	0xbd019a2d	-0.031641174
152	0xbc7795ed	-0.015111429
153	0xbc89e944	-0.016834863
154	0x3da7764f	0.081768624
155	0x3dc8ac0f	0.097984426
156	0xbd80d89a	-0.062913135
157	0xbc756256	-0.014977058
158	0x3cbc23fe	0.022966381
159	0x3c004685	0.007829313
160	0x3cd79aca	0.026318926
161	0x3a55fc55	0.00081629056
162	0xbbc4f89d	-0.0060110823
163	0x3ce0238c	0.0273607
164	0x3cfe1e15	0.031020204
165	0xbd678413	-0.05652244
166	0xbcdd78f0	-0.027035207
167	0xbba1b428	-0.0049348064
168	0xbd0e4217	-0.034730997
169	0x395f189f	0.0002127611
170	0xbd9fce34	-0.07803002
171	0x3daacea4	0.08340195
172	0x3d3e603d	0.0464785
173	0xbca300d9	-0.019897865
174	0x3d518eff	0.051161762
175	0x3d2a85c2	0.041631468
176	0x3b8bc845	0.0042658173
177	0xbd0a989b	-0.033836942
178	0xbcd8a56f	-0.026446072
179	0x3c9a41d9	0.018830227
180	0xbb60a256	-0.0034276447
181	0x3d06dd26	0.032925747
182	0x3d0a6eca	0.033797063
183	0xbd1431d0	-0.036180317
184	0x3b611a99	0.0034348129
185	0x3d4ec32d	0.050479103
186	0x3b3d50d9	0.00288873
187	0xbd01349f	-0.031544324
188	0x3dade38c	0.08490667
189	0x3c104954	0.008806545
190	0x3c86d6b7	0.016459806
191	0xbc661878	-0.01404392
192	0xbbec23d1	-0.007206418
193	0xbd181ec1	-0.037138704
194	0x3d40fbe4	0.04711522
195	0x3d144ed7	0.036208
196	0x3d07664e	0.03305655
197	0x3d267ae0	0.040644526
198	0xbcf21507	-0.029551042
199	0xbc503b23	-0.012709412
200	0x378d6786	1.6856717e-05
201	0xbd7d71f7	-0.061876263
202	0x3c54d7e8	0.012990929
203	0xbd28b61d	-0.0411893
204	0xbc44d46f	-0.012013539
205	0xbcb48d92	-0.022040162
206	0x3d37bc9d	0.04485761
207	0xbd3e6dc0	-0.046491385
208	0xbbd5265c	-0.006504817
209	0xbd2ae377	-0.041720834
210	0x3cb21290	0.021737367
211	0xbcc6c19d	-0.024262244
212	0x3c836225	0.01603801
213	0xbc10941e	-0.008824376
214	0x3c9a8064	0.01886005
215	0xbd8485d7	-0.064708404
216	0x3c682d4d	0.014170957
217	0xbd02e011	-0.031951968
218	0xbd172af0	-0.036906183
219	0xbc11b11d	-0.008892325
220	0x3d5e650f	0.054295596
221	0x3d6db135	0.058030326
222	0xbc12d084	-0.008960847
223	0x3c19f116	0.009395858
224	0xbd14a2b3	-0.036287975
225	0xbd4574df	-0.04820716
226	0xbc94363f	-0.018092273
227	0xbd918e54	-0.07107225
228	0xbd98de4d	-0.074642755
229	0xbd3b5a5e	-0.045740478
230	0x3cfedeaa	0.031112034
231	0x3db31189	0.08743579
232	0x3d8d437c	0.06897637
233	0x3d7ecb92	0.06220586
234	0xbcb23418	-0.021753356
235	0x3d01c5a0	0.03168261
236	0xbc668721	-0.014070303
237	0xbcfc5e23	-0.030806607
238	0x3d54300c	0.051803634
239	0x3b09a030	0.002100002
240	0x3cf13e9f	0.029448805
241	0xbd08eecb	-0.033430856
242	0xbcffb527	-0.03121431
243	0xbd0011a6	-0.03126683
244	0xbdd1a2ab	-0.102361046
245	0xbd7fb9e8	-0.062433153
246	0xbbccfa1a	-0.0062554004
247	0x3c88e715	0.016711751
248	0xbce26bed	-0.027639354
249	0x3da2c300	0.079473495
250	0x3d224182	0.039613254
251	0x3ca8fabf	0.020627378
252	0x3c41d45a	0.011830414
253	0x3d3899f5	0.0450687
254	0x3b390e22	0.0028237184
255	0xbbc8f84a	-0.006133114

layer3.0.bias f4 [32]
0	0x3cf9aef4	0.030478932
1	0xbd2c1498	-0.042011827
2	0xbd1679d5	-0.03673728
3	0x3ce11a5d	0.027478391
4	0xbd0d94a6	-0.03456559
5	0x3d479251	0.048723523
6	0xbcc7d8fa	-0.024395455
7	0xba8e0003	-0.0010833744
8	0xbc9c5d6f	-0.019087521
9	0xbce6580d	-0.028118158
10	0x3a7607c0	0.000938531
11	0x3ce5b30c	0.028039478
12	0x3ad93e74	0.0016574399
13	0xb8a29b3b	-7.753676e-05
14	0xbd681421	-0.05665982
15	0xbd536a4f	-0.051615056
16	0x3c97215c	0.018448524
17	0xbd085d0c	-0.03329186
18	0x3cd4fd29	0.025999622
19	0x3bcf17c1	0.0063199704
20	0x3d182cbe	0.037152044
21	0x3ccb6b4f	0.024831442
22	0x3d411f76	0.047149144
23	0xbd0683e9	-0.032840643
24	0xbc7e671e	-0.015527515
25	0xbd2405ba	-0.040044524
26	0x3c377df2	0.011199461
27	0xbd0f8de6	-0.035047434
28	0xbc08c2ec	-0.008347254
29	0x3d842358	0.06452054
30	0x3cb5fa8e	0.0222142
31	0xbd36c180	-0.04461813

layer3.1.weight f4 [32]
0	0x3f982886	1.1887367
1	0x3f9f9202	1.2466433
2	0x3f99d024	1.2016644
3	0x3f9c607f	1.2216948
4	0x3fa1d1bd	1.2642132
5	0x3f949d7b	1.1610559
6	0x3f9b6008	1.2138681
7	0x3f9c756a	1.2223332
8	0x3fa0c0fc	1.2558894
9	0x3f9c8018	1.2226591
10	0x3f94951e	1.1608007
11	0x3f9a0330	1.2032223
12	0x3f98fa43	1.1951374
13	0x3f9a2e63	1.2045406
14	0x3f9a939f	1.20763
15	0x3f930fe6	1.1489227
16	0x3f9b0576	1.2111042
17	0x3f9cadae	1.2240503
18	0x3f9959e6	1.198056
19	0x3f9c282c	1.219976
20	0x3f9b8099	1.214862
21	0x3fa4873f	1.2853774
22	0x3f9f2845	1.2434164
23	0x3f9c7c47	1.2225426
24	0x3f9b3c43	1.2127765
25	0x3f9f6ce0	1.2455101
26	0x3f966fb4	1.1752839
27	0x3f994c9c	1.1976504
28	0x3fa1beb1	1.2636319
29	0x3f97d4a4	1.1861768
30	0x3fa4fa48	1.288888
31	0x3f961e83	1.1728061

layer3.1.bias f4 [32]
0	0xbca1256f	-0.01967117
1	0xbdf52a9a	-0.11971016
2	0xbe01c2b2	-0.12671927
3	0xbd494dce	-0.049146466
4	0xbdbc2430	-0.0918659
5	0xbd9bad88	-0.07601458
6	0xbd95b931	-0.07310713
7	0xbda325f9	-0.07966227
8	0xbe467b66	-0.1938301
9	0xbd399129	-0.04530445
10	0xbdbaf55e	-0.09128831
11	0xbe17218b	-0.1475889
12	0xbd4abbd6	-0.04949554
13	0xbddef2a5	-0.108861245
14	0xbd971b69	-0.07378275
15	0xbd8a954a	-0.06766756
16	0xbdd26e84	-0.102749854
17	0xbd8c2726	-0.068434045
18	0xbd946573	-0.072459124
19	0xbd269b65	-0.04067554
20	0xbdac8458	-0.0842368
21	0xbda7053b	-0.081552945
22	0xbdd7e0c8	-0.105409205
23	0xbd5dfe99	-0.05419788
24	0xbda8a8e7	-0.082353406
25	0xbddc0614	-0.10743347
26	0xbd5836d3	-0.05278666
27	0xbcd9f23c	-0.026604764
28	0xbd35f20d	-0.04442029
29	0xbc426925	-0.011865889
30	0xbe064e6a	-0.1311585
31	0xbdb61d6e	-0.08892332

layer3.1.running_mean f4 [32]
0	0x3ef938b8	0.48676085
1	0x3dda0fcd	0.10647545
2	0x3dff627e	0.12469958
3	0x3f078540	0.529377
4	0x3d379870	0.04482311
5	0x3e1560ff	0.14587782
6	0xbd50ccd2	-0.050976582
7	0x3e550952	0.20804337
8	0xbbe6f5ab	-0.007048329
9	0xbe6e9a30	-0.23301005
10	0xbc9e328c	-0.019311212
11	0x3e767156	0.24066672
12	0x3e834694	0.25639784
13	0xbd4af390	-0.049548686
14	0xbd922629	-0.07136185
15	0x3eb9cc10	0.362885
16	0x3e22a90a	0.15884796
17	0xbc553bc2	-0.013014736
18	0x3db86754	0.09004083
19	0xbe014587	-0.12624179
20	0x3d80ee60	0.062954664
21	0x3ccac2f3	0.024751162
22	0x3b9ac116	0.0047227247
23	0x3dcdb98f	0.10045158
24	0x3e8cf783	0.27532586
25	0x3e8f7c25	0.28024402
26	0xbdafd2a2	-0.08585097
27	0xbd9219e9	-0.07133848
28	0x3e0c05b0	0.13674045
29	0xbe11650a	-0.141987
30	0x39e53233	0.00043715685
31	0x3e3fb220	0.18720293

layer3.1.running_var f4 [32]
0	0x3e05a193	0.13049917
1	0x3decf937	0.115709715
2	0x3e0f2688	0.13979542
3	0x3df1d6a3	0.11808517
4	0x3de376b0	0.11106622
5	0x3db59314	0.088659436
6	0x3dde3abf	0.10851049
7	0x3e0d3696	0.13790354
8	0x3e060d59	0.13091029
9	0x3df25300	0.11832237
10	0x3dc98c83	0.098412536
11	0x3ddeecd3	0.108850144
12	0x3e020993	0.12698965
13	0x3e071a9d	0.13193746
14	0x3de686d4	0.11256185
15	0x3de8540b	0.11344155
16	0x3dd2690a	0.10273941
17	0x3e08def2	0.13366297
18	0x3dfe8fbf	0.12429761
19	0x3e157819	0.14596595
20	0x3e02d6b8	0.12777221
21	0x3ddcdc48	0.10784203
22	0x3de91549	0.11381013
23	0x3e059f36	0.13049015
24	0x3def60ca	0.11688383
25	0x3ddfcd3a	0.10927816
26	0x3e10036f	0.1406381
27	0x3e0263c3	0.12733369
28	0x3e035253	0.12824373
29	0x3de420eb	0.11139091
30	0x3ddc8dc3	0.107692264
31	0x3dda6ef7	0.10665696

fc1.weight f4 [32, 512]
0	0xbd78dff3	-0.06076045
1	0xbdd29970	-0.10283172
2	0xbd0055df	-0.031331893
3	0xbd8e4cba	-0.06948228
4	0x3ad4c643	0.0016233403
5	0x3cb5b6e4	0.022181936
6	0xbbf19e7c	-0.007373629
7	0x3d4517b7	0.04811832
8	0xbd01dd46	-0.031705163
9	0xbdfe71c7	-0.12424045
10	0xbd26633c	-0.04062198
11	0xbd3b591c	-0.04573928
12	0xbc8e10a1	-0.017341914
13	0x3c43c753	0.011949378
14	0x3c82ad56	0.015951794
15	0x3d094c69	0.033520136
16	0xbc52d456	-0.012868008
17	0x3d413a02	0.04717446
18	0xbd30054d	-0.042973805
19	0x3c04edb3	0.008113313
20	0x38b4a4e3	8.6137814e-05
21	0x3abe145d	0.0014501918
22	0x3be416a2	0.006960706
23	0xbd6462ef	-0.055758413
24	0xbbf9b248	-0.0076201297
25	0xbc75a002	-0.014991762
26	0x3d9b6eaf	0.075894706
27	0xbd47811f	-0.048707124
28	0xbc81d594	-0.015848912
29	0x3da47df2	0.08031835
30	0x3cffb80e	0.031215694
31	0xbd0a8d1c	-0.03382598
32	0x3bd1da65	0.0064042085
33	0x3c1b7448	0.009488173
34	0x3c79c8d5	0.015245636
35	0x3d10f0f2	0.035386033
36	0xbc050e72	-0.00812112
37	0x3d566da3	0.05235065
38	0xbbf7dd14	-0.0075641964
39	0xbcaad793	-0.020854747
40	0x3ce6c7a5	0.02817137
41	0xbcc08e98	-0.023505494
42	0x3cf00968	0.02930136
43	0xbd2ca1b9	-0.04214642
44	0xbbe12fec	-0.006872168
45	0xbc716bfa	-0.014735216
46	0xbd8ff49e	-0.07029079
47	0x3bea29ee	0.0071461117
48	0x3d1327e7	0.035926726
49	0x3d18c6cf	0.037298974
50	0x3d201ced	0.039090086
51	0x3c55990d	0.013036978
52	0xbc8955fe	-0.016764637
53	0xbd602b38	-0.054728717
54	0x3c88f2b8	0.0167173
55	0xbd932991	-0.071856625
56	0xbab729ad	-0.0013974212
57	0xbca883e2	-0.0205707
58	0x3d15cad3	0.03657038
59	0x3d8b29f8	0.06795114
60	0x3ceaf3de	0.028680738
61	0xbca939fb	-0.02065753
62	0x3c698386	0.014252549
63	0xbb328908	-0.0027242322
64	0x3ca52874	0.020160891
65	0xbd5aa9a0	-0.053384423
66	0x3b2768e0	0.0025544688
67	0x3ca2fc4e	0.019895699
68	0x3cd782b4	0.026307441
69	0x3be70997	0.0070507037
70	0xbd5f6bbd	-0.054546107
71	0xbcac8f4a	-0.02106442
72	0x3cb0cc98	0.021581933
73	0xbd555008	-0.052078277
74	0xbd8f0759	-0.06983823
75	0x3da33c82	0.07970525
76	0xbbb242c1	-0.0054400866
77	0xbd928eef	-0.07156169
78	0xbd910ae4	-0.07082155
79	0x3ce37ef2	0.027770493
80	0x3d0f0807	0.034919765
81	0xbca304c9	-0.019899743
82	0xbd456e16	-0.04820069
83	0xbd2263ab	-0.039645832
84	0xbcac0ac0	-0.02100122
85	0xbd53a524	-0.051671162
86	0xbb9f8685	-0.004868331
87	0xbda627fc	-0.08113095
88	0xbc19816b	-0.009369235
89	0x3d7dd489	0.061970267
90	0x3c8783e7	0.016542388
91	0xbd70adea	-0.058759607
92	0x39a829a3	0.0003207448
93	0xbd8c0d69	-0.06838495
94	0x3d278762	0.040900595
95	0x3c8f80ee	0.017517533
96	0xbd374612	-0.04474456
97	0x3bb4c034	0.0055160765
98	0xbca245e4	-0.019808717
99	0xbd50d729	-0.050986443
100	0x3d2d3a50	0.04229194
101	0x3c978bee	0.01849934
102	0x3d226c49	0.03965405
103	0x3c9829ae	0.018574562
104	0xbb6641d2	-0.0035134447
105	0xbce7c13c	-0.028290384
106	0x3d7a5bd1	0.06112272
107	0xbd928cab	-0.071557365
108	0x3d106977	0.03525683
109	0xbc1d4c79	-0.009600752
110	0xbd823fb1	-0.063598044
111	0x3cc52a6d	0.024068082
112	0xbccfdec4	-0.025374778
113	0x3d6392ad	0.055559803
114	0x3ba1786a	0.0049276846
115	0xbd5fe6a7	-0.054663327
116	0xbb632494	-0.0034659253
117	0xbd1fb0d7	-0.038987007
118	0x3d30ae20	0.04313481
119	0xbcc02ddb	-0.023459366
120	0xbc660080	-0.014038205
121	0x3d8d5d0d	0.06902514
122	0x3dc990d8	0.0984208
123	0xbd5a360a	-0.053274192
124	0xbcc79084	-0.024360903
125	0xbd79bb9f	-0.060969945
126	0xbd71b3aa	-0.05900923
127	0x3c693e41	0.014236034
128	0x3d9f2697	0.07771032
129	0xbc67c6b2	-0.014146494
130	0xbd91f7a8	-0.07127315
131	0x3c8e3169	0.017357545
132	0xbd911596	-0.07084195
133	0xbe11b59b	-0.14229433
134	0x3b0a6c49	0.0021121672
135	0x3cbeb8ed	0.023281539
136	0x3cc09295	0.023507396
137	0x3de1965d	0.11015008
138	0x3c5e85c6	0.013581699
139	0x3d083b94	0.033259943
140	0xbcde69bd	-0.02715003
141	0xbc3d48e8	-0.011553027
142	0x3d43d8e4	0.047814265
143	0x3c263c9e	0.010146288
144	0x3ca4e1a0	0.020127118
145	0xbcf99b25	-0.030469486
146	0xbd68ddb7	-0.05685207
147	0x3bc4242f	0.0059857587
148	0xbc768ba4	-0.015047941
149	0xbd257d1c	-0.040402517
150	0xbccd773a	-0.025081266
151	0x3d8eb2a4	0.06967667
152	0x3cd474a9	0.025934534
153	0xbd1c6c25	-0.038189072
154	0xbc4f9c8b	-0.0126716
155	0x3c6b2bf2	0.014353739
156	0x3cf51ff5	0.029922465
157	0x3d88e2ed	0.06683908
158	0x3d14679c	0.036231622
159	0x3cdd9a1c	0.027051024
160	0xbd0b8eea	-0.03407184
161	0x3d58c325	0.05292048
162	0x3cbf8d02	0.023382667
163	0xbd00d674	-0.03145452
164	0x3c8cada1	0.017172636
165	0x3d1e3d19	0.038632486
166	0x3ded2dbb	0.11580988
167	0xbd185d49	-0.03719834
168	0xbcd21f92	-0.02564982
169	0x3d8d1b58	0.06889981
170	0x3b97e0d5	0.0046349564
171	0x3d6ca9fa	0.05777929
172	0xbc603745	-0.013685052
173	0xbc11925c	-0.008884992
174	0x3b11eb9e	0.0022265683
175	0xbce9a8b5	-0.028522829
176	0xbabbccf7	-0.0014328052
177	0x3c702618	0.01465752
178	0x3ce05afe	0.027387138
179	0xbd60568d	-0.05477004
180	0x3b84167e	0.0040310016
181	0xbcb6d189	-0.022316711
182	0x3da56c74	0.080773264
183	0xbc580c91	-0.01318659
184	0x3aa051a8	0.0012231367
185	0x3cde6c5e	0.027151283
186	0xbccd72c6	-0.025079142
187	0xbc8db477	-0.017297966
188	0xbb95e81e	-0.0045747897
189	0xbd049e33	-0.032377433
190	0x3c08fc49	0.008360931
191	0x3d0432e2	0.032275088
192	0x3d85495c	0.06508133
193	0xbcc681e0	-0.024231851
194	0xbcc838f6	-0.024441224
195	0xbd263119	-0.040574167
196	0x3d266c42	0.040630586
197	0x3d9c5d89	0.07635028
198	0x3d3bce74	0.045851186
199	0xbd151424	-0.03639616
200	0xbdcc29e9	-0.09968931
201	0xbd920683	-0.07130148
202	0xbba8d8f5	-0.0051528164
203	0xbcaa8a65	-0.020817945
204	0xbc95fb4a	-0.0183083
205	0x3b70ba69	0.0036732203
206	0x3d15783a	0.03649161
207	0x3c9a3f0f	0.018828897
208	0xbd22775d	-0.039664615
209	0xbd1680aa	-0.036743797
210	0x3cd9b471	0.026575299
211	0x3cdbf1a9	0.026848631
212	0x3caef473	0.021356797
213	0x3d76009a	0.060059167
214	0xbc4fac84	-0.012675408
215	0xbb32584c	-0.0027213274
216	0x3c2c1ec5	0.010505383
217	0xbdc94009	-0.09826667
218	0x3c150449	0.00909526
219	0xbc33bb08	-0.010969885
220	0x3c8fbc01	0.017545702
221	0xbb824c31	-0.003976368
222	0x3d50bc79	0.05096099
223	0x3b083664	0.0020784372
224	0x3c96ff2a	0.018432219
225	0xbd63a758	-0.055579513
226	0x3c99ace5	0.0187592
227	0xbbc921e0	-0.0061380714
228	0xbc872d9b	-0.016501239
229	0x3d4706b2	0.04859037
230	0x3cb86a43	0.022511607
231	0x3c373d81	0.011184097
232	0x3d317fe7	0.043334868
233	0x3d580195	0.052735884
234	0xbd823c55	-0.06359164
235	0xbd401193	-0.04689176
236	0xbcf01c27	-0.0293103
237	0x3d817085	0.063202895
238	0xba99ea9c	-0.0011742893
239	0xbd894321	-0.06702257
240	0x3ca2c617	0.019869847
241	0xbc058f88	-0.008151896
242	0x3da64549	0.08118684
243	0x3d5f132a	0.054461636
244	0x3c970bde	0.018438276
245	0x3d9145e6	0.0709341
246	0x3d0bb95d	0.034112323
247	0x3d5297d7	0.051414337
248	0x3da0cad9	0.0785119
249	0xbd9afab9	-0.07567353
250	0xbbac301f	-0.00525476
251	0xbba686b8	-0.0050819777
252	0x3ccd8819	0.02508931
253	0x3d5e68bb	0.054299098
254	0xbd2b0658	-0.041754097
255	0x3a13bc09	0.00056356244

fc1.bias f4 [32]
0	0x3d32f52c	0.043690845
1	0xbd4e21dd	-0.050325263
2	0x3b6d723a	0.0036231414
3	0x3c4f5115	0.012653609
4	0x3d09b319	0.033618066
5	0x3c74f4a3	0.014950904
6	0xbd128c85	-0.03577854
7	0x3d5a10fa	0.053238846
8	0xbc886c5d	-0.016653234
9	0xb9da5b59	-0.0004164826
10	0xbc87788d	-0.016536975
11	0x3b9db3c4	0.0048126895
12	0x3bd98cdc	0.006639106
13	0x3d10ad59	0.035321567
14	0xbd0f210d	-0.03494363
15	0xbbea2d9b	-0.00714655
16	0xbc11b801	-0.008893968
17	0x3d007343	0.031359922
18	0xbd359517	-0.044331636
19	0xbb9caea5	-0.0047815614
20	0xbc6ae703	-0.014337304
21	0xbd7551c6	-0.05989244
22	0xbd02c394	-0.0319248
23	0xbd180734	-0.037116244
24	0x3cda6f6c	0.026664458
25	0x3cfdc434	0.030977346
26	0xbd4fe312	-0.05075366
27	0x3cef35c5	0.029200444
28	0x3d66dbb8	0.056361884
29	0x3c505df6	0.0127177145
30	0xbb83d402	-0.004023076
31	0xbd0c5a2c	-0.034265682

fc2.weight f4 [13, 32]
0	0x3e08d60a	0.133629
1	0xbe3caf06	-0.18426141
2	0x3e8fefa2	0.28112513
3	0xbd606dfa	-0.05479238
4	0xbddd060a	-0.107921675
5	0x3cefb34c	0.0292603
6	0x3ded584a	0.115891054
7	0xbdb28e1c	-0.087185115
8	0xbe809dc5	-0.2512037
9	0xbd368393	-0.044559073
10	0xbe4c3931	-0.19943692
11	0xbe2ef3e2	-0.17085221
12	0x3b3762a9	0.002798239
13	0xbe6a84fe	-0.22902295
14	0x3e81ea21	0.2537394
15	0x3e6b81cc	0.22998732
16	0xbd95f590	-0.07322228
17	0x3e64f745	0.22359951
18	0xbe666c29	-0.22502197
19	0x3c5223d9	0.01282593
20	0xbe69bb41	-0.22825338
21	0xbd828334	-0.06372681
22	0xbe0341e8	-0.1281811
23	0xbe439034	-0.19097978
24	0x3e224f6a	0.15850607
25	0x3bbc8f69	0.0057544005
26	0xbe3d36c7	-0.18477927
27	0x3e26d368	0.16291583
28	0xbe034c2c	-0.12822026
29	0xbd8d6b71	-0.069052584
30	0xbe4027e9	-0.18765225
31	0xbdec9200	-0.11551285
32	0x3dd71fc5	0.105041064
33	0xbe2d0bbc	-0.16899008
34	0xbde0254a	-0.10944612
35	0x3e731b5c	0.23740906
36	0x3bce585c	0.0062971544
37	0x3c95fbf5	0.018308619
38	0xbe145789	-0.14486517
39	0x3e7f03a8	0.24903738
40	0x3e0c389a	0.13693467
41	0xbd23db69	-0.040004168
42	0x3e70ebe1	0.2352748
43	0xbc9d7cc6	-0.019224536
44	0xbda2cded	-0.079494335
45	0xbe4bac79	-0.19890012
46	0x3d6a7821	0.05724347
47	0xbe86790a	-0.2626422
48	0xbe9a0510	-0.30081987
49	0xbe504e8f	-0.20342468
50	0x3e296beb	0.16545074
51	0xbe87e0a9	-0.2653859
52	0xbe685d54	-0.22691852
53	0x3e4c757c	0.19966692
54	0xbcf10770	-0.029422492
55	0x3e395a59	0.18100871
56	0xbe01ba4c	-0.12668723
57	0xbe815b07	-0.2526476
58	0xbd8954ef	-0.06705653
59	0x3e8f4d26	0.27988547
60	0x3d1b91d2	0.037980862
61	0xbe792635	-0.24330981
62	0x3e0c07d2	0.13674858
63	0x3df272da	0.118383124
64	0x3e7246aa	0.23659769
65	0x3e9107ce	0.28326267
66	0x3e644070	0.22290206
67	0x3db2b578	0.08726019
68	0x3e01c651	0.12673308
69	0xbde693ba	-0.11258645
70	0x3dc120e9	0.09430105
71	0xbe27ba5e	-0.16379687
72	0x3cd1c1fa	0.02560519
73	0x3d4ad929	0.049523506
74	0xbd241f91	-0.040069167
75	0xbd25d601	-0.040487293
76	0x3dea62ac	0.114446014
77	0xbe77bb71	-0.24192597
78	0x3db157a3	0.086592935
79	0xbe94ca58	-0.29060626
80	0xbdd493f8	-0.10379785
81	0xbe18097c	-0.14847368
82	0xbe61baa2	-0.22043851
83	0x3e2baf43	0.16766076
84	0xbe5061b8	-0.20349777
85	0xbe701512	-0.23445538
86	0x3e9c9be9	0.305877
87	0xbe99236d	-0.2990984
88	0xbe41cdad	-0.18926115
89	0xbdeadc34	-0.11467782
90	0xbda8b941	-0.082384594
91	0x3e03dafd	0.12876506
92	0xbcf32895	-0.029682437
93	0x3e834cd3	0.2564455
94	0x3e368f69	0.17828144
95	0x3e5261be	0.20545098
96	0x3deafac0	0.11473608
97	0xbe908ab9	-0.28230837
98	0x3e207a79	0.1567172
99	0x3e54d170	0.20783019
100	0x3e4302ec	0.19044083
101	0x3c72de9c	0.014823582
102	0x3d8a86b2	0.06763972
103	0x3e84a5b3	0.25907668
104	0x3bd5b2ae	0.0065215444
105	0xbd3a3b81	-0.045466904
106	0x3d67ad8a	0.056561984
107	0x3ea82ab9	0.32845095
108	0xbe98ef4c	-0.2987007
109	0xbd950e78	-0.0727815
110	0x3e0c49bc	0.13700002
111	0xbe3a94c3	-0.1822081
112	0x3ea66ebb	0.32506356
113	0xbeb1cbd5	-0.34725824
114	0x3e418f50	0.18902326
115	0x3e529ef7	0.20568453
116	0x3e127567	0.14302598
117	0xbe13abcc	-0.14421004
118	0x3d0de637	0.034643378
119	0xbc1f97eb	-0.00974081
120	0x3e67046a	0.22560278
121	0x3e40b140	0.18817616
122	0xbe531814	-0.20614654
123	0xbe2a32e2	-0.16620973
124	0xbcb724ef	-0.022356478
125	0x3bc06c32	0.005872273
126	0xbe05b51c	-0.13057369
127	0xbd71b2be	-0.059008352
128	0xbe8a999a	-0.27070314
129	0x3d9e973f	0.07743692
130	0xbe6e0def	-0.23247503
131	0xbd747f1c	-0.059691533
132	0xbe3b1a46	-0.18271741
133	0x3ce82338	0.028337106
134	0x3e045ccc	0.12926024
135	0xbdb816a0	-0.089886904
136	0x3e164905	0.14676292
137	0xbdb7c8bd	-0.08973835
138	0x3e0c12d7	0.13679062
139	0xbdaac1c6	-0.083377406
140	0xbcd774ad	-0.026300753
141	0xbe311607	-0.17293559
142	0xbd69c8a1	-0.0570761
143	0x3e802230	0.25026083
144	0xbde2c7fb	-0.110732995
145	0xbda75af8	-0.08171648
146	0x3e7f8a5a	0.2495512
147	0xbc07df2a	-0.008292953
148	0xbd582193	-0.052766394
149	0x3e7ecb0f	0.24882148
150	0x3e86d06d	0.2633089
151	0xbd9f74f9	-0.07785983
152	0x3e0aee95	0.13567574
153	0xbdefe81b	-0.117141925
154	0xbe177423	-0.14790396
155	0xbd0093e1	-0.03139103
156	0xbe7f9f51	-0.24963118
157	0x3dadd7bb	0.08488413
158	0xbe441553	-0.1914876
159	0x3d8b31a8	0.067965806
160	0xbe627190	-0.22113633
161	0xbe434874	-0.19070607
162	0xbe7c5e04	-0.24645239
163	0xbe2c6c92	-0.16838291
164	0xbe0fe4d9	-0.14052142
165	0xbe5a75ad	-0.21333952
166	0x3e2a0056	0.1660169
167	0xbd6a36ed	-0.057181288
168	0xbe560f15	-0.20904191
169	0x3d36713e	0.04454159
170	0x3dced0b6	0.10098402
171	0x3eb7d289	0.35902813
172	0x3e70fda7	0.2353426
173	0x3e383733	0.17989807
174	0xbd7d8109	-0.061890636
175	0xbd5b6c66	-0.053570174
176	0x3e2111a1	0.15729381
177	0xbd31b316	-0.04338368
178	0xbda71206	-0.081577346
179	0xbe486c54	-0.19572574
180	0xbe343aef	-0.17600606
181	0x3e3d4887	0.18484698
182	0x3e74dcb5	0.23912318
183	0x3d8c1f33	0.06841888
184	0xbd1fb355	-0.038989384
185	0x3c5c64a0	0.013451725
186	0x3e63af48	0.22234833
187	0x3e15f164	0.14642864
188	0xbe2ba537	-0.16762243
189	0x3db260b6	0.087098524
190	0x3e39cfc6	0.18145666
191	0x3e3717cf	0.17880176
192	0xbe7534be	-0.23945901
193	0xbd4c1ada	-0.049830295
194	0x3d05a512	0.032628126
195	0x3e3c6e44	0.18401438
196	0xbdc74863	-0.097306035
197	0x3d6c39b2	0.05767221
198	0x3e082e68	0.13298953
199	0xbbdfe7a4	-0.0068330336
200	0xbda252f6	-0.0792598
201	0xbe368e4b	-0.17827718
202	0xbe1a078e	-0.15041944
203	0xbe7f3995	-0.2492431
204	0x3d7d21b5	0.061799724
205	0x3e26b257	0.16278969
206	0x3da4ea4b	0.080525
207	0x3d10231b	0.03518973
208	0x3cde531d	0.02713924
209	0x3e67cd06	0.22636804
210	0x3e0436a1	0.12911464
211	0x3df484b7	0.11939376
212	0x3e2f7c45	0.17137249
213	0xbe286608	-0.16445172
214	0xbe1baeac	-0.15203351
215	0x3e7e24db	0.24818747
216	0xbe1b1418	-0.15144384
217	0x3d87380b	0.06602486
218	0xbe04ec4d	-0.12980767
219	0x3e688da8	0.22710288
220	0x3df38a3b	0.118916
221	0x3e2b6045	0.16735943
222	0xbd5a7c6b	-0.05334131
223	0x3e277be9	0.16355862
224	0x3db1d306	0.08682828
225	0x3dece585	0.11567215
226	0xbe08dbd4	-0.13365108
227	0x3dc85f0d	0.097837545
228	0x3e028763	0.12746958
229	0x3e521414	0.20515472
230	0xbe63f310	-0.2226069
231	0xbe0b9f9e	-0.13635108
232	0x3e12ba27	0.14328824
233	0xbdfe9ed2	-0.12432636
234	0xbe50b95e	-0.20383212
235	0x3d630e41	0.055433515
236	0x3c4ccbc1	0.012499751
237	0x3e950345	0.29104057
238	0xbd6cb94d	-0.057793904
239	0x3deeda56	0.11662738
240	0xbdc14186	-0.09436326
241	0x3dfae7d7	0.12251251
242	0x3e343653	0.17598848
243	0x3e158428	0.14601195
244	0xbdb5d63c	-0.088787526
245	0x3dae5f08	0.085142195
246	0xbd8a586a	-0.06755145
247	0x3e258417	0.1616367
248	0x3e24d160	0.16095495
249	0x3e60c4bb	0.21950047
250	0x3ddd408a	0.108033255
251	0x3d889fc5	0.066710986
252	0x3e188ec3	0.1489821
253	0x3e4164b6	0.18886074
254	0x3dfdaaf8	0.12386125
255	0xbe885184	-0.2662469

fc2.bias f4 [13]
0	0xbdd4df89	-0.103941984
1	0xbde358f5	-0.111009516
2	0x3b1a11cd	0.0023509145
3	0x3e25e6d2	0.16201332
4	0x3d136c75	0.035992105
5	0xbe487724	-0.19576699
6	0xbddb944e	-0.10721646
7	0xbcb20e6a	-0.021735389
8	0x3e0295de	0.12752482
9	0x3e15612b	0.14587848
10	0xbd6fd1d5	-0.05854972
11	0x3dc06dd8	0.09395951
12	0xbd93412e	-0.071901664
