conv_net_model.ckpt (torch, 133338 bytes, 22 tensors)

layer1.0.weight f4 [16, 3, 3, 3]
0	0xbe3d36b7	-0.18477903
1	0xbda9999e	-0.08281253
2	0x3e08cc83	0.13359265
3	0x3c08ffc3	0.00836176
4	0x3dbf6eb3	0.09347286
5	0x3da5a8c1	0.08088828
6	0xbd120750	-0.035651505
7	0x3d647671	0.055777017
8	0xbe1e478c	-0.1545698
9	0x3d218b21	0.039439324
10	0x3e2ef67b	0.17086212
11	0x3de32065	0.11090163
12	0xbdfd24de	-0.123605475
13	0xbd4a022a	-0.04931847
14	0x3db2fdf4	0.08739844
15	0xbd9571f9	-0.07297129
16	0x3ca68038	0.020324811
17	0xbe4620d5	-0.19348462
18	0x3c9f6f58	0.019462273
19	0x3e0f6880	0.14004707
20	0xbdbd4a00	-0.0924263
21	0x3e299f30	0.16564631
22	0x3e09b4a3	0.13447814
23	0xbd276661	-0.04086912
24	0xbd734bb2	-0.05939836
25	0xbc120ede	-0.008914677
26	0xbe494e78	-0.1965884
27	0xbdf037e9	-0.11729414
28	0x3d342e5a	0.043989517
29	0xbe3efe38	-0.18651664
30	0xbe3a58eb	-0.18197982
31	0x3dee0d12	0.11623587
32	0xbd2bd780	-0.041953564
33	0xbdad1034	-0.08450356
34	0xbd1c7ecd	-0.038206864
35	0xbe407d09	-0.18797697
36	0xbc9f2afc	-0.019429676
37	0x3dd52f5a	0.10409422
38	0x3df786d6	0.12086265
39	0x3d9143fa	0.070930436
40	0x3d96f5c0	0.07371092
41	0x3d43b213	0.047777247
42	0xbc8fe081	-0.017563106
43	0x3de15a3d	0.1100354
44	0x3debadb9	0.11507744
45	0x3e2aa99b	0.16666262
46	0x3de7476a	0.11292918
47	0xbc87988c	-0.016552232
48	0xbe5d8d3b	-0.21635906
49	0x3dd0af45	0.1018968
50	0x3e230ac0	0.1592207
51	0xbe208a1a	-0.15677682
52	0xbe4acf57	-0.19805656
53	0x3dd559ea	0.1041754
54	0xb908e460	-0.00013055047
55	0xbe0c44d8	-0.13698137
56	0xbe339b8e	-0.17539808
57	0xbdae14b9	-0.08500046
58	0xbd85b80d	-0.065292455
59	0xbe5aa352	-0.21351364
60	0x3e17564d	0.14779015
61	0x3c3836a5	0.011243497
62	0xbdc18ad5	-0.09450308
63	0xbe41903c	-0.18902677
64	0x3de97294	0.11398807
65	0x3c5eeb29	0.013605871
66	0xbdbafb32	-0.09129943
67	0x3c44300a	0.011974344
68	0x3e1fd7c7	0.15609656
69	0x3d8361b5	0.064151205
70	0x3d745cc9	0.0596588
71	0x3e0ef621	0.13961078
72	0x3e32129d	0.17389913
73	0x3dfce5ee	0.12348543
74	0xbda7ea2f	-0.08198964
75	0x3d911549	0.07084138
76	0x3e07bf39	0.1325654
77	0x3b53f3f6	0.0032341457
78	0xbe0c2eca	-0.13689724
79	0x3df6a9c9	0.12044103
80	0xbda59645	-0.08085302
81	0x3de67d57	0.112543754
82	0x3ccd0dc2	0.025030974
83	0x3d05b8db	0.032646995
84	0xbcdecdba	-0.027197707
85	0xbe3498fe	-0.17636487
86	0x3e1f940c	0.15583819
87	0x3df10598	0.11768645
88	0xbd69a5b2	-0.057042785
89	0xbd4a0a51	-0.049326245
90	0x3e2ca297	0.16858898
91	0x3d2d8768	0.04236546
92	0xbe1f21e2	-0.15540269
93	0xbdfc291e	-0.1231253
94	0xbe517117	-0.20453297
95	0xbe064147	-0.13110839
96	0x3e1420f2	0.14465693
97	0x3deb54b4	0.11490765
98	0xbd982807	-0.074295096
99	0xbdb8f202	-0.09030534
100	0x3e0a234e	0.1349003
101	0xbe0aa485	-0.13539322
102	0xbdfbf503	-0.12302592
103	0xbc1aec6b	-0.0094557805
104	0x3b2b3378	0.0026123207
105	0xbcd96b0a	-0.026540298
106	0x3d7b1ee0	0.06130874
107	0x3e30fc69	0.17283787
108	0xbcf2da5f	-0.029645143
109	0xbb9253bd	-0.004465549
110	0x3bef0c90	0.0072951987
111	0x3e28784d	0.16452141
112	0x3d7cab24	0.06168665
113	0x3c9aa023	0.018875187
114	0x3d06cf44	0.032912508
115	0x3e262b14	0.1622737
116	0x3dc10909	0.094255514
117	0xb9800d4c	-0.0002442397
118	0x3d096a33	0.033548545
119	0xbe20136a	-0.15632406
120	0xbda38b0e	-0.07985507
121	0xbda7cf49	-0.081938334
122	0x3e2e5efa	0.17028418
123	0xbe2045e5	-0.15651663
124	0xbdc28c60	-0.09499431
125	0x3e39fde5	0.1816326
126	0xbbdab09c	-0.0066738855
127	0xbd73837d	-0.05945157
128	0xbc8ecafb	-0.017430773
129	0xbd5694a9	-0.052387867
130	0x3e0978ca	0.13424984
131	0x3e0da11d	0.13830991
132	0x3e2710d2	0.1631501
133	0x3d826099	0.06366081
134	0xbc627e93	-0.013824123
135	0x3d63a2c2	0.05557514
136	0x3c12601f	0.00893405
137	0xbdc24dff	-0.09487533
138	0xbd2b317b	-0.041795235
139	0xbe08f541	-0.13374807
140	0x3dc4652c	0.095896095
141	0xbd1c3fb8	-0.038146704
142	0xbde21234	-0.11038628
143	0x3e02b4b5	0.12764247
144	0xbe568ab4	-0.20951349
145	0xbd2303db	-0.0397986
146	0xbe50c990	-0.2038939
147	0x3df7d1f9	0.12100596
148	0x3e1f2dbc	0.1554479
149	0x3e16f27e	0.14740941
150	0xbd53ae4b	-0.05167989
151	0x3db2c6d0	0.08729327
152	0x3e3b7772	0.18307284
153	0xbe05ae3e	-0.1305475
154	0xbe599084	-0.21246535
155	0x3e005e76	0.12536034
156	0xbe15e122	-0.14636663
157	0x3d0dcea9	0.034620915
158	0x3b22fed4	0.0024871128
159	0x3d78b68c	0.060720965
160	0x3da07b0d	0.0783597
161	0x3dd0fcaf	0.102044456
162	0xbd94b4b7	-0.07261031
163	0xbe192ee6	-0.14959297
164	0x3e12d76c	0.1433999
165	0xbe3466f6	-0.17617401
166	0x3d2dd635	0.042440612
167	0xbd2d7e51	-0.042356793
168	0xbcf93a28	-0.030423239
169	0x3e1838df	0.14865445
170	0xbe18b8f0	-0.14914298
171	0xbb248c83	-0.0025108166
172	0x3d996db9	0.07491631
173	0x3cc2fe44	0.023802884
174	0x3e20741c	0.15669292
175	0x3e1031b6	0.14081463
176	0xbe124063	-0.14282374
177	0xbe1c8069	-0.1528336
178	0x3d38d044	0.045120493
179	0xbdb2e9de	-0.08736013
180	0x3d870558	0.06592816
181	0x3cfc1379	0.030771004
182	0xbb961d8d	-0.0045811594
183	0xbe107685	-0.14107712
184	0x3d21c69d	0.039496053
185	0x3d8d8754	0.069105774
186	0x3e3fd7d2	0.18734673
187	0x3e300575	0.17189582
188	0xbe3eddba	-0.1863927
189	0x3d8e8329	0.069586106
190	0x3d8873da	0.06662722
191	0xbcaa2544	-0.020769723
192	0xbdd4d6c2	-0.10392524
193	0x3c9aac15	0.018880883
194	0xbe05eeb8	-0.13079345
195	0xbdc85874	-0.09782496
196	0xbe483fca	-0.19555584
197	0xbb54e1cc	-0.0032483218
198	0x3d9afb06	0.0756741
199	0x3e04fdab	0.12987392
200	0x3e1cb03f	0.15301608
201	0x3e2f9409	0.17146315
202	0x3d6f591c	0.05843459
203	0x3e047ae5	0.12937506
204	0x3d3edf48	0.046599656
205	0xbdcbe698	-0.09956092
206	0xbdc37b1f	-0.09544968
207	0xbe079360	-0.13239813
208	0xbe1e6dc3	-0.15471558
209	0xbdaea781	-0.085280426
210	0x3cc387ba	0.02386843
211	0xbdef1d47	-0.11675506
212	0x3e17fc45	0.14842327
213	0x3d16a96a	0.03678266
214	0xbc913df9	-0.017729746
215	0x3dc23127	0.09482031
216	0x3d9f26f1	0.07771099
217	0xbdc997b7	-0.098433904
218	0xbdf5be5a	-0.11999197
219	0x3cd06960	0.025440872
220	0x3c9f8798	0.019473836
221	0x3d1734bc	0.036915526
222	0xba291651	-0.0006450164
223	0xbd86ec87	-0.06588083
224	0xbdc29555	-0.09501139
225	0x3d1ac84e	0.03778868
226	0xbcf2b66c	-0.029628001
227	0xbdba3175	-0.090914644
228	0x3e3f0dc3	0.18657593
229	0xbde5ede6	-0.11227016
230	0xbca04d80	-0.019568205
231	0x3d948fc1	0.072539814
232	0x3d897ff2	0.06713857
233	0xbe4a5ae0	-0.19761229
234	0x3daaa0a5	0.08331422
235	0x3e05a06b	0.13049476
236	0x3d851168	0.064974606
237	0x3da41890	0.080124974
238	0x3dde5024	0.10855129
239	0xbdc34dba	-0.095363095
240	0x3e31340f	0.17305015
241	0xbdda1464	-0.106484205
242	0xbe58b84a	-0.2116405
243	0xbdfd263e	-0.1236081
244	0x3d2075f1	0.039174978
245	0xbca2e844	-0.019886144
246	0xbbe608a7	-0.0070200744
247	0x3e41858b	0.18898599
248	0xbe404f3a	-0.18780223
249	0xbdf5c0de	-0.11999677
250	0xbce82c75	-0.028341511
251	0xbda5d792	-0.080977574
252	0x3e43b618	0.19112432
253	0xbd896d3c	-0.06710288
254	0xbd0bf152	-0.034165688
255	0xbd580f1d	-0.05274879

layer1.0.bias f4 [16]
0	0x3e038be4	0.12846333
1	0x3a851847	0.001015433
2	0xbe3d27b1	-0.18472172
3	0x3d873417	0.06601732
4	0xbd565bf4	-0.052333787
5	0x3dcf65f4	0.10126868
6	0x3dd62fd4	0.10458341
7	0x3e2c48c5	0.16824634
8	0xbda6d7c7	-0.08146625
9	0xbe5388c0	-0.20657635
10	0x3e2d9ebd	0.16955085
11	0xbd8a1b73	-0.06743517
12	0x3e408ae7	0.18802987
13	0x3e3a6fa5	0.18206652
14	0xbd79f471	-0.061024133
15	0x3c51c8e2	0.012804242

layer1.1.weight f4 [16]
0	0x3f830ecb	1.023889
1	0x3f85ba01	1.0447389
2	0x3f756c6d	0.9586857
3	0x3f82fe29	1.0233814
4	0x3f660d22	0.8986379
5	0x3f8d90e0	1.1059837
6	0x3f8065f5	1.0031115
7	0x3f7d506d	0.98950845
8	0x3f83f533	1.0309204
9	0x3f69d495	0.9134
10	0x3f8386b4	1.0275483
11	0x3f8324dc	1.0245624
12	0x3f72e132	0.9487487
13	0x3f830703	1.0236515
14	0x3f7a2046	0.97705495
15	0x3f7c62ae	0.98588073

layer1.1.bias f4 [16]
0	0x3cd06382	0.025438074
1	0x3d1d598a	0.03841547
2	0xbd19cf3d	-0.037551153
3	0x3d1a716b	0.03770582
4	0x3d135c36	0.03597661
5	0x3e03e90d	0.1288187
6	0x3d3b7acd	0.04577141
7	0xbda189ed	-0.078876354
8	0x3d6430e8	0.055710703
9	0x3dcc45d0	0.09974253
10	0xbd2e96e4	-0.04262437
11	0x3db21bb2	0.08696689
12	0xbd6ed730	-0.058310688
13	0xbe0cdd80	-0.1375637
14	0xbe32982e	-0.17440864
15	0x3d5c2bee	0.053752832

layer1.1.running_mean f4 [16]
0	0x3e0087d5	0.12551816
1	0xbd6319ee	-0.05544465
2	0xbe6fda52	-0.23423126
3	0x3df1d524	0.118082315
4	0xbe64b90f	-0.22336219
5	0x3dbac7f0	0.09120166
6	0x3da2754d	0.079325296
7	0x3e17369d	0.14766927
8	0xbdb52847	-0.08845573
9	0xbea27c1e	-0.3173532
10	0x3e29ada6	0.16570148
11	0xbd61b1f8	-0.055101365
12	0x3e85959b	0.26090702
13	0x3e62c6a3	0.22146086
14	0x3e3dcdce	0.1853554
15	0x3d89c043	0.06726124

layer1.1.running_var f4 [16]
0	0x3cd66a34	0.026173688
1	0x3d1be0c1	0.03805614
2	0x3ccec89a	0.025242139
3	0x3c7ad256	0.015308937
4	0x3df070bc	0.117402524
5	0x3d40ba21	0.047052506
6	0x3c5995d6	0.013280353
7	0x3c3cf252	0.011532383
8	0x3d570c76	0.052502118
9	0x3ce7a293	0.028275764
10	0x3cd4fd59	0.025999712
11	0x3d5132f9	0.051074002
12	0x3d179536	0.037007533
13	0x3d1f4bfe	0.03889083
14	0x3dfa5b55	0.122244515
15	0x3c8dd7b6	0.017314773

layer2.0.weight f4 [32, 16, 3, 3]
0	0xbdb7dac3	-0.08977272
1	0xbc84fa9c	-0.016232781
2	0xbd830754	-0.06397882
3	0xbdcd4e4f	-0.10024702
4	0xbd80f3f6	-0.06296532
5	0x3c348369	0.011017659
6	0xbd87a28d	-0.06622801
7	0xbb914ed8	-0.0044344477
8	0xbd374ad2	-0.04474909
9	0xbde7cdd7	-0.11318558
10	0xbd1fb510	-0.038991034
11	0xbd036ded	-0.032087255
12	0x3d92027a	0.071293786
13	0xbd85b2b4	-0.065282255
14	0xbd87f441	-0.066383846
15	0x3d3b0930	0.04566306
16	0xbdafe9fe	-0.08589552
17	0xbd0530a8	-0.032517105
18	0x3d2dd8e0	0.042443156
19	0x3d95aed9	0.0730874
20	0xbc8003cd	-0.015626812
21	0x3d3ab125	0.045579094
22	0x3d819769	0.06327707
23	0x3badce82	0.0053041587
24	0xbcf826f1	-0.030292006
25	0x3d0b6bc3	0.034038316
26	0xbd3ed569	-0.046590243
27	0x3c48467e	0.012223838
28	0x3d7f39cd	0.062310982
29	0x3d881ea1	0.06646467
30	0xbd6bffc1	-0.057616953
31	0x3c911f0a	0.017714996
32	0xbdbeb377	-0.09311574
33	0xbda8a658	-0.082348526
34	0xbd80c93e	-0.06288384
35	0xbd72da2e	-0.059290104
36	0x3d137d27	0.036008026
37	0xbc9d0d35	-0.019171337
38	0x3d288538	0.041142672
39	0xbdc2aa54	-0.09505144
40	0xbdcff20b	-0.10153588
41	0x3c489b0e	0.012243999
42	0x3d1e385c	0.038627967
43	0xbcd918b4	-0.026501037
44	0x3afba22c	0.0019198111
45	0x3db1b240	0.086765766
46	0x3c2cfc9b	0.010558273
47	0x3d267c22	0.040645726
48	0x3d4c8ce5	0.049939055
49	0x3da6a1d9	0.08136339
50	0xbc9d24b8	-0.019182548
51	0xbd183262	-0.037157424
52	0xbdab6763	-0.08369329
53	0xbce88e7e	-0.028388258
54	0xbd4d5cd3	-0.050137352
55	0xbd16d198	-0.036820978
56	0x39eb4e43	0.00044881002
57	0xbd083bed	-0.033260275
58	0xbd79d1b4	-0.060991004
59	0x3d9796c2	0.07401802
60	0xbd0b9b81	-0.034083847
61	0x3ca35ef2	0.019942734
62	0xbc32d3d5	-0.0109147625
63	0xbcc03135	-0.023460964
64	0x3d20f5bf	0.03929686
65	0x3d0ec294	0.034853533
66	0xbc6c162b	-0.014409582
67	0xbd941222	-0.07230021
68	0xbc47adb3	-0.012187409
69	0xbca89736	-0.020579915
70	0x3ce65c96	0.02812032
71	0x3cdccf3d	0.026954288
72	0x3d10cac7	0.035349634
73	0xbda3c621	-0.079967745
74	0x3ad3ef39	0.0016169316
75	0xbd21b97b	-0.03948353
76	0xbd19a43b	-0.037510138
77	0x3d90a668	0.070629895
78	0xbd28075d	-0.041022647
79	0x3d96859d	0.073497035
80	0x3db4088f	0.08790695
81	0x3cbe47f4	0.02322767
82	0xbdcd2e84	-0.10018638
83	0x3cae221e	0.021256503
84	0x3cf85891	0.03031567
85	0xbd627161	-0.055283908
86	0x3c47a322	0.01218489
87	0x3d3628c5	0.044472475
88	0xbd05735a	-0.03258071
89	0xbd5250fd	-0.051346768
90	0x3d2a12c0	0.041521788
91	0x3d5ee5dc	0.05441843
92	0x3d800ed2	0.06252827
93	0xbdbe6fb1	-0.09298647
94	0x3c33d596	0.010976216
95	0xbe09456f	-0.13405393
96	0xbd19b876	-0.03752943
97	0xbd81c44e	-0.0633627
98	0xbd057fdd	-0.032592643
99	0x3bd54f0c	0.0065096673
100	0xbd6412f0	-0.055682123
101	0xbcbea5c6	-0.023272406
102	0xbc6746e6	-0.014116025
103	0xbd5ff759	-0.05467925
104	0xbcd7d186	-0.026345026
105	0x3dcd77cb	0.10032614
106	0xbdaa95ec	-0.083293766
107	0x3d603256	0.054735504
108	0xbc70e2aa	-0.014702478
109	0x3d77868f	0.06043106
110	0x3c8248f5	0.01590393
111	0xbd758530	-0.05994147
112	0xbd03a39a	-0.032138444
113	0xbcea6ae1	-0.028615417
114	0x3d290e3f	0.04127335
115	0x3b581f41	0.0032977613
116	0x3dbe308d	0.09286604
117	0x3d57eb05	0.052714366
118	0x3cf382e7	0.029725505
119	0x3dad725c	0.08469078
120	0x3d8f6249	0.07001168
121	0xbd466fea	-0.048446573
122	0x3d53731d	0.051623452
123	0xbdcfc03d	-0.101440884
124	0xbda6e14c	-0.08148441
125	0xbd1e2a6c	-0.038614675
126	0x3b4211f8	0.002961276
127	0x3d0b2b8d	0.03397708
128	0xbcc99720	-0.024608195
129	0xbd282851	-0.041054074
130	0x3c837beb	0.0160503
131	0x3c31a1bb	0.010841782
132	0xbbcb382a	-0.0062017636
133	0xbdb4f849	-0.08836419
134	0xbdb68b4c	-0.089132875
135	0xbcd3d75b	-0.025859525
136	0x3d083fd2	0.03326399
137	0xbd64b939	-0.055840705
138	0xbda51f92	-0.08062662
139	0xbda23373	-0.079199694
140	0xbd965ef8	-0.073423326
141	0xbcf7087d	-0.030155415
142	0xbcc13ee2	-0.023589555
143	0xbd76ffbc	-0.06030248
144	0xbd4fd045	-0.05073573
145	0xbda84165	-0.08215598
146	0xbdbd12ef	-0.09232127
147	0xbdda24aa	-0.10651524
148	0x3b138265	0.002250814
149	0x3d5528b5	0.052040774
150	0xbd922580	-0.07136059
151	0xbd299e65	-0.041410822
152	0xbc7d2ad0	-0.015452102
153	0x3c7db774	0.015485633
154	0x3d00ac44	0.031414285
155	0x3d86bb1a	0.065786555
156	0xbd38ecda	-0.045147754
157	0xbcb4b210	-0.022057563
158	0x3d5ec874	0.054390386
159	0xbcc96ca5	-0.024587939
160	0x3da795fa	0.08182903
161	0xbddf408e	-0.10900985
162	0x3c9878a0	0.018612206
163	0xbc142561	-0.009042115
164	0x3dac8648	0.084240496
165	0x39c8d30c	0.00038304215
166	0xbc774d9d	-0.015094188
167	0xbd8767f8	-0.06611627
168	0xbc95532e	-0.01822814
169	0x3d89e7c5	0.0673366
170	0x3d3cd960	0.046105742
171	0x3ca40f2e	0.02002677
172	0xbdb9c7cc	-0.09071311
173	0xbd84e40a	-0.064888075
174	0xbd2e088c	-0.04248862
175	0x3bab7b3a	0.0052331956
176	0x3b549563	0.0032437674
177	0xbd9e5b55	-0.07732264
178	0xbdd65c74	-0.10466853
179	0x3a1144dd	0.00055415725
180	0xbc4e4527	-0.012589729
181	0xbd0c9c57	-0.034328785
182	0xbda478fe	-0.0803089
183	0x3cd29e93	0.02571038
184	0xbc684f45	-0.014179056
185	0x3d624022	0.055236943
186	0xbbd187db	-0.006394369
187	0xbdb4f285	-0.088353194
188	0xbc344360	-0.011002392
189	0xbdf73b92	-0.12071909
190	0xbdbdc9d9	-0.09267015
191	0x3ce841c3	0.02835167
192	0xbd7ab16d	-0.061204363
193	0xbd3c95a7	-0.046041157
194	0x3d50715f	0.05088937
195	0xbd9be6d2	-0.07612385
196	0xbbf68821	-0.007523552
197	0x3d7ea46d	0.062168527
198	0x3d912567	0.07087212
199	0xbd1c24de	-0.038121097
200	0x3c83bc28	0.01608093
201	0x3d131a5e	0.035913818
202	0x3d31631c	0.04330741
203	0xbd7b8e14	-0.061414793
204	0xbd99885d	-0.07496712
205	0xbc47db01	-0.012198211
206	0xbc81295f	-0.015766798
207	0xbde9fcbc	-0.114251584
208	0xbd17daf0	-0.03707403
209	0xbdd57a67	-0.10423737
210	0xbca4481d	-0.020053918
211	0xbd69fe47	-0.057127263
212	0xbd82970e	-0.06376468
213	0xb9cc868f	-0.00039010166
214	0xbbd0d5b7	-0.006373133
215	0xbdb636ed	-0.08897195
216	0x3d79a4e8	0.060948282
217	0xbce9294d	-0.028462077
218	0xbc8292a0	-0.015939057
219	0x3d0dc012	0.034607
220	0xbd7b944e	-0.06142073
221	0x3daba908	0.083818495
222	0xbc46483d	-0.012102184
223	0xbd8e48a9	-0.069474526
224	0x3bfc170e	0.007693178
225	0x3d85c9e7	0.065326504
226	0x3d302f02	0.04301358
227	0xbd90de45	-0.070736445
228	0xbcb66430	-0.02226457
229	0x3d484985	0.04889824
230	0x3d4cce51	0.050001446
231	0x3d804eae	0.06265007
232	0x3d28f134	0.041245654
233	0xbd0c3826	-0.034233235
234	0xbdcc04d6	-0.0996186
235	0xbc200b7d	-0.009768364
236	0xbd144bd1	-0.036205117
237	0x3cbeb0ee	0.023277726
238	0xbdb711fd	-0.08938978
239	0xbbcc538d	-0.006235546
240	0x3b0a949f	0.0021145714
241	0xbce2383f	-0.02761471
242	0xbd766b69	-0.060161028
243	0xbbaa4456	-0.0051961346
244	0x3d8d4675	0.06898204
245	0x3c5108a5	0.012758409
246	0xbb289899	-0.002572572
247	0x3d28fdf1	0.041257802
248	0xbd038d49	-0.032117162
249	0xbac96421	-0.0015364924
250	0x3b080ad2	0.0020758403
251	0xbcad76f7	-0.02117489
252	0x3baa7477	0.005201872
253	0x3c35f538	0.011105828
254	0x3d29d814	0.041465834
255	0x3d699e06	0.05703547

layer2.0.bias f4 [32]
0	0xbc1f795d	-0.009733525
1	0xbd65158a	-0.055928744
2	0xbd86572b	-0.06559595
3	0x3cecc072	0.028900359
4	0x3ca03ed3	0.019561207
5	0x3d2d4751	0.04230434
6	0xbd160e3c	-0.03663467
7	0x3d478067	0.04870644
8	0xbc5c6457	-0.013451657
9	0xbd18b584	-0.03728248
10	0x3daf35c2	0.08555175
11	0x3d753fcf	0.059875306
12	0xbc11fd21	-0.008910448
13	0xbd2085ad	-0.039189983
14	0x3d0d03ff	0.03442764
15	0xbd7eaf3c	-0.062178835
16	0x3d37195f	0.04470193
17	0xbd5ddcc1	-0.054165605
18	0xbd10cea2	-0.03535331
19	0xbb22313f	-0.0024748591
20	0x3d183d99	0.03716812
21	0xbd2746a5	-0.040838856
22	0xbd869903	-0.065721534
23	0x3cc6f092	0.024284635
24	0xbd5c78d8	-0.053826183
25	0xbc90e18a	-0.01768567
26	0xbd75c1aa	-0.059999146
27	0xbcedeafd	-0.029042715
28	0x3daf245a	0.085518554
29	0x3cfd407f	0.030914543
30	0x3bc4d04e	0.006006277
31	0xbd512bff	-0.05106735

layer2.1.weight f4 [32]
0	0x3f93d4a6	1.154927
1	0x3f89f41a	1.0777619
2	0x3f73444e	0.950261
3	0x3f834307	1.025483
4	0x3f804bdc	1.002315
5	0x3f806b85	1.0032812
6	0x3f55b966	0.8348602
7	0x3f827038	1.0190496
8	0x3f741160	0.9533901
9	0x3f7b457b	0.98152894
10	0x3f765077	0.9621653
11	0x3f89b091	1.0757009
12	0x3f80cbb1	1.0062162
13	0x3f7d64aa	0.98981726
14	0x3f7aee22	0.9801961
15	0x3f849923	1.0359234
16	0x3f814bec	1.0101295
17	0x3f7e594e	0.9935502
18	0x3f78224e	0.96927345
19	0x3f8a3025	1.0795943
20	0x3f7db580	0.9910507
21	0x3f61b864	0.8817198
22	0x3f87407d	1.0566555
23	0x3f83390b	1.0251783
24	0x3f778ce6	0.9669937
25	0x3f7be661	0.98398405
26	0x3f76e06d	0.96436197
27	0x3f7d919a	0.99050295
28	0x3f71601e	0.9428729
29	0x3f6fa968	0.9361787
30	0x3f665c89	0.8998495
31	0x3f87a2b6	1.059653

layer2.1.bias f4 [32]
0	0xbe38126b	-0.17975776
1	0xbe3c71f0	-0.18402839
2	0xbe1411c5	-0.14459904
3	0xbe15415e	-0.14575717
4	0xbe2f8f21	-0.17144443
5	0xbde2c46b	-0.1107262
6	0xbdb07f20	-0.08617997
7	0xbdc0e186	-0.09418015
8	0xbe216893	-0.15762548
9	0xbe2b01e9	-0.16699947
10	0xbe1c04cd	-0.15236206
11	0xbe13811f	-0.14404725
12	0xbd8fd720	-0.07023454
13	0xbdeed8de	-0.11662458
14	0xbd44f728	-0.04808727
15	0xbe6d2608	-0.23159039
16	0xbd53130a	-0.05153183
17	0x3a1330c8	0.0005614874
18	0xbe25596a	-0.1614739
19	0xbe7248a5	-0.23660524
20	0xbe3d430a	-0.18482605
21	0xbe0f2627	-0.13979398
22	0xbe7c260d	-0.2462389
23	0xbe1bde67	-0.15221559
24	0xbdc36f30	-0.09542692
25	0xbe02968e	-0.12752745
26	0xbd846f5b	-0.06466552
27	0xbd731e1d	-0.05935489
28	0xbe492b4f	-0.19645427
29	0xbdd9a779	-0.10627646
30	0xbd6e2caf	-0.058148082
31	0xbe18a590	-0.14906907

layer2.1.running_mean f4 [32]
0	0xbf776200	-0.9663391
1	0xbf24d40e	-0.6438607
2	0xbf8e080f	-1.1096209
3	0xbeb6a088	-0.3566935
4	0xbf27bbf2	-0.65521157
5	0xbedc7db7	-0.43064663
6	0xbf1b9988	-0.60781145
7	0xbf25e95b	-0.648092
8	0xbe957052	-0.29187256
9	0xbfa34060	-1.2754021
10	0xbf1bf164	-0.6091521
11	0xbf20ab31	-0.6276122
12	0xbf34af45	-0.7057994
13	0xbf278e80	-0.6545181
14	0xbf248038	-0.64258146
15	0xbf58f4e8	-0.847487
16	0xbefbda1c	-0.49189842
17	0xbec35ca0	-0.38156605
18	0xbf3016f9	-0.68785053
19	0xbeffe522	-0.49979502
20	0xbf0767a1	-0.528925
21	0xbe206a49	-0.15665545
22	0xbf508fc8	-0.8146939
23	0xbee0bb82	-0.43893057
24	0xbefa84bb	-0.4892939
25	0x3de6d344	0.112707645
26	0xbeb6c866	-0.35699767
27	0xbf11c982	-0.569481
28	0xbf1d8f9a	-0.61547244
29	0xbf10555a	-0.56380236
30	0xbe1266bc	-0.14297003
31	0xbf89d321	-1.0767556

layer2.1.running_var f4 [32]
0	0x3f04aef9	0.5182949
1	0x3e8a9da5	0.27073398
2	0x3f36af0f	0.7136087
3	0x3e84da83	0.2594796
4	0x3ec4322a	0.38319522
5	0x3e819ad1	0.25313428
6	0x3ea2b617	0.3177955
7	0x3ea1e39b	0.31618962
8	0x3ec64580	0.387249
9	0x3f3d6697	0.73984665
10	0x3f3bfff1	0.7343741
11	0x3eb26e9e	0.3485002
12	0x3eb8301e	0.3597421
13	0x3ea5c11d	0.32373896
14	0x3e9b5b27	0.3034298
15	0x3ed7e882	0.42169577
16	0x3edb6f82	0.4285851
17	0x3e7257b5	0.2366627
18	0x3f08841f	0.533266
19	0x3e8bbd37	0.27292797
20	0x3ec4ff82	0.38476187
21	0x3ea672a1	0.3250933
22	0x3f021692	0.5081569
23	0x3ea1d0ba	0.31604558
24	0x3e6aeb40	0.22941303
25	0x3ec5d063	0.3863555
26	0x3e51230b	0.20423524
27	0x3e5171db	0.20453589
28	0x3e920aab	0.28523764
29	0x3e7d4a1b	0.247353
30	0x3eb03f2c	0.34423196
31	0x3f123097	0.5710539

layer3.0.weight f4 [32, 32, 3, 3]
0	0x3dcf10eb	0.10110649
1	0xbd33e708	-0.0439215
2	0xbcf385e4	-0.02972693
3	0x3cdbd52d	0.026835049
4	0xbdd156be	-0.10221623
5	0xbd13fb6e	-0.036128454
6	0x3cff83a5	0.031190703
7	0x3a30f3f3	0.00067502185
8	0xbd600889	-0.05469564
9	0x3d2d1026	0.04225173
10	0xbd563c27	-0.05230346
11	0xbdaa4636	-0.08314173
12	0x3c7a039b	0.015259649
13	0x3d36cdd8	0.0446299
14	0x3d0a8f43	0.03382803
15	0xbc17e7dd	-0.009271589
16	0xbc085706	-0.008321529
17	0x3d9653d5	0.073402084
18	0x3d8f5c85	0.070000686
19	0x3c85d1c3	0.016335374
20	0x3d51867f	0.051153656
21	0x3d1f5c28	0.038906246
22	0x3c68c089	0.01420606
23	0x3c64fcdf	0.013976305
24	0x3d982f3e	0.07430886
25	0xbc73adb1	-0.014872954
26	0xbc77cd66	-0.015124654
27	0xbd52a07f	-0.051422592
28	0x3de62468	0.11237413
29	0xbc3bc0d7	-0.011459551
30	0xbd1fbd05	-0.038998622
31	0x3d151e99	0.036406133
32	0xbd9e17a4	-0.07719353
33	0x3d38429f	0.04498541
34	0x3d8417e7	0.064498715
35	0xbd4380ac	-0.047730133
36	0xbba34dfb	-0.004983661
37	0xbd6c044b	-0.05762128
38	0xbd1ab797	-0.03777274
39	0xbc892774	-0.016742446
40	0x3d76e4f0	0.060276926
41	0x3d2835f2	0.04106707
42	0x3cf3a9dc	0.029744081
43	0x3d696846	0.05698421
44	0x3dad38a4	0.08458069
45	0xbd65abc0	-0.056071997
46	0xbd23c186	-0.03997948
47	0xbde17e53	-0.110104226
48	0x3d9a7ea8	0.07543689
49	0x3d8f5cb6	0.07000105
50	0x3d872782	0.065993324
51	0xbd71745c	-0.05894886
52	0xbc6a4279	-0.014298075
53	0x3c85fdbc	0.016356342
54	0xbd80b4b2	-0.06284465
55	0xbbcbc657	-0.0062187123
56	0xbd9e984e	-0.077438936
57	0x3c08cafe	0.008349178
58	0xbc433bf1	-0.011916147
59	0x3d3f4364	0.046695128
60	0x3c9f505d	0.0194475
61	0xbc394961	-0.011308999
62	0x3c8a911e	0.0169149
63	0xbce51382	-0.027963404
64	0xbb07391a	-0.00206334
65	0xbba26f54	-0.004957119
66	0x3d8c03f6	0.06836693
67	0x3dd0c54f	0.10193884
68	0xba43837f	-0.0007458254
69	0xbd1cc140	-0.038270235
70	0x3aa7a953	0.0012791551
71	0xbbe840b3	-0.007087791
72	0xbc8505db	-0.016238144
73	0xbcc0275c	-0.023456268
74	0xbd0dd53e	-0.03462719
75	0x3d6a87f0	0.057258546
76	0x3d7209f9	0.059091542
77	0x3d942883	0.072342895
78	0xbc67092a	-0.014101306
79	0x3d67b143	0.056565534
80	0x3cb7aa32	0.022420023
81	0x3d0cfb35	0.034419257
82	0xbbd0f73f	-0.0063771303
83	0xbc6edb06	-0.014578586
84	0xbd45f346	-0.048327707
85	0x3d1afbb8	0.037837714
86	0x3c9b909b	0.018989852
87	0x3cd9753d	0.026545161
88	0xbcd7c79a	-0.026340295
89	0xbd733fd7	-0.059387054
90	0x3cfdc9d2	0.030980024
91	0xbc952859	-0.018207716
92	0xbcfd6a01	-0.030934336
93	0x3d138cbb	0.036022883
94	0x3b965e00	0.0045888424
95	0x3d7482c2	0.059695013
96	0xbbee6fdc	-0.0072765183
97	0xbc085475	-0.008320917
98	0x3d714b8f	0.05890995
99	0xbd82c398	-0.06384963
100	0xbe2c9d9b	-0.16856997
101	0xbd5379db	-0.051629882
102	0x3d19b4bb	0.037525874
103	0x3b57c8c2	0.0032926057
104	0xbc7d910d	-0.015476477
105	0x3d7c11a7	0.061540272
106	0xbcd6e6ce	-0.026233103
107	0x3d080815	0.033210833
108	0xba82fab5	-0.0009992929
109	0x3d8791cd	0.06619606
110	0x3c314971	0.010820732
111	0x3c980a51	0.018559607
112	0xbd4d59da	-0.050134517
113	0xbd3dbb27	-0.04632106
114	0xbd40f905	-0.047112484
115	0xbc088b87	-0.008334047
116	0x3d3e46fd	0.04645442
117	0xbbb55a39	-0.005534437
118	0xbbc37f1b	-0.00596608
119	0x3b2ad6f5	0.0026068066
120	0x3d473b3f	0.048640486
121	0x3d233119	0.039841745
122	0x3daf4969	0.08558924
123	0x3b50a2bc	0.0031835278
124	0xbd968920	-0.07350373
125	0xbd689629	-0.05678383
126	0x3d21c42c	0.039493725
127	0x3cc456b9	0.023967134
128	0x3d864c9e	0.06557582
129	0x3cab2abc	0.0208944
130	0xbbc1426b	-0.00589781
131	0x3d026ee9	0.031844053
132	0xbb2d53ac	-0.0026447577
133	0xbcc56608	-0.024096504
134	0xbb260da3	-0.0025337718
135	0xbd8f3631	-0.06992758
136	0xbd002311	-0.031283442
137	0xbd184b90	-0.037181437
138	0xbdc2b6fe	-0.09507559
139	0x3c3d9872	0.01157199
140	0x3db33079	0.0874948
141	0x3af2644f	0.0018493029
142	0x3da86fdc	0.082244605
143	0x3d8e69b6	0.069537565
144	0x3c58e2e7	0.0132376915
145	0xbd372597	-0.044713583
146	0x3c215255	0.00984629
147	0x3c43c5b3	0.011948991
148	0x3c21a87c	0.00986683
149	0xbad18030	-0.0015983637
150	0xbb8d1774	-0.0043057743
151	0x3cecdf54	0.028915085
152	0xbd33711f	-0.043809053
153	0xbd2db556	-0.042409264
154	0xbcffca68	-0.031224445
155	0x3d574e04	0.052564636
156	0xbd30cc3f	-0.043163534
157	0x3cd7a852	0.026325379
158	0xbc8132dc	-0.015771322
159	0xb9f3f732	-0.00046532747
160	0xbd89f88a	-0.06736858
161	0x3ca520a1	0.02015716
162	0xbbb95ccd	-0.0056568147
163	0x3d193e10	0.037412703
164	0xbd524adb	-0.05134092
165	0xbb207f64	-0.0024489993
166	0xbd26e84f	-0.04074889
167	0x3d045035	0.032303054
168	0xbd441882	-0.047874935
169	0xbcf20c7a	-0.029546965
170	0x3d2387ed	0.03992455
171	0xbc5d7638	-0.013516955
172	0x3d8a8bc4	0.067649394
173	0x3d2f105e	0.04274022
174	0xbb2c8f56	-0.0026330552
175	0xbc4358c5	-0.01192302
176	0xbd8fe9db	-0.07027026
177	0xbc5207c9	-0.012819239
178	0xbc163db2	-0.009169983
179	0xbb98cca0	-0.004663065
180	0xbd4de365	-0.05026569
181	0x3bfcfacc	0.007720327
182	0x3dba81ed	0.091068126
183	0x3d85882d	0.06520114
184	0x3c0d1023	0.008609804
185	0xbcbfa587	-0.02339436
186	0xbd61dc7b	-0.055141907
187	0xbd469600	-0.048482895
188	0xbc9e807d	-0.019348377
189	0x3cfb35ce	0.030665305
190	0xbd3b2564	-0.045689955
191	0x3d0c9a24	0.034326687
192	0x3b84fa72	0.0040581757
193	0x3c008430	0.007844016
194	0xbc9de973	-0.019276356
195	0xbc0c2d57	-0.008555732
196	0x3d019541	0.03163648
197	0xbc69d222	-0.014271291
198	0xbbdc4a0c	-0.0067226943
199	0xbd08a5df	-0.033361312
200	0xbccae192	-0.024765763
201	0x3c2af8a1	0.010435254
202	0x3ac60f5f	0.0015110782
203	0xbc2ce751	-0.010553197
204	0x3cf5e1ae	0.030014839
205	0xbd3a2beb	-0.04545204
206	0x3cec6c96	0.028860372
207	0x3d1d5ae2	0.03841675
208	0x3d303852	0.04302246
209	0xbda17ca4	-0.078851014
210	0xbd7c54ac	-0.061604187
211	0xbd969c3c	-0.07354018
212	0xbd50a86b	-0.050941866
213	0xbc11eeb2	-0.008907007
214	0x3da813c1	0.08206893
215	0xbd12bf22	-0.03582681
216	0x3d333944	0.043755785
217	0xbc57cb95	-0.013171096
218	0x3d0f1b39	0.03493807
219	0xbdc86b17	-0.09786051
220	0xbd84f7c2	-0.064925686
221	0x3d14f3f5	0.036365468
222	0xbd2042c7	-0.039126184
223	0x3da7e4bf	0.08197927
224	0xbd822735	-0.063551344
225	0x3da0530f	0.07828342
226	0x3c9f4557	0.019442244
227	0xbc353253	-0.0110593615
228	0xbd03bb89	-0.03216127
229	0x3c9189e0	0.01776594
230	0xbd2963c4	-0.04135491
231	0x3d5b153c	0.053487048
232	0xbc6a05d5	-0.014283617
233	0xbc666ec8	-0.014064498
234	0xbc12ff11	-0.008971945
235	0x3bae607b	0.00532156
236	0xbc3e5039	-0.011615806
237	0x3cfe8427	0.031068875
238	0xbce20079	-0.027588116
239	0xbd22fd51	-0.039792363
240	0xbbe3a871	-0.00694757
241	0xbd1b73ae	-0.037952118
242	0x3cdef668	0.027217105
243	0xbb70984e	-0.0036711874
244	0xbd27b192	-0.04094083
245	0x3dd78089	0.10522563
246	0x3a14abd9	0.0005671359
247	0xbc67d0d5	-0.0141489105
248	0xbcfe0b92	-0.031011377
249	0x3b46ecb6	0.0030353493
250	0x3cc20cf3	0.023687815
251	0x3c50b065	0.012737368
252	0x3add974f	0.0016906055
253	0x3d9445eb	0.07239898
254	0x3d537318	0.051623434
255	0x3ca584c8	0.020204917

layer3.0.bias f4 [32]
0	0x3d45b18f	0.048265036
1	0xbc25a229	-0.010109463
2	0xbd3d0366	-0.04614582
3	0x3d1cdf43	0.038298856
4	0x3ce91bdf	0.028455673
5	0x3b0962e7	0.0020963491
6	0xbc79499b	-0.015215303
7	0x3d1f66ae	0.038916282
8	0x3c8dc6c2	0.01730669
9	0x3d603985	0.054742355
10	0xbbb88f0d	-0.0056322874
11	0x3b1dfd8c	0.0024107425
12	0x3d28353f	0.041066404
13	0x3cbf3b19	0.02334361
14	0xbc723857	-0.01478394
15	0x3d4c8d0b	0.049939197
16	0x3c9f6bb2	0.019460533
17	0xbd20149e	-0.039082162
18	0x3b6bfab1	0.0036007578
19	0x3d14b65c	0.036306724
20	0xbb93df42	-0.0045126984
21	0x3ba7d3dc	0.005121691
22	0x3b170fd7	0.0023050213
23	0x3c856969	0.016285615
24	0x3d1cf57f	0.03832006
25	0x3ce5a45d	0.028032476
26	0x3b938e88	0.004503075
27	0xbd49f185	-0.049302597
28	0x3cc06895	0.023487369
29	0xbd647aca	-0.055781163
30	0x3ce87da5	0.028380224
31	0xbd3f6813	-0.046730112

layer3.1.weight f4 [32]
0	0x3f991dbc	1.1962199
1	0x3f98970e	1.1921098
2	0x3f96ad24	1.1771588
3	0x3f97fb06	1.1873481
4	0x3f9cec89	1.2259685
5	0x3f9ad818	1.2097197
6	0x3f957dbc	1.1678996
7	0x3f9efb2f	1.2420405
8	0x3f9a3e03	1.2050174
9	0x3f9ab69a	1.2086976
10	0x3f9eaeb0	1.239706
11	0x3fa1be9a	1.2636292
12	0x3f9ca846	1.2238853
13	0x3f9d773f	1.2302016
14	0x3f9f4480	1.244278
15	0x3f953f6c	1.165998
16	0x3fa22bf4	1.2669663
17	0x3f9b739a	1.2144654
18	0x3fa60030	1.2968807
19	0x3f9a9dea	1.2079442
20	0x3f9582ed	1.168058
21	0x3f98bdad	1.1932884
22	0x3fa04d49	1.2523586
23	0x3f942fcb	1.1577085
24	0x3f940bc7	1.1566094
25	0x3fa0b425	1.2554976
26	0x3f9e7856	1.2380474
27	0x3f9fdc3e	1.2489088
28	0x3f983ce2	1.189358
29	0x3fa01945	1.2507712
30	0x3f9b8fcf	1.2153262
31	0x3f9fa608	1.2472544

layer3.1.bias f4 [32]
0	0xbdb50ce8	-0.08840352
1	0xbde5e7ef	-0.112258784
2	0xbd6de9eb	-0.05808441
3	0xbd056ba0	-0.032573342
4	0xbd9a4c43	-0.07534077
5	0xbd1928c4	-0.037392393
6	0xbdc2c268	-0.09509736
7	0xbde34cf6	-0.110986635
8	0xbdbbaf73	-0.09164324
9	0xbdcda58b	-0.100413404
10	0xbdef1d5b	-0.11675521
11	0xbdd3bf1c	-0.103391856
12	0xbde68076	-0.11254971
13	0xbd418842	-0.047249086
14	0xbd6b4907	-0.05744269
15	0xbccb4924	-0.02481515
16	0xbdeb8ba5	-0.115012445
17	0xbdde5816	-0.10856645
18	0xbdf3965a	-0.11893912
19	0xbd44f951	-0.04808933
20	0xbdb912a7	-0.09036761
21	0xbd9791f7	-0.074008875
22	0xbd9b9c04	-0.07598117
23	0xbd8aa4e8	-0.067697346
24	0xbd58e6ab	-0.052954357
25	0xbd989691	-0.07450593
26	0xbe0db63e	-0.13839051
27	0xbdbae3a8	-0.09125453
28	0xbd863658	-0.06553334
29	0xbe1178b7	-0.14206205
30	0xbe06bb84	-0.13157469
31	0xbdd1d1d9	-0.102451034

layer3.1.running_mean f4 [32]
0	0x3db6ea85	0.0893145
1	0x3d41960c	0.047262236
2	0x3e0e7a9d	0.13913961
3	0x3e232fc8	0.15936196
4	0x3ccbc3ce	0.02487364
5	0xbb970ca9	-0.0046096635
6	0xbe6acdce	-0.22930071
7	0x3eac5147	0.3365576
8	0xbd917f67	-0.07104378
9	0x3dc76f3d	0.09738014
10	0xbdecf2c0	-0.115697384
11	0xbd97cddf	-0.07412314
12	0x3ea12f14	0.3148123
13	0x3db9ca62	0.090718046
14	0x3c974f4f	0.018470434
15	0xbc4c62fe	-0.012474773
16	0x3e92ffa2	0.28710657
17	0x3e7de644	0.2479487
18	0x3cefadb5	0.029257635
19	0x3e2e3f7b	0.17016403
20	0xbdd37a5d	-0.10326073
21	0x3eb559fb	0.35420212
22	0xbed35593	-0.41276225
23	0x3ed899cd	0.4230484
24	0xbc50ed5e	-0.012751905
25	0xbce394e7	-0.027780963
26	0xbbe5c483	-0.0070119514
27	0x3e17342c	0.14765996
28	0xbd655b4d	-0.055995274
29	0x3e54cb1d	0.20780607
30	0x3e755f23	0.23962073
31	0xbd59a34e	-0.053134255

layer3.1.running_var f4 [32]
0	0x3e069846	0.13144025
1	0x3e17474b	0.1477329
2	0x3e0f5fe2	0.1400142
3	0x3e09b52b	0.13448016
4	0x3e0dce17	0.13848148
5	0x3df9986b	0.121872745
6	0x3dcce6f5	0.10004989
7	0x3e263496	0.16230997
8	0x3e2c45b0	0.16823459
9	0x3e0d4758	0.13796747
10	0x3e013580	0.12618065
11	0x3def16a8	0.11674243
12	0x3e124798	0.14285123
13	0x3e0a025c	0.13477463
14	0x3df3884e	0.118912324
15	0x3e1b1e45	0.15148266
16	0x3e201195	0.15631707
17	0x3e1e0873	0.1543291
18	0x3e18b585	0.14912994
19	0x3e07556f	0.13216184
20	0x3dce88f3	0.10084715
21	0x3e0a14b8	0.13484466
22	0x3e0295ed	0.12752505
23	0x3e157148	0.14593995
24	0x3e15cd77	0.1462916
25	0x3e02092c	0.12698811
26	0x3de11b68	0.109915555
27	0x3e18bb02	0.14915088
28	0x3e07e216	0.13269839
29	0x3e070610	0.13185906
30	0x3e2d9ea7	0.16955052
31	0x3e171bc6	0.14756688

fc1.weight f4 [32, 512]
0	0xbd43fdfb	-0.047849637
1	0x3d782a5f	0.060587283
2	0xbd277e29	-0.0408918
3	0x3acb79d8	0.0015523983
4	0xbc6f7f16	-0.014617702
5	0xbdce3984	-0.10069564
6	0xbd2f13ef	-0.04274362
7	0xbcd8f9d7	-0.02648632
8	0x3bc6b2f3	0.006063813
9	0x3d7a8673	0.061163377
10	0xbc4d9993	-0.012548822
11	0x3d811b73	0.06304064
12	0x3c9273b0	0.01787743
13	0x3bd21e84	0.006412329
14	0xbbe08643	-0.0068519427
15	0xbb836c73	-0.004010731
16	0xbd34b010	-0.04411322
17	0xbd3fba4c	-0.046808526
18	0xbcc56656	-0.02409665
19	0xbd2836cf	-0.041067895
20	0x3d5445ad	0.05182426
21	0x3d9cb0ac	0.07650885
22	0x3db245a7	0.087046914
23	0x3d16a98c	0.036782786
24	0x3d811e32	0.063045874
25	0x3d58b84e	0.05291014
26	0xbca36b23	-0.019948548
27	0x3d0da9e8	0.034585863
28	0x3c38a7e3	0.011270496
29	0xbdab2566	-0.083567426
30	0xbcdf5ccb	-0.027265927
31	0xbd22b4c5	-0.039723177
32	0xbbd627ba	-0.0065354975
33	0x3b77a972	0.0037790206
34	0xbc558d38	-0.013034157
35	0xbd25355c	-0.04033409
36	0x3ca25152	0.019814167
37	0xbd3a9a4e	-0.045557313
38	0xbdde1fb6	-0.10845892
39	0xbd0c2bd3	-0.03422148
40	0xbbe15d43	-0.0068775727
41	0x3d8c0fe3	0.06838968
42	0xbdb42f00	-0.08798027
43	0xbdc69beb	-0.09697708
44	0x3c646c75	0.013941874
45	0x3c4d3e2c	0.01252703
46	0xbd3a43a4	-0.045474663
47	0xbba2434b	-0.0049518696
48	0xbc0894a3	-0.008336219
49	0x3dc94d6f	0.098292224
50	0x3d080f6b	0.03321783
51	0xbd017fae	-0.031615905
52	0xbd50e0f2	-0.050995775
53	0x3b5bf5d4	0.0033563273
54	0x3d51a220	0.051180005
55	0x3b6c4841	0.003605381
56	0xbce69883	-0.028148895
57	0x3e00efaf	0.12591432
58	0x3e12fdd2	0.14354637
59	0xbaace933	-0.0013192057
60	0xbc72c6ea	-0.014817933
61	0xbd384046	-0.04498317
62	0xb9ef5350	-0.00045647705
63	0x3b948d78	0.004533466
64	0x3c74befd	0.014938113
65	0x3d9963f5	0.074897684
66	0x3c605305	0.013691668
67	0xbc8ab3bc	-0.016931407
68	0x3d2d9b40	0.042384386
69	0x3d76be0f	0.060239848
70	0x3ca3bfd2	0.019988928
71	0x3c7b52ab	0.015339534
72	0xbd0a5833	-0.03377552
73	0xbc9ae6f6	-0.018908959
74	0x3d87bddd	0.066280104
75	0x3c54e5cd	0.012994242
76	0xbd999c14	-0.07500473
77	0xbc9cfed8	-0.019164488
78	0xbd006998	-0.031350702
79	0xbd1f3e57	-0.03887781
80	0x3c7926d4	0.015207011
81	0x3ddb2e98	0.107022464
82	0x3b8c6e32	0.0042855972
83	0xbce93f31	-0.028472515
84	0x3cedc881	0.029026272
85	0x3d7de8e1	0.06198967
86	0xbbcec2a8	-0.006309826
87	0xbcbbf67d	-0.022944683
88	0xbd99cc76	-0.07509701
89	0xbd94416c	-0.07239041
90	0xbd263482	-0.04057742
91	0xbd7228ca	-0.05912093
92	0xbcd90411	-0.026491197
93	0x3c5da3c3	0.013527813
94	0xbcc5681a	-0.024097491
95	0xbd888c63	-0.06667402
96	0x3cbd9eb0	0.023146957
97	0x3cb061af	0.021530954
98	0xbd45943a	-0.048237063
99	0xbc3ccbdf	-0.011523216
100	0x3d4cb824	0.049980298
101	0xbd96697c	-0.07344338
102	0x3d4c8457	0.049930897
103	0xbd943c57	-0.072380714
104	0x3d415216	0.047197424
105	0x3cb7a213	0.02241615
106	0x3dbc6c86	0.09200387
107	0x3ce4cb8e	0.027929094
108	0x3d0225d1	0.031774346
109	0x3c3602e9	0.011109092
110	0xbbb3b001	-0.005483628
111	0x3cf4127f	0.029793976
112	0x3ce8026c	0.028321467
113	0x3cef8973	0.029240346
114	0xbd35bd63	-0.044370066
115	0x3d084a4f	0.03327399
116	0x3d6242b9	0.055239413
117	0x3de76fce	0.11300622
118	0x3d9d4af4	0.07680312
119	0xbaca89f5	-0.0015452491
120	0xbcb5cd28	-0.022192553
121	0xbcfa8159	-0.030579256
122	0xbb962077	-0.004581507
123	0x3da8f53e	0.08249901
124	0x3bd3782a	0.0064535337
125	0xbd62aca4	-0.055340424
126	0xbc1c40bc	-0.009536918
127	0x3d36cf20	0.044631124
128	0xbcc45abd	-0.023969049
129	0xbca27132	-0.019829366
130	0x3c53137b	0.0128830625
131	0xbd4daff5	-0.050216634
132	0xbc85a481	-0.016313793
133	0xbc07beac	-0.008285206
134	0xbba6190e	-0.0050689047
135	0x3d169c72	0.03677029
136	0x3d6bb05a	0.05754123
137	0xbd80365a	-0.06260367
138	0x3d8603ae	0.065436706
139	0x3cef2d33	0.029196357
140	0x3c45fd15	0.012084265
141	0xbcd05f57	-0.025436087
142	0xbc1ca782	-0.009561421
143	0xbbce7c8e	-0.006301469
144	0x3cefe302	0.02928305
145	0xb9d39be2	-0.00040361198
146	0xbb691532	-0.0035565612
147	0x3ca5206b	0.02015706
148	0x3d931bc2	0.07183029
149	0xbbd97d33	-0.0066372394
150	0xbd48e5c3	-0.049047243
151	0x3d1416c1	0.036154512
152	0x3dbb8fdb	0.09158298
153	0xbd29a9df	-0.041421767
154	0x3db8a3a1	0.09015585
155	0x3ca53986	0.02016903
156	0xbc336340	-0.010948956
157	0xbd462a93	-0.048380446
158	0x3d260137	0.040528502
159	0x3cc6b6b9	0.02425705
160	0x3cdc6c17	0.02690701
161	0xbd4a545c	-0.049396858
162	0x3b941aa9	0.0045197797
163	0x3c9a63d9	0.01884644
164	0x3d42e18a	0.047578372
165	0xbcf57355	-0.029962221
166	0xbe015369	-0.12629475
167	0x3d0ae79c	0.033912286
168	0x3c2661af	0.0101551255
169	0xbda44a25	-0.080219544
170	0x3da40c9f	0.0801022
171	0xbc8486cb	-0.016177556
172	0x3d667d72	0.056271978
173	0xbcd17602	-0.025568966
174	0x3869b614	5.5721102e-05
175	0xbc82f3ab	-0.01598533
176	0xb9a26ea9	-0.00030981496
177	0x3d56a261	0.05240095
178	0x3d98d666	0.07462768
179	0x3c57adcd	0.013163996
180	0xbc59a580	-0.013284087
181	0xbb81869d	-0.0039528147
182	0xbd0168cf	-0.031594094
183	0xbc909192	-0.017647538
184	0x3ce504b4	0.027956344
185	0x3d29419a	0.04132233
186	0x3cb82b9f	0.022481738
187	0x3dbf970d	0.093549825
188	0x3d20109c	0.03907834
189	0x3c80ef34	0.015739061
190	0xbd7f9406	-0.062397026
191	0x3c2cbfb6	0.010543754
192	0xbd080807	-0.03321078
193	0x3b0ed97e	0.0021797116
194	0x3d43ae09	0.047773395
195	0xbcd7e7a2	-0.026355568
196	0xbc43859c	-0.01193371
197	0x3da8a313	0.08234229
198	0x3dd7d750	0.105391145
199	0xbd566366	-0.052340887
200	0xbcb2c90c	-0.021824382
201	0x3de3b910	0.11119282
202	0x3dc970ff	0.098360054
203	0x3cbd6619	0.023119973
204	0xbb2484af	-0.00251035
205	0x3c055a15	0.008139153
206	0x3d76c1fe	0.0602436
207	0xbd8ba2dc	-0.06818172
208	0xbd7ce598	-0.061742395
209	0xbcddac4e	-0.0270597
210	0xbc13009f	-0.008972316
211	0x3d20c7f4	0.03925319
212	0xbcfc746a	-0.03081723
213	0xbd4e6956	-0.050393425
214	0x3dcf588f	0.10124313
215	0x3d0687f8	0.032844514
216	0xbd186b01	-0.037211422
217	0x3db62f9a	0.08895798
218	0xbdb71e94	-0.08941379
219	0xbdb9dd8d	-0.090754606
220	0xbcfeda00	-0.03110981
221	0xbcc8f481	-0.024530651
222	0x3cb1a3ff	0.021684645
223	0x3a7a992e	0.0009559569
224	0x3c0dc9ce	0.008654071
225	0xbc540ba8	-0.012942232
226	0x3c9c604c	0.019088887
227	0xbc444c1c	-0.0119810365
228	0xbd71d267	-0.059038546
229	0xbdb7c600	-0.089733124
230	0xbe0a5fb6	-0.13513073
231	0x3cdca661	0.026934804
232	0xbde26efc	-0.11056325
233	0xba1150f9	-0.0005543377
234	0x3d9577d9	0.0729825
235	0x3d277050	0.040878594
236	0xbb1dde85	-0.002408893
237	0xbca218d5	-0.019787231
238	0x3c9544c6	0.01822127
239	0x3d55b945	0.05217864
240	0xbd732d2a	-0.059369244
241	0xbc6db5d8	-0.014508687
242	0xb95a7e64	-0.00020837184
243	0x3dc79a72	0.09746255
244	0xbd9f34fb	-0.07773777
245	0xbd2e5003	-0.042556774
246	0xbd716040	-0.05892968
247	0xbb881318	-0.004152667
248	0x3bb7291e	0.0055896183
249	0x3d845437	0.06461375
250	0xbc99945b	-0.0187475
251	0xbcb57d53	-0.022154486
252	0xbc16af6d	-0.009197098
253	0x3b87ec03	0.004148008
254	0xbd1ee548	-0.03879288
255	0x3ac5ba85	0.0015085494

fc1.bias f4 [32]
0	0xbc194e4b	-0.009357045
1	0xbca5a0c1	-0.020218255
2	0xbcb2382b	-0.021755299
3	0xbd13b5fb	-0.036062222
4	0x3ca4edd5	0.020132938
5	0xbc9899a8	-0.018627957
6	0xba1442a0	-0.000565568
7	0xbcbad511	-0.022806676
8	0x3c9f42a9	0.019440966
9	0x3d2afc0e	0.041744284
10	0x3c8fdc0d	0.017560983
11	0xbc76e435	-0.015069057
12	0x3cf9abfa	0.030477513
13	0xbd2e647d	-0.0425763
14	0xbb1d7e39	-0.0024031533
15	0xbba31ce5	-0.0049778097
16	0x3c29057a	0.010316247
17	0x3cdf1091	0.02722958
18	0xbb4acb1a	-0.0030943812
19	0x3a837a2a	0.0010030915
20	0xbcbb194a	-0.022839207
21	0xba63d87a	-0.00086916203
22	0xbc2af71b	-0.010434891
23	0x3a9ce138	0.0011968976
24	0xbd3ad506	-0.04561331
25	0xbcc21c63	-0.023695176
26	0xbd430e07	-0.0476208
27	0x3b0107aa	0.0019688406
28	0x3cbd4fcd	0.023109341
29	0x3d288057	0.04113802
30	0xb96b47e4	-0.00022438128
31	0x3d4b430d	0.04962449

fc2.weight f4 [13, 32]
0	0xbe04ff71	-0.12988068
1	0x3e8378ca	0.25678092
2	0xbe5fc9f5	-0.21854384
3	0x3d3fcedf	0.046828147
4	0x3e8449da	0.25837594
5	0xbe510e0e	-0.20415518
6	0x3d6eb488	0.058277637
7	0xbd348017	-0.04406747
8	0x3e324c23	0.17411856
9	0xbe3f2016	-0.18664584
10	0xbd7f1fe6	-0.06228628
11	0x3d1222eb	0.03567783
12	0x3e6f802d	0.23388739
13	0xbe13cf39	-0.14434518
14	0x3e4514b4	0.19246179
15	0xbd657272	-0.056017347
16	0xbde56d90	-0.11202538
17	0x3cb4dcca	0.022077937
18	0xbdc5a3e8	-0.09650403
19	0x3e53d0fe	0.20685193
20	0x3d7e0df1	0.062025014
21	0x3e4295bd	0.19002433
22	0x3e7a211e	0.24426696
23	0x3dac1105	0.08401684
24	0xbd1e11c2	-0.038591154
25	0xbe83b7fc	-0.25726306
26	0x3e6609f4	0.22464734
27	0xbe34a9fd	-0.1764297
28	0xbd310d45	-0.043225545
29	0xbe36e8a0	-0.17862177
30	0xbe4c4fe5	-0.19952352
31	0xbae3ebab	-0.001738896
32	0x3d4c01e0	0.049806476
33	0x3d0405cd	0.032232095
34	0x3e412d27	0.1886488
35	0xbdb131e3	-0.08652093
36	0x3d63d5d7	0.055623855
37	0x3e516300	0.20447922
38	0x3e20ed5e	0.15715548
39	0x3e78c5b9	0.24294175
40	0x3dc44a53	0.09584489
41	0xbdbb3772	-0.09141435
42	0x3e9e09b7	0.30866787
43	0x3df838a9	0.12120182
44	0xbd72f85d	-0.05931889
45	0x3e761ab7	0.24033628
46	0x3e602ea2	0.21892789
47	0xbdaf6710	-0.085645795
48	0x3e124226	0.14283046
49	0x3da5ec85	0.08101753
50	0xbd53482f	-0.05158251
51	0xbdc08c58	-0.094017684
52	0xbe52120b	-0.20514695
53	0x3dc57861	0.09642101
54	0x3d94b892	0.072617665
55	0xbe775b53	-0.24155931
56	0xbe83806e	-0.25683922
57	0x3e51786f	0.20456098
58	0xbe416552	-0.18886307
59	0x3d222746	0.039588235
60	0x3dcca26e	0.099919185
61	0x3e638b9c	0.22221226
62	0xbe87dfec	-0.26538026
63	0x3ce3c8f5	0.027805785
64	0x3e809639	0.2511461
65	0x3d8a1b2c	0.06743464
66	0x3d7102cc	0.058840558
67	0xbe0690e7	-0.13141213
68	0xbe694225	-0.22779138
69	0x3e8b1115	0.2716147
70	0xbe95a90e	-0.2923054
71	0x3d465d9c	0.048429117
72	0xbe55f73f	-0.20895098
73	0xbe005714	-0.12533218
74	0xbe2bf4b5	-0.16792567
75	0x3c266fd1	0.010158495
76	0x3e456a6d	0.1927888
77	0xbe4ccce3	-0.20000033
78	0x3dc76ce7	0.09737568
79	0xbe76d4eb	-0.2410466
80	0xbdb635cf	-0.08896982
81	0x3e13314c	0.14374274
82	0xbd2eab90	-0.042644083
83	0x3e1b6a31	0.15177228
84	0xbe05a0f7	-0.13049684
85	0xbdff2f07	-0.12460142
86	0x3e16a01e	0.14709517
87	0xbd56ea63	-0.052469622
88	0x3ddaea46	0.10689215
89	0x3d1aea33	0.037821006
90	0x3e2c8119	0.16846122
91	0x3e7df8b2	0.24801901
92	0xbda1efee	-0.07907091
93	0x3d500bc0	0.050792456
94	0x3e8b1c27	0.27169916
95	0x3e13cdd8	0.14433992
96	0x3e485172	0.19562319
97	0xbe6a6752	-0.22890976
98	0x3b95ef8b	0.004575675
99	0x3db5e641	0.08881808
100	0xbe6c2d6c	-0.23064202
101	0xbe50c512	-0.20387676
102	0x3e06e699	0.13173904
103	0x3e5d80c2	0.21631148
104	0x3e76c581	0.2409878
105	0x3e0fcf0e	0.14043829
106	0x3e2cabd8	0.16862428
107	0x3e2f8b4f	0.17142986
108	0x3e63136c	0.22175378
109	0x3e72cec3	0.23711686
110	0xbe991b38	-0.2990358
111	0xbdc4ec94	-0.09615436
112	0xbe1d9754	-0.15389758
113	0x3e0aff72	0.13574007
114	0xbe47bc5a	-0.19505444
115	0xbd936b01	-0.07198144
116	0x3e7a04eb	0.24415939
117	0xbe2e5414	-0.17024261
118	0x3e42083f	0.18948458
119	0x3ea4bb2e	0.32174057
120	0xbe0992e6	-0.13434944
121	0x3e86d0e9	0.2633126
122	0x3e593e08	0.2121507
123	0xbe346f61	-0.17620613
124	0xbcfebc51	-0.031095656
125	0x3d8ea148	0.06964356
126	0x3e1163f8	0.14198291
127	0xbd97cb84	-0.074118644
128	0xbe420274	-0.18946248
129	0x3dbb7566	0.09153251
130	0xbe6f802e	-0.2338874
131	0xbc8971b2	-0.016777847
132	0x3e2ac7bb	0.16677754
133	0x3e1d1f76	0.15344033
134	0x3e14bff3	0.14526348
135	0x3e75fde7	0.24022637
136	0xbdfd4089	-0.12365825
137	0x3e221fba	0.15832415
138	0x3e8a8499	0.2705429
139	0xbe29d1cf	-0.16583942
140	0x3e0e63ad	0.13905211
141	0x3e7b7a51	0.24558379
142	0xbcacc7f5	-0.02109144
143	0x3e6bc89f	0.2302575
144	0xbbd0ef23	-0.0063761636
145	0xbe460ee9	-0.19341625
146	0xbe76d54f	-0.24104808
147	0x3e7ced65	0.24699934
148	0xbbe99060	-0.0071278065
149	0xbe504713	-0.20339613
150	0x3d6ffc9b	0.058590513
151	0xbdaef1b9	-0.08542199
152	0x3e355cb6	0.17711148
153	0x3d0b1341	0.03395391
154	0x3e2cfafc	0.16892618
155	0x3e84ae1e	0.2591409
156	0xbe76026b	-0.2402436
157	0xbe503e37	-0.20336233
158	0x3e1f3cfe	0.1555061
159	0xbe87d17c	-0.2652701
160	0x3d9b4167	0.07580834
161	0x3cb2a7ab	0.021808466
162	0x3d9d75b9	0.076884694
163	0x3e163eba	0.14672366
164	0x3c828126	0.015930723
165	0xbd84dd2b	-0.06487497
166	0x3e5c3025	0.2150274
167	0xbd8ebdb3	-0.06969776
168	0xbe98cd7c	-0.29844272
169	0xbe07bb2d	-0.13254996
170	0xbd820b9f	-0.06349873
171	0x3e0283a8	0.12745535
172	0xbe958883	-0.29205713
173	0x3e0c66a2	0.13711026
174	0xbd52afda	-0.051437236
175	0x3d7065df	0.0586909
176	0x3e7cda22	0.24692586
177	0xbe002a9a	-0.12516251
178	0x3d8dadf0	0.069179416
179	0xbdc96fb2	-0.09835757
180	0xbe19f84f	-0.15036128
181	0xbe6c49a4	-0.23074967
182	0xbe90e64d	-0.28300706
183	0x3e099976	0.13437447
184	0xbe007690	-0.12545228
185	0xbe3bfa7f	-0.18357275
186	0x3decf8cd	0.115708925
187	0x3e334dc9	0.17510141
188	0xbe9489de	-0.29011434
189	0xbe4556c7	-0.19271384
190	0x3e901dcd	0.28147736
191	0xbe6ca1ac	-0.23108548
192	0xbe6dcf90	-0.2322371
193	0xbe227f43	-0.15868859
194	0x3cbaed59	0.022818254
195	0xbbb276ac	-0.0054462757
196	0x3a75d1fa	0.0009377297
197	0xbe25eee7	-0.16204415
198	0x3e45dc1f	0.19322251
199	0x3e2112a4	0.15729767
200	0xbd07558f	-0.03304058
201	0xbc709e1b	-0.014686133
202	0xbdf64e1b	-0.12026616
203	0xbe116213	-0.14197569
204	0x3e8a26ce	0.2698273
205	0xbe43c49f	-0.19117974
206	0x3e0e093c	0.1387071
207	0x3e8aad60	0.270854
208	0xbcf4b435	-0.029871086
209	0xbe057d71	-0.13036133
210	0xbe536f94	-0.20648032
211	0xbe716048	-0.23571885
212	0xbd41e148	-0.047333986
213	0xbe183f91	-0.14867999
214	0xbe039f90	-0.12853837
215	0xbdc8a092	-0.09796251
216	0x3e43cd9e	0.19121405
217	0xbd573af6	-0.052546464
218	0xbe654e3b	-0.22393124
219	0xbe6bed5f	-0.23039769
220	0x3e449619	0.19197883
221	0xbe274a69	-0.16336979
222	0xbe0966b7	-0.13418089
223	0x3d4fe452	0.050754853
224	0xbe9759b7	-0.29560634
225	0xbe7c6eb7	-0.2465161
226	0xbe0a9269	-0.13532414
227	0x3e386a58	0.18009317
228	0xbdde2425	-0.10846738
229	0x3d8c630f	0.068548314
230	0xbdf1b3ed	-0.11801896
231	0xbe0c5bf9	-0.1370696
232	0x3e660d4e	0.22466013
233	0x3e73a8a6	0.23794803
234	0x3bb8baf9	0.0056375233
235	0x3e1aa58e	0.15102217
236	0xbc99c940	-0.018772721
237	0xbe5da845	-0.21646221
238	0x3e1a2778	0.15054119
239	0x3d74217c	0.059602246
240	0x3d61140e	0.054950766
241	0x3e2b0100	0.166996
242	0x3e167072	0.14691332
243	0x3d7d3bc3	0.06182457
244	0x3e016d4d	0.12639351
245	0xbd0ad2d0	-0.033892453
246	0x3d5fd41b	0.05464564
247	0x3dc0c17b	0.094119035
248	0xbdca8684	-0.09888938
249	0x3d5c6fa3	0.053817403
250	0xbe977506	-0.2958147
251	0xbdcc3ef1	-0.099729426
252	0x3e83bdb5	0.25730672
253	0x3db852c4	0.09000161
254	0x3e639e42	0.2222834
255	0xbe88ea51	-0.2674127

fc2.bias f4 [13]
0	0x3df149ed	0.11781678
1	0x3dddbd93	0.10827174
2	0xbe304fab	-0.17217891
3	0x3e208de4	0.15679127
4	0x3dba7cfc	0.0910587
5	0x3cff0f7f	0.031135319
6	0xbe1f2714	-0.15542251
7	0x3cea13e5	0.02857394
8	0xbc48a9ea	-0.012247542
9	0x3e5244dc	0.2053408
10	0xbc2c26e8	-0.010507323
11	0x3b819648	0.0039546825
12	0xbe03dc3d	-0.12876983
