conv_net_model.ckpt (torch, 137306 bytes, 22 tensors)

layer1.0.weight f4 [16, 3, 3, 3]
000000 b4 9f a7 bd 39 7f e1 bd 22 b0 4c bc 53 3a d9 3d
       -0.08184758 -0.11010594 -0.012493165 0.106068276
000010 64 23 bc bd ce c0 de 3d 53 d1 25 be df 48 f1 bd
       -0.09186438 0.10876618 -0.16193132 -0.11781477
000020 21 51 53 be b3 46 26 3e b3 e4 9d 3d 2f 09 cf 3d
       -0.20636417 0.16237907 0.077096365 0.101091735
000030 7e c8 b2 bc 86 47 29 3e 6e 68 74 3c ec 10 fe 3b
       -0.021824118 0.1653119 0.014917476 0.007753482
000040 7f ae c0 3d 08 b8 9e bd 70 c1 f1 3d b9 3a 1b 3e
       0.094082825 -0.07749945 0.118044734 0.1515912
000050 3c a6 45 3c e8 f4 96 bb 59 62 ab 3b fe 45 ea bc
       0.012063559 -0.004606832 0.00523023 -0.028597828
000060 5d e9 4a be 30 af 15 bc 60 f8 7f 3d d5 04 75 be
       -0.19815584 -0.009136006 0.06249273 -0.23927625
000070 48 96 12 3d ff 70 ea bd 52 87 de bd 43 44 c0 bd
       0.03578785 -0.114473335 -0.10865654 -0.0938802
000080 30 4c ab bb 51 83 92 bd 4c 99 2d 3e f8 7b 00 3e
       -0.005227588 -0.07153953 0.1695301 0.1254729
000090 47 a1 e1 3d 01 73 1a 3b 74 fe f8 bd 8a aa 95 bd
       0.11017089 0.0023567083 -0.12157908 -0.07307918
0000a0 41 ce 3b 3e f0 97 fb 3d e8 79 aa bd 11 bc 18 3e
       0.18340398 0.12284839 -0.08324033 0.14915492
0000b0 72 87 7b bd 07 16 4e 3d 6f 0e 9e bd 78 f1 fe 3d
       -0.061408468 0.050313976 -0.07717597 0.124484
0000c0 57 82 28 3c 32 8c 10 be d9 cd 02 bc 57 98 c7 3d
       0.010284982 -0.1411598 -0.007983648 0.097458534
0000d0 25 d2 6f bd 0d 0a 34 3d 1f 93 10 be d6 8f e5 3d
       -0.05855002 0.043954898 -0.14118622 0.11209075
0000e0 d5 58 5f bc 12 6f 08 3e 1a 08 15 be 99 b7 13 3e
       -0.013632019 0.1332362 -0.14553872 0.14425506
0000f0 85 8d 91 bd c6 81 e3 3d 29 02 c7 3c 8c 74 19 3e
       -0.07107071 0.11108737 0.024293022 0.14985865
000100 0c 45 91 3d 75 cc 31 3e e2 63 35 3e 0a 91 45 bd
       0.07093248 0.1736315 0.17713884 -0.048234023
000110 c4 b8 08 bd 95 bb a6 bd 9f a6 49 be e8 88 09 be
       -0.03337933 -0.08141247 -0.19692467 -0.13431132
000120 01 bf 17 3e c2 56 3b 3e fb af c4 bd d5 04 0f be
       0.14818956 0.18294814 -0.09603878 -0.13966687
000130 87 7a 7f 3d fd 04 8c bd c6 50 4b bd ee 91 df bd
       0.06237271 -0.06836889 -0.04963758 -0.10916506
000140 f2 db 28 be 77 dc 8c 3d 86 21 6d be 0e 0e 26 bc
       -0.16490152 0.06877988 -0.2315732 -0.010135187
000150 48 e7 dd 3d a7 f4 e1 bd 34 ee 60 be 35 f2 4a 3e
       0.10835129 -0.11032992 -0.21965867 0.19818957
000160 d5 bc 69 3c a1 07 37 3c 54 1b f1 3d 56 8b 42 be
       0.0142662125 0.0111712525 0.117727906 -0.18998465
000170 c9 7f 83 bd 9f bc 02 3e 2b 0a 45 3e 88 e4 96 3d
       -0.064208575 0.12767266 0.1924216 0.073678076
000180 3a 2c af 3b 76 f6 d5 bb 34 29 c0 bd 3d 07 1a be
       0.0053458484 -0.0065296246 -0.09382859 -0.15041824
000190 a1 3b e7 bc 98 ea f3 bd 75 22 f6 3d 01 6b 6f bd
       -0.028226675 -0.119099796 0.12018291 -0.058451656
0001a0 fe 89 11 3e 6a 83 bb bd 7e 3a 24 3e ed a8 5c 3b
       0.14212796 -0.091559246 0.16037938 0.0033670024
0001b0 a2 b2 4f be 85 12 05 3c 35 2a 44 3d 46 8b 4e bd
       -0.20282987 0.008122091 0.047891814 -0.05042579
0001c0 e7 77 99 3d 1d 9e f9 bd 22 f7 ee bd a0 3c 2f 3e
       0.07493573 -0.12188361 -0.116682306 0.1711297
0001d0 66 d1 36 3e 10 73 52 bd 06 ef 09 3e 3b 12 15 3e
       0.17853317 -0.051379263 0.13470086 0.14557736
0001e0 49 fd 9d 3d 94 2c e0 bd 8f 23 fc bd 25 6b 1b bc
       0.07714326 -0.109460026 -0.1231147 -0.009485994
0001f0 54 92 f6 3d 3a c9 18 be 64 67 73 bd 11 96 57 3e
       0.120396286 -0.14920512 -0.059424773 0.2105334
000200 09 23 51 bd 3a 58 37 3d 89 fc 11 be 97 e7 aa bd
       -0.051058803 0.044761874 -0.14256491 -0.083449535
000210 ea 99 31 3d 3f 81 4b bd aa 6a f3 3c d9 53 24 bd
       0.043359675 -0.049683806 0.029713947 -0.040119026
000220 71 7b a9 3d 9a f1 52 bd e0 1e e4 bc cc 73 bd bb
       0.08275498 -0.05149994 -0.027846754 -0.0057816263
000230 16 0d dc 3d f5 1b 8b bd a4 ce 67 3e 0e 62 40 3e
       0.107446834 -0.06792442 0.22637421 0.18787405
000240 ae a7 97 bd 8b e6 e3 bd ad b7 03 3d b8 41 f8 3d
       -0.07405029 -0.11127957 0.03215759 0.1212191
000250 05 de 3b bd cf 6b 24 be 1b cc 36 3d 16 22 45 be
       -0.04586603 -0.1605675 0.044628244 -0.19251284
000260 ab e1 8b be 5a 3e 46 3d f0 19 0e be 69 13 3a 3d
       -0.27320608 0.048399307 -0.13877082 0.045428667
000270 58 56 7a 3b ca c5 13 be ac bd a4 3d e0 aa 46 3e
       0.0038198438 -0.1443092 0.080439895 0.19401121
000280 d7 72 9e 3d 32 82 3e be c3 c4 22 3d 7a 2a 20 3e
       0.07736748 -0.18604353 0.039738428 0.15641204
000290 be 23 25 3d a1 9b 0c be f6 ed 25 be 83 89 a9 3c
       0.04031729 -0.13731243 -0.16204056 0.020695454
0002a0 31 de 3e 3e dd 10 b3 bd 23 ed 83 3d 84 dd 60 3b
       0.18639447 -0.08743451 0.064417146 0.003431172
0002b0 78 31 67 3d 8d cc f9 bd 26 7c 0a 3e 31 a5 a9 bd
       0.05644366 -0.12197218 0.13523921 -0.08283461
0002c0 9e b6 d9 bd b1 c3 db 3d f7 7f 45 3e d9 91 48 3e
       -0.106305346 0.107306845 0.19287096 0.19586886
0002d0 ba 3f fa bc d2 d3 54 be 1a eb a0 bd 45 ae 38 be
       -0.030547965 -0.20783928 -0.07857342 -0.18035229
0002e0 95 1e e2 bd 5b d9 10 3e 70 be 06 be cb 2a 2c 3e
       -0.11040989 0.14145415 -0.13158584 0.16813199
0002f0 65 70 12 be 79 ec b3 bd 1f 64 c8 3d ee 7b e8 bd
       -0.14300688 -0.08785338 0.097847216 -0.11351763
000300 ad 46 b2 bc c8 e9 3b 3e 8d 17 14 3d a0 90 cc bc
       -0.021762216 0.18350899 0.036155272 -0.024971306
000310 3f 57 01 bd ad 0d 5e bd 01 3b 59 be 71 c2 84 be
       -0.031577345 -0.05421226 -0.21213914 -0.25929597
000320 e2 1e af 3c 13 99 42 3d 75 e7 bb bd 93 c4 f2 bd
       0.02137703 0.047509264 -0.09175006 -0.118539
000330 9d 76 3b bd 53 72 9a 3d cb 77 11 3e a5 2c 75 be
       -0.045767415 0.07541337 0.14205854 -0.23942812
000340 23 6d f2 3c 17 7d 3b be 58 b7 2d 3e f5 f0 94 3d
       0.029593056 -0.18309437 0.16964471 0.072725214
000350 e8 b9 57 3e fd 3c 29 3e ad 18 f7 3d 3a bc 81 3d
       0.21067011 0.16527171 0.120652534 0.063347295
000360 21 42 72 bd 3d f8 28 3e 32 9a 6e bd f8 fe 29 be
       -0.059145097 0.16500945 -0.05825252 -0.16601169
000370 db 2a a1 3b b3 a3 1b 3e e5 0b df 3d 47 de f7 bd
       0.004918439 0.15199165 0.108909406 -0.12102943
000380 f3 58 2a 3e 02 af 04 3d 62 b1 2f be fc d9 e5 3d
       0.16635494 0.032393463 -0.1715751 0.11223218
000390 fe b4 18 bc 64 f1 a7 bd 09 3b 42 3e d4 59 29 be
       -0.009320496 -0.082003385 0.18967833 -0.16538173
0003a0 d0 f9 ba bd 56 5e 00 ba 2f ff 10 be 87 db f1 bd
       -0.09129679 -0.00048968697 -0.14159845 -0.1180945
0003b0 bd 28 af 3d c1 57 4e be 71 86 92 3d 51 ed 5e bc
       0.08552692 -0.20150663 0.07154549 -0.013606385
0003c0 7a 99 12 be b8 54 5a 3e fe 62 43 3e 30 48 7a 3d
       -0.14316359 0.2132138 0.19080731 0.061104
0003d0 d0 27 49 3e 07 7d c5 bd 83 31 1d be d4 6f 09 be
       0.19644094 -0.09642988 -0.15350918 -0.13421565
0003e0 98 83 1c 3e 48 cc 3b bd 65 13 22 bd 32 6a f5 bc
       0.15284574 -0.045849115 -0.039569277 -0.029957864
0003f0 ee 7b 0b 3e 7a 54 89 3d 8c 8f 0f 3b 3f da 80 3d
       0.13621494 0.06705566 0.002190563 0.06291627

layer1.0.bias f4 [16]
000000 f7 1d 77 be 7c 7a aa 3c 64 0c 99 3e 42 c4 fc 3d
       -0.24132524 0.020810358 0.29892266 0.12342121
000010 8e 73 98 3d 54 81 a6 bd 0b 14 0c bd 9e 46 db bd
       0.07443915 -0.08130136 -0.034198802 -0.107068285
000020 95 41 86 3d c1 55 26 3e 97 42 e9 3d a5 8f c2 3d
       0.065554775 0.1624365 0.11389654 0.09500054
000030 97 62 2c 3e 3d d6 1a 3e cc 0c df bd 64 fc a0 bd
       0.16834484 0.15120788 -0.10891113 -0.0786064

layer1.1.weight f4 [16]
000000 60 04 64 3f 46 37 84 3f 75 55 8a 3f 1e f8 92 3f
       0.89069176 1.0329368 1.080733 1.1481969
000010 66 49 6a 3f 9d 3c 82 3f b6 31 7f 3f 40 50 93 3f
       0.9151825 1.0174748 0.9968523 1.1508865
000020 30 fa 85 3f 9c 5d 7b 3f bd 45 6c 3f a9 67 3a 3f
       1.0466976 0.9818971 0.9229391 0.7281442
000030 2b 5e 40 3f 4a ab 84 3f 9e c1 83 3f a0 e0 7f 3f
       0.7514369 1.0364773 1.0293462 0.99952126

layer1.1.bias f4 [16]
000000 15 7a ff bc fe 1d 6f bb ce 2e 0b 3e b0 78 d5 bc
       -0.031186143 -0.0036486383 0.13592073 -0.026058525
000010 e3 a1 59 3d c6 18 a8 bd 90 98 89 3d 32 e2 b6 bd
       0.053132903 -0.0820785 0.06718552 -0.08929862
000020 95 d9 a3 b9 42 0b 2a 3e 05 21 bd be 94 dd a5 bd
       -0.00031251894 0.16605857 -0.36939254 -0.08098903
000030 86 8c 0c be 7a ac 6f be e3 f0 e8 3d 97 2d e7 be
       -0.1372548 -0.23405638 0.113740705 -0.4515197

layer1.1.running_mean f4 [16]
000000 13 36 96 be 6c 94 30 3c 7c e4 a0 3e 55 bd 01 3e
       -0.2933813 0.010777574 0.3142432 0.1266988
000010 85 59 ab 3d 67 50 2b 3d 1a c4 73 3b b1 30 b2 bd
       0.08366684 0.041824725 0.0037195743 -0.087006934
000020 27 46 c2 3d 49 f9 36 3e 3c 68 95 3e e5 35 af bd
       0.09486037 0.17868532 0.29181087 -0.085552014
000030 d1 c7 e1 bd 5b b7 2d 3e 75 fc 99 bd f5 d7 01 3e
       -0.1102444 0.16964476 -0.075188555 0.12680037

layer1.1.running_var f4 [16]
000000 7f 9e f7 3c 7d d2 41 3c c4 43 15 3d e4 25 de 3c
       0.030226944 0.0118299695 0.03644158 0.027117677
000010 de 3b ee 3b a4 00 ec 3c b9 92 ba 3c 86 1e 2d 3d
       0.0072703203 0.0288089 0.022775041 0.042265438
000020 10 8c 54 3d d5 b7 76 3c e5 ef 7a 3d 79 32 b2 3d
       0.051891387 0.015058477 0.061263938 0.08701033
000030 1d 74 0d 3e 85 e9 cf 3d 2e ff 34 3d 8c 0b f5 3d
       0.13813825 0.10151962 0.04418867 0.11965093

layer2.0.weight f4 [32, 16, 3, 3]
000000 eb 0d c9 3d 1b ea 7d bd 08 42 02 bd af d7 9d bd
       0.09817108 -0.06199084 -0.031801254 -0.07707154
000010 1a 3c 9b 3c 86 c6 8c bd c9 12 23 bd 14 cf 5a bb
       0.018949557 -0.06873803 -0.039812837 -0.0033387588
000020 e3 8d 60 bd aa 4d e9 bd 0d 7f 03 3c e4 5a 18 3c
       -0.054822814 -0.11391766 0.008025897 0.009299014
000030 9a 3d 25 3d 7f 73 11 3c d1 66 8e bd a2 44 97 3c
       0.04034195 0.008877634 -0.069532044 0.018465344
000040 bd bd aa 3c c9 af bc 3d a1 af 62 3d bf 79 b7 bd
       0.020842427 0.09213216 0.055343274 -0.08958768
000050 5e 66 12 be fa 74 f7 bc da 93 a0 bc e9 ef e4 bc
       -0.14296862 -0.030207146 -0.019601751 -0.02794643
000060 10 ab 0a bd b0 96 4a 3d be 30 37 3e 3c bf da 3c
       -0.033854544 0.049460113 0.17889687 0.026702516
000070 c9 13 c6 bb 23 a5 69 bd ee 32 49 3d 3a 92 14 3c
       -0.006044839 -0.057042252 0.049120836 0.009068066
000080 f5 06 1a be 2a 78 76 3c e3 aa 27 be 63 d1 8f bd
       -0.15041716 0.015043298 -0.16373782 -0.07022359
000090 1b e2 1e 3d 06 4b a7 bd df 37 10 be 60 da cf 3c
       0.03878985 -0.081686065 -0.14083813 0.025372684
0000a0 78 03 d8 bc e0 47 05 be f1 b3 87 3d d7 e5 14 bd
       -0.026368842 -0.130157 0.06626118 -0.036352005
0000b0 80 89 75 3d 6a 6c 59 3d bc 01 a9 3c bf a9 fb 3b
       0.059945583 0.053081907 0.02063071 0.0076801474
0000c0 ab 86 fe bc 0f f4 c1 bd c1 bb 0d 3b 49 25 c2 3d
       -0.031070074 -0.094703786 0.0021626803 0.09479768
0000d0 99 c4 10 3d a3 90 37 3c a1 44 45 3b 8f 19 fc 3d
       0.03534374 0.011203918 0.003010072 0.123095624
0000e0 5e a5 f1 bd 30 8d c5 bd 8a d8 31 bc a0 10 ea bd
       -0.117991194 -0.0964607 -0.01085485 -0.11428952
0000f0 ae 5d ee bc 63 6f 49 bd 9c f2 85 ba fd 3b c8 bd
       -0.029097404 -0.049178492 -0.0010219398 -0.09777067
000100 bd 28 a5 3c 31 53 14 3e 17 37 15 3d 17 75 b1 3d
       0.020161027 0.1448486 0.03642949 0.08664911
000110 d6 5b 86 bd 2c 27 66 bc 00 a5 67 3d 37 90 23 be
       -0.06560485 -0.014047425 0.05655384 -0.15972982
000120 de b9 8e bd 32 73 3c 3d a5 55 d1 3d 23 fe 13 bd
       -0.06969045 0.046008296 0.102214135 -0.036131036
000130 50 2f 31 3c a5 57 08 bd 8e 51 ae bc 44 bc 8d bd
       0.010814503 -0.03328671 -0.021279123 -0.069206744
000140 89 39 3f bc a8 b1 b7 3c f9 24 04 3d 77 9c 88 bb
       -0.011671432 0.02242358 0.032261822 -0.0041690427
000150 f9 fc 76 3d 0a 54 58 bc 03 b1 e1 bb 27 9c 1c bd
       0.060299847 -0.01320363 -0.0068875565 -0.038234856
000160 1b 13 03 bd 1e d6 03 3e bc 90 09 bd 8f be ad 3c
       -0.032000642 0.12874648 -0.033585295 0.02120903
000170 30 c3 b7 3c d5 a0 04 3d d0 5e 01 3d b8 21 08 be
       0.02243194 0.032379944 0.03158456 -0.13294113
000180 ed ca 61 3d 24 f1 da 3d fe b0 db 3c 58 c8 46 3d
       0.055125166 0.10690525 0.026817795 0.048530906
000190 a7 f3 d9 3c dd bd 17 bb 3f cd b2 bd 49 89 cc bd
       0.02660544 -0.0023153939 -0.08730554 -0.099871226
0001a0 8b cd ac bc 1c 6e e5 bd d6 1b e9 3c 9c 09 b3 bd
       -0.021094104 -0.11202642 0.028455656 -0.08742067
0001b0 e2 7c 33 bd 4d fe 20 3d b7 be 7d bd 6e 80 b5 bb
       -0.04382027 0.03930502 -0.061949458 -0.0055389917
0001c0 57 8a 2d bd bd 53 5b bc 56 d1 78 bd 48 0a a8 bd
       -0.04236826 -0.013386664 -0.060746513 -0.08205086
0001d0 65 75 54 3d a3 7c 65 bd 7c eb 1e bc f0 52 dd bd
       0.05186977 -0.056027066 -0.009699699 -0.10806835
0001e0 2f c4 42 bb fb c9 10 bd 20 1e e2 bc e6 17 5d 3b
       -0.0029718985 -0.035348874 -0.027602255 0.0033736168
0001f0 81 f4 3d bd 75 d9 6d bd f5 bc 06 3e 4c d8 57 bd
       -0.046375755 -0.05806871 0.13158019 -0.05269651
000200 b6 91 f9 bd 4e 82 c1 bc 9c ee 09 be 47 c8 8b bc
       -0.12185995 -0.023621704 -0.13469929 -0.017063273
000210 3c f5 e8 3d 8c 95 59 3d e6 b6 33 3d d4 3a 58 3d
       0.113749 0.053121135 0.043875597 0.052790478
000220 11 f4 1d 3d 12 22 15 bd ff 39 fb 3d f4 f5 07 3e
       0.038562838 -0.036409445 0.12266921 0.13277417
000230 60 cf a8 bd f8 4e c0 3d 33 8f 96 bd 94 4a 00 3d
       -0.08242679 0.09390062 -0.07351532 0.031321123
000240 0f 66 9a bd 30 f2 dc bd 87 13 93 3c 35 37 64 3d
       -0.075389974 -0.10788381 0.017953647 0.055716712
000250 60 e4 e5 3b 8b 6d 8c 3d 66 f8 95 bc e9 57 a4 bd
       0.00701575 0.06856831 -0.018306922 -0.0802458
000260 b7 4d 03 3c 79 dd b3 bd 8f 64 ba bd be 44 75 3a
       0.008014134 -0.08782477 -0.09101211 0.00093562517
000270 08 e9 0d be d5 e4 2e bd ca 0c ba bc 16 c7 18 bd
       -0.13858426 -0.0426987 -0.022711176 -0.03729924
000280 22 7c ff bc 5d b7 4b bc 57 23 5d 3c 6d b4 1a be
       -0.03118712 -0.012433854 0.013497195 -0.1510789
000290 f6 db f4 bc 26 96 8a 3c bc 69 45 3c 98 9a 62 bd
       -0.029890042 0.0169173 0.012049135 -0.055323213
0002a0 b5 4b 02 3c 1f 7f 9a 3d 96 e6 9e bc 35 b7 12 bd
       0.00795262 0.07543778 -0.019397061 -0.03581925
0002b0 7f 64 8e 3d 20 19 7f 3d f6 fd 02 be 6d 30 b2 3b
       0.06952762 0.06227982 -0.12792191 0.0054379017
0002c0 11 b2 2e 3e 6c 7b d6 bb 18 1b 2c bd 9c 27 66 be
       0.17060114 -0.0065454748 -0.042018026 -0.22476047
0002d0 f0 6e 94 bd 5c f5 d3 bc c9 40 88 3d 96 60 0d bd
       -0.07247722 -0.025873832 0.06652982 -0.03451594
0002e0 97 2c c4 bd 5b e1 f6 bd cc 90 b2 3b 61 e1 58 3d
       -0.09578817 -0.12054702 0.00544939 0.052949313
0002f0 b4 64 8b 3d ee ef 1c bd 3a 76 a7 bc 41 0f 33 3d
       0.06806317 -0.038314752 -0.020442117 0.04371572
000300 f2 f1 1a 3d f8 fa e0 bd 53 18 e8 bd 63 e3 ba 3d
       0.037828393 -0.109853685 -0.113327645 0.09125402
000310 62 60 4d bd f0 a2 00 be 9d d7 bc bd 66 77 66 bd
       -0.050140746 -0.12562156 -0.092208125 -0.05626621
000320 ec 46 28 3d f9 f0 29 bd a0 9a ca bc 6c 91 72 3d
       0.04108326 -0.041489575 -0.024731934 0.059220716
000330 50 42 aa 3c 76 5c 96 3d 60 cc 18 bd 91 0e a9 bc
       0.020783573 0.07341854 -0.037304282 -0.020636829
000340 94 1d 6b 3d b0 f7 09 bd 8c ee 4a bd e6 5e d8 3b
       0.057401255 -0.03368348 -0.049543902 0.0066031097
000350 75 99 e0 3d 3a 73 2e bd b0 16 e8 3d e3 99 91 bd
       0.109667696 -0.042590357 0.11332452 -0.0710943
000360 6f a3 ca 3d 39 09 39 bd b1 a8 94 bd 7b 31 1c 3c
       0.09894454 -0.04517481 -0.07258738 0.009533281
000370 55 8b 0a be 05 2d 4e be 57 81 ab 3c 40 b4 be bd
       -0.13529713 -0.20134361 0.020935697 -0.09311724
000380 06 a5 c4 bd a5 23 88 3c fd 2e 7f bd fe 9d c6 3c
       -0.09601788 0.01661856 -0.06230067 0.024245258
000390 12 8f 61 bd d4 ef a2 bd 4b a1 b6 bd d8 05 33 bc
       -0.055068083 -0.079559 -0.08917483 -0.010926686
0003a0 14 b0 8a 3c f4 48 e6 3c a5 23 74 3d 81 b1 15 bd
       0.016929664 0.028110959 0.059604306 -0.036546234
0003b0 7d 6d 79 bd 2f 7c a7 3b e6 97 50 3d 67 ba d5 bc
       -0.06089543 0.0051112394 0.05092611 -0.02608986
0003c0 02 1c a3 3d 33 58 9f 3c 42 02 45 bd 84 78 f6 bc
       0.079643264 0.019451236 -0.048097856 -0.030086763
0003d0 b9 29 c4 3c 06 ad 6e 3d 50 69 93 bd ca 38 bc bb
       0.023945676 0.058270477 -0.07197821 -0.0057440745
0003e0 07 3e fd 3b 84 b9 87 bd f1 39 c4 bd de 24 83 3b
       0.0077283415 -0.06627181 -0.09581364 0.0040021976
0003f0 44 d5 50 bd 70 ab 7c 3c eb 48 b9 3d 2c e4 6b bd
       -0.050984636 0.015421733 0.09047111 -0.05759065

layer2.0.bias f4 [32]
000000 ba e7 8a bd e8 c9 c6 3c f9 92 44 3d b7 20 90 3c
       -0.067824796 0.024266198 0.047991727 0.017593725
000010 4e f2 1c bd 80 58 ff bc 72 00 3a bd fe c6 57 bb
       -0.038317017 -0.03117013 -0.04541058 -0.0032925005
000020 8d 46 81 3c c0 db 6a bd bb 5d eb 3d 15 27 26 3d
       0.015780712 -0.057338476 0.11492487 0.040564615
000030 cd 6f 47 bd 5a ba 29 bd 97 db 66 bc 02 d5 33 3d
       -0.048690606 -0.041437484 -0.01409044 0.043904312
000040 27 0f a8 bd c8 54 ee 3c 79 2e 85 3d 39 ea 33 bd
       -0.08206015 0.029093161 0.065030046 -0.043924544
000050 0e f5 19 3c 98 8e 83 bd c5 a2 ca 3d 3a 3b bd 3c
       0.0093968045 -0.06423682 0.09894327 0.02309953
000060 a7 9a 05 bd bd 25 2d 3d e4 c6 64 bd 01 0e 68 3d
       -0.03261819 0.04227232 -0.05585374 0.05665398
000070 73 2b 4b ba 56 fd 58 3d 98 9e b9 bc 34 02 e3 bd
       -0.000775031 0.052975975 -0.022658631 -0.110844046

layer2.1.weight f4 [32]
000000 44 98 5b 3f 15 f2 7f 3f 1a 7f 5d 3f bc 50 64 3f
       0.85779214 0.9997876 0.86522067 0.8918569
000010 b4 d4 69 3f 04 57 81 3f 61 a0 6d 3f 3f 2f 3b 3f
       0.91340184 1.010468 0.92822844 0.73118967
000020 ac 9a 88 3f ef 3b 6f 3f 4a 41 83 3f 18 bb 58 3f
       1.0672202 0.93450826 1.02543 0.8466048
000030 08 b3 45 3f e2 74 4e 3f 63 0f 4f 3f f3 d0 68 3f
       0.77226305 0.806471 0.80882853 0.9094383
000040 cf 6e 6f 3f fe 0b 87 3f 7f b0 6c 3f 7b 87 53 3f
       0.93528455 1.0550535 0.9245681 0.826286
000050 80 c3 66 3f 1f 76 5b 3f 87 5a 6b 3f 79 1f 82 3f
       0.9014206 0.85727113 0.9193501 1.0165855
000060 ff 28 66 3f 73 d6 6e 3f ed e6 67 3f 61 78 7e 3f
       0.89906305 0.93295974 0.9058674 0.99402434
000070 eb 81 85 3f ed 00 7c 3f 31 6f 88 3f e4 25 58 3f
       1.0430273 0.9843891 1.0658933 0.84432817

layer2.1.bias f4 [32]
000000 ba fb e9 be b8 43 1a bf d2 c1 cf be 3d 08 bf be
       -0.45699865 -0.6025958 -0.4057756 -0.37310973
000010 f7 3d 9c be 3e 95 97 be 2b 60 95 be dd e2 77 be
       -0.30516025 -0.2960605 -0.29174933 -0.24207635
000020 67 e3 e9 be 38 dc 0e bf 3a 12 a7 be cf 5d b9 be
       -0.45681307 -0.5580478 -0.32631093 -0.36204383
000030 02 d9 8f be 54 b6 5c be 1b 8c ca be 44 25 8a be
       -0.2809525 -0.21553928 -0.39560017 -0.26981556
000040 c9 af cd be 29 d1 cc be 09 7b ea be cf 55 b4 be
       -0.40173176 -0.40003327 -0.45796993 -0.35221717
000050 88 ba cb be 9d f8 9e be e4 9c d7 be fc dc ff be
       -0.3979075 -0.31049052 -0.42111886 -0.49973285
000060 02 b9 b4 be 73 91 e1 be 4f 0e dd be 16 ca 4e be
       -0.352974 -0.4405628 -0.4317498 -0.20194277
000070 b0 15 15 bf 5e 72 06 bf 9e fe 03 bf 09 e0 52 be
       -0.5823622 -0.5251826 -0.5156039 -0.20593275

layer2.1.running_mean f4 [32]
000000 e1 2b 47 bf fc de 97 bf 11 7c 42 bf 00 95 5b bf
       -0.7780133 -1.1864924 -0.7597056 -0.8577423
000010 8d df 6c bf 15 f2 9e bf 76 fd df bf 29 ca ca be
       -0.9252861 -1.2417628 -1.7499225 -0.3960736
000020 93 99 a7 bf 18 48 68 bf ea 33 6e bf 13 c6 5c bf
       -1.3093742 -0.90735006 -0.93047965 -0.8623974
000030 82 04 72 bf 36 14 7f bf bf 13 87 bf 36 e9 64 bf
       -0.9453813 -0.99640214 -1.0552901 -0.8941835
000040 ae 77 90 bf 25 68 36 bf af 58 4e bf 40 93 36 bf
       -1.1286523 -0.7125266 -0.8060407 -0.71318436
000050 4c 60 88 bf 44 9d 96 bf 28 42 65 bf 72 cb 8a bf
       -1.0654387 -1.1766744 -0.8955407 -1.0843337
000060 e0 ac 89 bf 06 03 36 bf f6 aa 91 bf f4 fc 3f bf
       -1.0755882 -0.71098363 -1.1380298 -0.7499535
000070 a8 26 8e bf 68 a3 44 bf af f4 95 bf 48 e0 81 bf
       -1.1105547 -0.7681184 -1.1715297 -1.014657

layer2.1.running_var f4 [32]
000000 ab b5 0e 3f 5e e9 20 3f 74 da 32 3f 44 0b 0b 3f
       0.55745953 0.6285609 0.69864583 0.54314065
000010 c7 bc 27 3f 82 92 5c 3f db ea c8 3f 2a 52 18 3f
       0.65522426 0.86161053 1.5696672 0.5950037
000020 3e a7 84 3f 65 37 1f 3f c3 e9 26 3f d8 dd 83 3f
       1.0363538 0.621939 0.6520044 1.0302076
000030 54 c3 5c 3f c4 41 1d 3f 36 22 1d 3f 73 6e 6c 3f
       0.8623555 0.61428475 0.61380327 0.9235603
000040 67 58 65 3f 71 92 41 3f cd f7 4a 3f 7c 90 4c 3f
       0.89588016 0.75614077 0.79284364 0.79907966
000050 ed e6 18 3f 30 46 85 3f 69 d9 8b 3f 43 21 7e 3f
       0.59727365 1.0412045 1.0925723 0.99269503
000060 10 63 1c 3f 3c ff 0c 3f 75 95 7a 3f 3f 30 1a 3f
       0.6108866 0.55076957 0.97884303 0.6022987
000070 e2 90 68 3f ea 4e 00 3f fa 03 7a 3f 4c 59 6a 3f
       0.90846074 0.50120413 0.9766232 0.91542506

layer3.0.weight f4 [32, 32, 3, 3]
000000 a5 c8 95 bc 0f ef 2c 3d 95 73 4a 3d ef fa 63 3d
       -0.018284151 0.04222017 0.049426634 0.05565923
000010 0b 24 0f bd 7b c0 26 bd 21 8f d9 3b a1 4e a0 bd
       -0.034946483 -0.040710907 0.0066393767 -0.07827497
000020 bb 6a d0 3c 3e 19 30 bc 9a 42 f7 bd 05 8a d6 bd
       0.025441518 -0.010748206 -0.1207325 -0.10475544
000030 d8 6b db 3d 55 10 a3 3d 13 2c d7 bc 23 ba 56 3d
       0.10713929 0.079620995 -0.026266133 0.052423608
000040 ff e3 dd bb 60 50 4a 3b 9a 54 2b bd 15 d5 01 bd
       -0.006771564 0.003087066 -0.04182873 -0.03169735
000050 ad 42 ac bd 95 88 85 3d d6 4a 7f 3d a8 8a c4 bc
       -0.08411155 0.065201916 0.06232723 -0.023991898
000060 aa 50 55 3d f3 69 c0 3d 0b 3c 17 3c f1 7d 69 3d
       0.05207888 0.09395208 0.009230624 0.057004873
000070 d4 8a e7 bc 39 61 ac 3b a4 64 20 bd 47 c5 10 3d
       -0.02826444 0.0052606133 -0.03915848 0.03534439
000080 3b 08 b7 3c 9e ce 0b 3c 86 c4 58 3d 8d e4 ec 3c
       0.022342792 0.008533148 0.052921794 0.028917575
000090 d0 ab 05 3d 9e 17 e8 3c 00 e5 3d 3c d2 48 e7 bc
       0.032634556 0.028331574 0.011590242 -0.028232966
0000a0 3e 3a 1b 3d c3 55 1e bc 03 1b 39 bd c4 0b 41 3d
       0.03789734 -0.009664002 -0.045191776 0.04713036
0000b0 8c 55 86 3d f1 98 23 3c 77 3c 04 bc 18 80 69 3d
       0.065592855 0.009985195 -0.008071057 0.057006925
0000c0 03 3a ed bc b5 29 86 bc 61 25 3f bd 6b 75 3e bd
       -0.028958326 -0.01637731 -0.046666507 -0.046498697
0000d0 e4 76 42 3c 07 a0 e4 bc f8 2f d0 3c 4a 00 22 3d
       0.011869166 -0.027908338 0.025413498 0.039551057
0000e0 d2 de 26 bc 5b 0c 00 3c fc 1a 80 3d ae 54 03 bb
       -0.01018496 0.007815446 0.06255147 -0.0020039487
0000f0 6f eb b5 bc 63 41 cd 3c 1c a2 01 bd fb 6a bc 3b
       -0.02220699 0.025055593 -0.03164874 0.0057500578
000100 61 8f b5 3d 29 6e 50 bc 70 bd 88 bc f5 ba f7 bc
       0.08865238 -0.012721577 -0.016691893 -0.030240515
000110 09 19 7e bb cd 99 ac 3c 6b e1 d2 3c 96 fe 55 3c
       -0.0038772246 0.021069432 0.025742253 0.013061186
000120 9a 6e d1 bd df bf 10 be b4 05 15 bd 6d ee d5 bc
       -0.10226174 -0.14135693 -0.036382392 -0.026114667
000130 66 99 04 bd 65 bc 28 3d 0d 1f 67 bd f6 fd eb bb
       -0.032372855 0.041195292 -0.056426097 -0.0072019054
000140 82 d0 ae bd 41 9c 49 3d 99 d8 1c 3d 31 b0 cb bc
       -0.085358635 0.04922128 0.0382925 -0.024864288
000150 67 fa d8 3d b8 96 23 3d cd 79 0a bc a2 b9 22 bd
       0.105946355 0.03993866 -0.008451891 -0.039727814
000160 f9 7c 5f bc 3a 23 93 bd 5e 5d 18 3d 18 0d ed 3d
       -0.013640636 -0.07184453 0.037198417 0.11574763
000170 ae 23 18 bd 6b 51 63 ba de 62 f0 3c 50 be bb 3c
       -0.0371434 -0.0008671495 0.029344019 0.022917897
000180 47 0c 96 bd 96 f6 66 3c 17 59 25 bc be 70 dc 3c
       -0.073265605 0.014096877 -0.010092041 0.026909228
000190 c1 05 90 bc d7 b5 de bd bb 4e 58 3c 53 27 38 3c
       -0.017580869 -0.10874527 0.013202365 0.011239844
0001a0 07 32 2e bd 80 12 f0 bc 37 4b ed 3c 38 98 26 3c
       -0.04252818 -0.029305696 0.02896653 0.010168128
0001b0 c1 15 f3 bc 21 e4 e2 bc 58 33 f2 bd 8c 2e 87 bd
       -0.029673459 -0.027696671 -0.11826199 -0.06600675
0001c0 3e 94 b0 3c 15 ff 58 bd c1 71 03 3c 00 6d 20 3d
       0.021555062 -0.05297764 0.0080227265 0.03916645
0001d0 6b 76 ab bd 4e 0a 3b bc c5 bc e2 bd 0b c2 3d 3d
       -0.08372196 -0.011416031 -0.11071161 0.046327632
0001e0 6e 98 b4 bc ed 19 f5 3b 8e 3d b6 3c e8 e7 78 3d
       -0.02204534 0.0074798972 0.022246148 0.060768038
0001f0 06 60 9d 3d 30 6b 23 3c 36 aa 95 bd 56 53 60 bd
       0.07684331 0.009974286 -0.07307856 -0.054766975
000200 36 bd 96 3c 9a 56 9d bd f1 ea f8 bc 30 ab e0 bc
       0.01840077 -0.076825336 -0.030385466 -0.027425379
000210 64 0c 22 3d 98 a1 14 bc bd 62 c0 bc 2e eb 93 3d
       0.039562598 -0.00907173 -0.023484582 0.07222591
000220 9f 47 c9 bc 88 68 3d 3c 1c 74 8a 3c e1 53 7e bb
       -0.024570284 0.011560567 0.016901068 -0.003880732
000230 4c d9 14 bc 2d e6 b9 3d 8a 46 fd bc ad 16 8f bd
       -0.009085011 0.09077106 -0.030917425 -0.06986747
000240 00 a6 8e bd 7b 19 75 bd 81 72 87 bd 94 68 d3 3c
       -0.06965256 -0.059838753 -0.06613637 0.025806703
000250 72 18 95 3b 01 4d e3 3c 76 ee 1d 3e 75 e2 9c 3d
       0.0045500332 0.02774668 0.15422997 0.07660381
000260 bc 53 09 3d 85 da 96 bc 90 49 cd bd 27 84 1c bd
       0.03352712 -0.018414745 -0.100237966 -0.038211968
000270 9d 47 e7 b8 02 1b b0 bd 6e 2c b7 bd b8 c6 3f bd
       -0.000110282774 -0.08598901 -0.08944021 -0.046820372
000280 0f 33 00 be 6d f8 a7 3d d1 65 41 bd 0f 7d d5 bd
       -0.12519477 0.0820168 -0.04721624 -0.10424244
000290 23 ac d4 bb fd b0 93 3c d7 4b 8a 3d 2f 09 45 3d
       -0.006490247 0.01802873 0.067527466 0.04810446
0002a0 6a 8c 4b 3a d8 55 16 3d 5e 0e 82 bc 8d ea d6 bd
       0.0007764759 0.03670296 -0.015875991 -0.10493956
0002b0 e1 9b 8a bd 47 44 86 bd 41 a7 b3 3c b2 58 d1 bc
       -0.06768013 -0.065559916 0.021930339 -0.025554989
0002c0 26 11 c3 3c 46 14 78 3c 2f ae c4 bc 3e 66 f2 3c
       0.023811888 0.015141552 -0.024008838 0.029589768
0002d0 6a 54 33 bd 26 eb f0 bc d1 94 cd bc d7 17 45 bd
       -0.043781675 -0.029409003 -0.025095375 -0.04811844
0002e0 e9 b3 03 3d 26 2a 9a 3b 1a 8d b0 bd ee 52 fd bc
       0.032153998 0.0047047315 -0.08620663 -0.030923333
0002f0 b3 c3 86 3d 64 52 a6 3c b2 74 50 3c bd 0f 6e 3d
       0.065802954 0.020302959 0.012723135 0.058120478
000300 b1 62 29 3d c9 ae 8b 3a 10 31 92 3d 88 b4 da 3c
       0.041353885 0.0010656948 0.07138264 0.026697412
000310 c3 84 d8 3b cf f4 9b 3c 8c 88 35 bc 75 db 1f 3d
       0.0066076233 0.019037632 -0.011079919 0.03902765
000320 76 e9 b0 3c 13 a3 0d 3d 65 8d b9 3b 9d 5f 01 bc
       0.021595698 0.034579348 0.0056626075 -0.007896331
000330 56 32 37 3d e6 87 f4 3d aa 2b 33 bc 2c a7 00 3d
       0.04472574 0.11939983 -0.010935703 0.031409428
000340 de 2a 15 3d 56 0f 2b bd b8 92 83 3d ce c6 ce 3d
       0.036417834 -0.041762672 0.06424469 0.10096513
000350 2d 6a a3 3c 68 09 e5 bc ce f3 92 bd 4f 7d ed 3c
       0.01994809 -0.027958587 -0.07175408 0.028990416
000360 6f 09 da bc 25 f2 f2 bd f1 93 fa 3d 78 48 aa 3b
       -0.026615826 -0.11862592 0.12235249 0.005196627
000370 e2 11 ec bd 26 f6 79 3d 03 53 8a bc aa 5e c1 bc
       -0.115268484 0.06102576 -0.016885286 -0.02360471
000380 78 1a 2f 3d 7d f9 40 3b 3c bb bd 3c e8 69 c2 bd
       0.042749852 0.0029445582 0.02316057 -0.09492856
000390 fa f0 31 3d db 20 93 bd 6e c2 bb 3c 65 ba ed 3d
       0.043442704 -0.07184001 0.02291986 0.116078176
0003a0 5c 11 20 3e c7 d1 6c 3d a1 b4 88 bd 89 07 14 3e
       0.15631622 0.057817247 -0.06675077 0.14456
0003b0 69 f1 60 3d 53 c7 29 bd 8f a2 00 3d 95 8b 83 bd
       0.054917727 -0.041449856 0.031405028 -0.064231075
0003c0 37 d2 b5 bc ce f3 07 bc 02 7e dc 3c 79 61 62 3d
       -0.022194965 -0.008297874 0.026915554 0.05526874
0003d0 21 6e 38 3e e7 6f b1 3d cd 21 ea bc ef 17 97 3c
       0.18010761 0.08663922 -0.02858057 0.01844403
0003e0 b3 37 bf b9 9e ff 93 bd f8 b0 e2 bd 87 07 b3 bd
       -0.00036471858 -0.072264895 -0.1106891 -0.0874167
0003f0 5d 0a 13 be 24 0e 01 be bd 02 6d 3d 1d d4 dc bd
       -0.14359422 -0.1260305 0.05786394 -0.10782645

layer3.0.bias f4 [32]
000000 fa bd 69 3c a3 29 3c 3d 28 bc e0 bc 0c b7 87 3d
       0.014266485 0.045938145 -0.02743347 0.0662671
000010 5d 74 2d bd 2a 14 eb bc 94 a8 23 bd b8 1f 47 bd
       -0.0423473 -0.028696138 -0.03995569 -0.048614234
000020 fb 03 bc bd 23 37 4d bd b9 57 44 bd c3 e6 62 3a
       -0.09180447 -0.05010141 -0.04793522 0.0008655602
000030 3d c1 8c bd af a2 f3 bb d6 41 b1 bc c6 a2 4e 3d
       -0.06872795 -0.007435165 -0.021637838 0.0504482
000040 07 cd e5 bd db ef 98 bd 92 d8 82 3c 12 6b 02 3d
       -0.112207465 -0.07467624 0.01597241 0.03184039
000050 58 8a 59 bd 59 3e 07 bd 2e 0e 5a bb 82 d8 92 bd
       -0.05311045 -0.033018444 -0.0033272612 -0.07170202
000060 5e 16 f2 3b b9 50 3b bd 67 c9 29 bd 5e f5 8a bc
       0.0073879203 -0.04573128 -0.041451838 -0.016962703
000070 59 e8 28 3d 8c 42 62 bd 38 29 57 3c 95 f4 92 bd
       0.04123721 -0.055239245 0.013132386 -0.071755566

layer3.1.weight f4 [32]
000000 d1 66 ba 3f b2 03 cc 3f 9d db c8 3f d6 76 bc 3f
       1.4562627 1.5938628 1.5692021 1.4723766
000010 21 21 b8 3f 1e c9 d4 3f 40 05 b1 3f 0b 7e bd 3f
       1.438511 1.6623876 1.3829727 1.480409
000020 df c3 c1 3f ce e6 ca 3f d3 79 ba 3f 3e 37 b6 3f
       1.51379 1.5851686 1.4568428 1.4235609
000030 d6 06 c0 3f 45 94 bc 3f a5 eb be 3f d4 8b c2 3f
       1.5002086 1.4732748 1.4915663 1.5198922
000040 00 75 b4 3f e2 cd c3 3f 1c 81 ba 3f 6c 6b c2 3f
       1.4098206 1.5297205 1.4570651 1.5189033
000050 23 33 bd 3f 12 61 b8 3f f7 34 b5 3f 85 f3 bf 3f
       1.4781231 1.4404624 1.4156789 1.4996191
000060 47 5e aa 3f 1e 2a b9 3f 07 e1 c6 3f 86 91 c3 3f
       1.3310021 1.4465978 1.5537423 1.5278785
000070 ee 17 b9 3f a3 6c b7 3f 6d d3 a8 3f ff 41 c1 3f
       1.4460428 1.4330028 1.3189522 1.5098265

layer3.1.bias f4 [32]
000000 09 a2 aa be 05 52 04 bf 7d d0 0b bf c8 98 ab be
       -0.33326748 -0.5168765 -0.54615 -0.33515
000010 94 a0 db be 8c ad e1 be 09 58 a1 be 15 fd 06 bf
       -0.4289595 -0.44077718 -0.31512478 -0.5272992
000020 20 ed d6 be 06 ee f0 be 91 6b de be be a8 b0 be
       -0.41977787 -0.47056597 -0.43441442 -0.3450374
000030 fc 6c aa be 89 1c e8 be 99 1d 06 bf e1 fd a4 be
       -0.33286273 -0.4533427 -0.5238891 -0.32224944
000040 eb 5b b8 be 4b 7c bb be 4f c7 f6 be 3c af b3 be
       -0.36007628 -0.36618266 -0.48198935 -0.3509463
000050 ef 6f d0 be 7b fe bc be 6f ee b8 be 4a 01 f2 be
       -0.407104 -0.36912903 -0.3611941 -0.47266608
000060 0f 82 66 be 2a 08 d9 be 55 29 f5 be 89 6e d9 be
       -0.22510551 -0.4238904 -0.47883096 -0.42467144
000070 e9 11 c9 be eb b5 b4 be 13 d9 ac be 1c cf 05 bf
       -0.39271477 -0.35295042 -0.33759364 -0.5226915

layer3.1.running_mean f4 [32]
000000 c8 5a 0e be 07 c1 5b 3d 7a 21 cd bd 53 23 26 be
       -0.13901818 0.053650882 -0.10016151 -0.16224413
000010 3b 5a 91 bd a9 d5 02 3e 38 bb bf 3d f0 88 18 bd
       -0.07097288 0.12776817 0.09361881 -0.03723997
000020 12 a7 13 3e 94 04 e0 bc 24 83 3a bd 3e c3 5b bd
       0.14419201 -0.027345933 -0.04553522 -0.053652994
000030 0e 1a b2 3d 0d 5d 91 be 78 b9 3d 3d f7 75 c8 bd
       0.08696376 -0.28391305 0.046319455 -0.09788125
000040 b5 ac a4 3b 5b 34 81 3d 3e 0e 35 3d 12 ff 29 bc
       0.005025471 0.06308814 0.044203036 -0.010375755
000050 e3 8a c7 bd 45 21 25 3e 42 3f 05 3e 91 05 2a 3d
       -0.097432874 0.16125973 0.13012412 0.041509215
000060 9d 58 9c 3d 47 6b 25 3d 39 e5 b9 3d 0b f8 35 3d
       0.07634089 0.04038551 0.09076924 0.044426005
000070 7e c9 9d 3d b1 d5 b2 3d 30 6b b0 3c e6 99 95 3d
       0.07704447 0.08732165 0.021535486 0.073047444

layer3.1.running_var f4 [32]
000000 de 69 ef 3d cf e6 ed 3d d2 cd e0 3d b7 52 e2 3d
       0.116901144 0.11616289 0.10976757 0.11050933
000010 8d 6b ab 3d 48 0d 17 3e 32 a5 da 3d 48 8d fd 3d
       0.08370123 0.1475116 0.1067604 0.12380463
000020 71 a0 c8 3d b7 12 de 3d 52 42 c7 3d 20 10 d2 3d
       0.09796227 0.10843413 0.097294465 0.10256982
000030 f9 27 f7 3d a4 f1 c1 3d 8a 8c d6 3d 10 c4 d4 3d
       0.12068171 0.094699174 0.104760244 0.103889585
000040 c4 01 c7 3d fa 17 f4 3d 53 7e dc 3d a9 03 e2 3d
       0.09717134 0.11918636 0.10766282 0.11035854
000050 18 45 cb 3d ae ef e6 3d 42 36 cd 3d 7a c3 cd 3d
       0.09925288 0.11276184 0.100201145 0.1004705
000060 45 a0 0a 3e 71 d2 df 3d 54 f8 05 3e 7b 4f d1 3d
       0.135377 0.109288104 0.13083011 0.10220238
000070 99 69 e8 3d 8d bd eb 3d c5 2f fb 3d ab 6b d7 3d
       0.11348266 0.11510763 0.12264971 0.10518583

fc1.weight f4 [32, 512]
000000 11 99 97 3d 58 fa 96 3d 6c fb 8f 3c e1 ec 71 bc
       0.07402242 0.07371968 0.017575942 -0.014765949
000010 4f ab 01 bc 3e b5 cc bd 7d 62 3d be cb 0b 6d 3d
       -0.007914378 -0.09995507 -0.18494602 0.057872575
000020 3c 24 e6 3d ca b2 82 3d ea b5 24 3e 36 31 9f bc
       0.1123738 0.063817576 0.1608502 -0.019432645
000030 2c f5 84 3d cd 89 3f 3d 23 15 13 3d 38 92 22 bd
       0.06492075 0.046762276 0.03590883 -0.039690226
000040 e0 cc a1 bc 90 1f 72 bd cc c4 13 3d 4d c3 38 3c
       -0.019751012 -0.05911213 0.036076352 0.011277032
000050 5a 03 00 3a 3c 03 31 bd b0 3e 68 3c e0 1e d0 bc
       0.0004883312 -0.043215975 0.014175102 -0.025405347
000060 7e 64 2c bd ee f3 ea bc 83 8a 85 bd 57 4f 58 bd
       -0.042088024 -0.028680768 -0.0652056 -0.05281004
000070 f3 c0 60 bc 34 d6 13 3d a4 2a a6 3d 91 9d 5f 3d
       -0.013717878 0.036092952 0.08113602 0.054593626
000080 19 18 60 bc 48 ce 9d bb 1e e5 1e bd dc 3a ce 3c
       -0.01367762 -0.0048158504 -0.038792722 0.02517455
000090 c6 f1 23 bd fc a0 b1 3c 58 53 f3 3b d6 46 b8 bd
       -0.040025495 0.021683209 0.007425707 -0.08997886
0000a0 05 ca 43 3d 45 82 b6 3d b5 fa 29 3d 08 57 1c 3c
       0.047800083 0.08911566 0.04149886 0.009542234
0000b0 a9 ab c1 3c d1 2c 7d 3d 26 de b0 3c ae b0 3e 3d
       0.023641424 0.06181032 0.021590304 0.046555214
0000c0 72 2f 89 bc 3a 16 8b 3b 7b a1 c7 3b 3c 46 9f bb
       -0.016746257 0.004244593 0.006092248 -0.0048606675
0000d0 cc 12 e6 bc 20 0d ea 3d 27 fe 8d ba fa fe de 3d
       -0.028085135 0.11428285 -0.001083319 0.10888477
0000e0 da 01 86 3d 23 d6 f4 3d 29 fb 04 3e cd 44 61 bb
       0.06543322 0.11954906 0.12986435 -0.0034373284
0000f0 65 c3 13 3d ad db 49 bc cf 82 b1 3c 71 38 aa 3d
       0.036075015 -0.012320441 0.02166882 0.083115466
000100 76 18 3b bd cd 74 94 3d 32 97 93 bc d8 c6 3d bd
       -0.045677625 0.072488405 -0.018016431 -0.04633221
000110 ee b7 83 bc 9f d4 34 be 51 bf af bd be d6 a3 bd
       -0.016078915 -0.17659234 -0.085814126 -0.07999943
000120 cc 2e e6 3b 67 37 9a bd e4 ad 8d 3d 90 05 c6 3d
       0.0070246216 -0.075300984 0.06917933 0.0966903
000130 e8 19 eb bc 9d 5a f9 b9 6b 0c 64 3c e4 1c 6e 3a
       -0.028698877 -0.00047560493 0.013918976 0.00090832845
000140 f4 65 67 bd d8 34 53 bd 44 9d a9 bc bc 67 5e 3c
       -0.056493714 -0.051564068 -0.020704873 0.013574537
000150 33 d3 dc bd 15 15 0f bd e5 7e bb bd 40 7f 44 bd
       -0.107824706 -0.034932215 -0.091550626 -0.047972918
000160 09 32 a7 bd b1 dd 7a 3d b8 de 02 3e 05 76 88 bc
       -0.0816384 0.061246578 0.12780273 -0.016657839
000170 6d ff 9c 3c 10 62 97 3b 08 2d 1f bc 35 58 17 3d
       0.019164765 0.0046198443 -0.009715326 0.036949355
000180 8d 72 17 3d 99 6f 3d bd 45 aa 2f bd 85 a2 ae bc
       0.03697448 -0.046249006 -0.04288699 -0.02131773
000190 ec f9 c1 3b 4c 38 dd 3a 0f f9 75 bd 93 94 db bc
       0.0059196856 0.001687774 -0.060051974 -0.026804244
0001a0 67 03 47 bd 12 dd 0d 3c 25 e5 7e 3d d8 e9 bf 3c
       -0.04858723 0.008658664 0.062230248 0.023426935
0001b0 03 cc 58 3c 24 95 e6 3c c7 ff 20 38 ec c2 9f 3d
       0.013232234 0.028147288 3.8385184e-05 0.0780085
0001c0 56 f4 f5 3b a3 c7 d3 bc ec 21 90 bd c3 8f 76 bd
       0.0075059338 -0.02585203 -0.0703772 -0.060195696
0001d0 31 de 7b 3b 0d 43 32 bd 57 9b f4 bd 69 31 c0 bd
       0.0038431997 -0.043520976 -0.11943691 -0.09384424
0001e0 40 be 39 bd a3 63 5d 3c 3f 93 47 3d c4 ee c6 3b
       -0.045347452 0.013512525 0.04872441 0.0060709435
0001f0 ed c1 a4 bc b8 5c 78 3d f9 f3 6b 3d a8 f7 90 3c
       -0.020112002 0.0606353 0.057605717 0.017696217
000200 cf 09 1f bd 86 83 1b 3c e6 f3 43 bd 7c 90 bb 3b
       -0.038827714 0.009491807 -0.04784002 0.005724011
000210 93 31 c9 3c 49 cd 38 3d 19 93 24 3d 64 48 6f bd
       0.024559772 0.04511765 0.040179346 -0.058418646
000220 80 5a 4f bd 06 50 bb bd 70 0d d4 bd cc bc f6 bd
       -0.050623417 -0.09146123 -0.103541255 -0.12047729
000230 21 b1 7a bc 2a 08 90 3c 05 82 fc 3d ed d4 50 3d
       -0.01530102 0.017582018 0.12329487 0.05098431
000240 af 68 98 3d 6e 50 54 3d c5 f6 06 3d 30 d0 99 3d
       0.07441842 0.051834516 0.03295018 0.07510412
000250 63 c1 f0 3c dd 55 67 bd 77 f6 67 3d 6c 2b 19 3e
       0.029389089 -0.05647837 0.05663153 0.1495797
000260 35 04 e9 bc f8 3f ba 3d f1 04 c7 3c aa dd d8 bd
       -0.028444389 0.09094232 0.024294348 -0.10589154
000270 27 14 21 bd a2 bf a0 3d 7e bd c0 3d c7 66 75 3d
       -0.03932586 0.07849051 0.09411143 0.05991247
000280 bf 97 99 3a 73 43 a4 3c e8 78 1e 3d bc 75 91 3b
       0.0011718197 0.020051694 0.038689524 0.004439084
000290 49 ef a2 bc 8b 98 56 bd c7 33 93 bc 14 35 69 bd
       -0.01988949 -0.05239157 -0.017969025 -0.056935385
0002a0 ca 21 7c bd e2 3a c4 3c 9d b5 cc bc 6c 85 7b 3c
       -0.06155566 0.023953859 -0.024988944 0.0153516345
0002b0 e6 bf aa bd 36 47 ca 3b 68 e9 5d 3d 7b b6 c6 bc
       -0.08337383 0.00617304 0.05417767 -0.024256935
0002c0 f0 ff 9e 3b d7 cd 62 3c b3 11 ea bb 92 ec 88 3d
       0.0048522875 0.013843021 -0.007143223 0.06685747
0002d0 23 29 34 bc 9c ff 52 3c 73 44 c4 3b 8f 35 88 3b
       -0.010996136 0.012878325 0.005989605 0.0041567753
0002e0 57 8a ea bb a7 c1 94 3d 25 6c 17 be 05 e6 a3 3c
       -0.0071576047 0.07263499 -0.14787348 0.020007143
0002f0 f3 02 22 3d d5 a0 a8 bc 30 cf b2 3c a1 55 67 3d
       0.039553594 -0.020584503 0.02182731 0.056478146
000300 32 dc a9 3c e9 1c 7b bc 1b da 11 3d 05 c5 c9 ba
       0.02073488 -0.015326717 0.035608392 -0.0015393799
000310 23 44 40 bd 59 98 1d bd 9d 18 8f 3c b0 c9 17 bb
       -0.04693998 -0.03847537 0.017467791 -0.0023160987
000320 a4 b8 c0 bc 9c b2 db bc 33 09 59 3d 89 35 68 bd
       -0.023525544 -0.026818566 0.05298729 -0.05669168
000330 5a bd f2 3d 8e 6a e0 3d ff 59 c8 3d 1c c2 83 3c
       0.11852522 0.10957824 0.097827904 0.01608377
000340 f5 05 02 3d ca 25 b6 3d 48 1d cf 3d c5 cf 54 bc
       0.031743962 0.088939264 0.10113007 -0.012988989
000350 cc f1 ae bb 5b f6 53 3d 70 52 22 3e 99 5d 15 bd
       -0.005338883 0.051748615 0.1585176 -0.036466215
000360 5c da 84 3d 48 68 3d 3e 57 3a 2a 3d d0 38 eb bb
       0.06486961 0.18496811 0.041559543 -0.0071784034
000370 3c ce 82 3c 2b 89 c7 3d 73 41 38 3c 30 71 35 bd
       0.01596748 0.097429596 0.011246073 -0.044297397
000380 25 3c bd 3c ec 69 01 bc 2a 01 33 bd fc bd b2 3c
       0.023099968 -0.007898789 -0.043702282 0.021819107
000390 15 f0 ba bd 80 c0 19 be b3 ea d8 bd 8d c4 80 bd
       -0.09127823 -0.15014839 -0.1059164 -0.06287489
0003a0 f7 eb 06 3c 5c ab 3e 3e a7 3f 9d 3b 26 52 1b 3d
       0.008234969 0.18620056 0.0047988477 0.03792014
0003b0 bd c6 56 bd 97 c3 9a 3c 3d 57 10 be 87 fb b5 bb
       -0.052435625 0.018892093 -0.14095779 -0.005553666
0003c0 79 99 32 bb 25 55 6e 3d 20 fa c9 ba 70 72 0a 3e
       -0.0027252121 0.05818667 -0.0015409626 0.13520217
0003d0 39 b5 67 3d dd 47 22 bc f5 db 36 3d 26 16 d1 3c
       0.05656931 -0.009904829 0.04464336 0.025523257
0003e0 fe 43 26 3d 65 83 02 3e 1a 86 a1 3c 5a 28 26 bc
       0.040592186 0.12745436 0.019717265 -0.0101414565
0003f0 c5 57 71 bd d9 b7 ba 3d 0a e6 54 bd b3 94 2c 3c
       -0.058921594 0.091170974 -0.051977195 0.0105334995

fc1.bias f4 [32]
000000 58 92 15 3d 4d 0d 53 bd f6 78 98 bd c2 83 e5 3b
       0.036516517 -0.051526356 -0.074449465 0.007004232
000010 01 67 09 3d 92 ca bc bc c5 3c df 3b 57 c6 11 3c
       0.033545498 -0.023045812 0.006812664 0.008897386
000020 b4 f1 42 3d b3 24 e8 3a 24 9a 70 3d cd 8b 60 3d
       0.047593787 0.0017711133 0.05874075 0.054820824
000030 be 4f 8b bd 60 64 d2 bc 65 3b 3a bc 2a 34 81 bc
       -0.06802319 -0.025682628 -0.0113667 -0.015771944
000040 f3 e4 48 bd ff f8 3d 3e 17 ae b8 bc 61 f6 12 be
       -0.049046468 0.18552016 -0.02254395 -0.14351799
000050 51 96 6d bd b1 9d ca bd aa fe 00 3c 5b 8a 01 3d
       -0.05800468 -0.098933585 0.007873217 0.031626087
000060 bd 68 9e 3c 7e 59 ce bc 09 90 82 bc 0f 6d 97 3c
       0.019337052 -0.025189158 -0.015937822 0.01848462
000070 48 61 24 3d 74 f7 0c bd 49 1b 8b bd 23 8a 91 bd
       0.040131837 -0.034415677 -0.067923136 -0.071064256

fc2.weight f4 [43, 32]
000000 89 16 aa 3e 97 3d 1e be fd bc ca 3d 3d 8e 04 bd
       0.33220318 -0.15453182 0.09899328 -0.03236221
000010 47 12 f3 3d 46 8c f3 bd fe d6 57 3e 92 c0 65 3d
       0.118687205 -0.118919894 0.21078107 0.056091852
000020 fd 51 a8 3e 0f 64 22 3e 63 3d a7 bd d7 06 2f 3e
       0.32875052 0.15858482 -0.081660055 0.17092453
000030 5a 48 e0 3d ed 19 c7 3b 2b b5 45 be 25 e3 80 be
       0.109513 0.0060760886 -0.19307391 -0.25173298
000040 cd 14 b8 3d b2 84 10 be 53 44 db 3d 37 d7 22 3d
       0.089883424 -0.14113119 0.10706391 0.039756026
000050 e0 f2 9d bd 50 d2 95 3e 37 73 be bd 25 64 a6 3c
       -0.0771234 0.29262018 -0.09299319 0.020311425
000060 b9 f0 7f 3d 2c 37 6d 3d 4d f7 54 be 21 54 a6 bd
       0.06248543 0.057913944 -0.20797463 -0.08121515
000070 52 3a ef bd 4a 45 72 be 9e fe 35 3e 4d 40 6a bc
       -0.116810456 -0.23659244 0.1777291 -0.014297557
000080 9f b0 3a 3e 43 38 ab 3d 8b 70 6c 3c be 9a 41 3e
       0.18231438 0.083603404 0.014431129 0.18906686
000090 43 63 34 be 17 4a ca 3d c4 37 5b 3e 27 27 8d bd
       -0.1761599 0.09877413 0.21407992 -0.06892233
0000a0 f8 19 89 3e a6 e7 80 3e 16 3a 25 3e cc 77 ad bd
       0.26777625 0.25176734 0.1613544 -0.08470115
0000b0 ab 3a f7 bd eb e1 d5 3d c8 85 ed bd 02 e9 a8 bd
       -0.12071737 0.10443481 -0.115977824 -0.08247568
0000c0 a4 fa 46 3e 3f 7e 49 3d d8 34 19 be 85 fd 61 3d
       0.1943155 0.049192663 -0.14961565 0.055173416
0000d0 b4 bb 51 3e 7c 05 61 3c d0 62 5a be 94 0a e3 3d
       0.2048176 0.013734218 -0.21326756 0.11086002
0000e0 e7 e6 2b bd e2 0a a5 bc 7a ab a0 3d 43 eb 54 be
       -0.041968253 -0.02014679 0.078452066 -0.2079287
0000f0 07 6e 88 bd 5a aa 87 3d 9f 8e e4 bc e6 5d e5 bd
       -0.06661611 0.06624289 -0.027900038 -0.1119955
000100 d2 26 11 be 14 d6 ae 3d c7 37 c2 bd cb 9d 94 3d
       -0.14174965 0.08536926 -0.09483295 0.07256659
000110 a7 9b 8c bd 9d 60 43 be f1 26 06 3e 1e ec f8 3d
       -0.06865626 -0.19079824 0.13100792 0.12154411
000120 d2 dd 8f be 63 1e 8d be ed 5a d8 be 4e 40 30 3e
       -0.28098923 -0.27562246 -0.4225687 0.1721203
000130 2d 67 20 be 44 59 12 3e b2 20 05 bd 0c 32 66 3e
       -0.15664358 0.14291865 -0.032501884 0.22480029
000140 ef e5 a8 bd 88 a0 af bc 78 07 99 3d 1b f3 3e be
       -0.08246981 -0.021438852 0.07472128 -0.18647425
000150 48 d3 b8 3e 21 7c b2 bd 51 b2 d1 bd e7 ce 0c 3e
       0.36098695 -0.08715082 -0.10239089 0.13750802
000160 93 26 66 be 44 31 11 3d 70 30 07 3e 24 9a a5 3e
       -0.22475652 0.035447374 0.13202071 0.32344162
000170 f2 35 03 3b 84 35 f5 3d fb ae 71 3d c2 7b 4b bd
       0.0020021168 0.11973098 0.059004765 -0.04967857
000180 92 03 67 3e ed 8d 8c bd 2d f6 0e 3d b0 d9 82 3e
       0.22559956 -0.06863008 0.03490274 0.25556707
000190 2f e2 df 3d db e0 1f bd 1d 96 83 3d 69 01 ff 3d
       0.10931813 -0.0390328 0.06425116 0.12451441
0001a0 00 ae 4d be a1 a5 17 3d 67 8c 70 be 8d c9 0c be
       -0.20085907 0.03702319 -0.23491059 -0.1374876
0001b0 b0 56 8c 3e 3d 61 a3 be 0e bd e2 3d be ad 21 be
       0.27409887 -0.31910124 0.110712156 -0.15788934
0001c0 05 11 82 3d b8 4a 4c 3e 21 0b 61 3e 0b cb 0f 3d
       0.063509025 0.19950378 0.21976902 0.035105746
0001d0 28 26 ad 3d 6d a6 0a be e5 d9 49 be a0 84 53 3d
       0.08454543 -0.13540049 -0.19712026 0.051640153
0001e0 8b 00 dc bc 32 e4 e5 3d 82 ef a3 bd cc 44 6e bd
       -0.026855728 0.112251654 -0.08004667 -0.05817108
0001f0 7a 9b 1b be 40 80 3c be ec ad 88 be be 01 4c 3e
       -0.15196028 -0.18408298 -0.26695192 0.1992254
000200 c5 10 1b be ac b4 1c 3d 6b 3a f1 bd ae a2 a9 be
       -0.15143116 0.03825824 -0.117787205 -0.33131927
000210 70 4c 0d be b0 ca 98 3e 14 f2 2a 3c bf b9 34 3e
       -0.1379869 0.29842138 0.0104336925 0.17648982
000220 78 b8 b5 3d 31 e4 92 be 70 54 87 be 41 16 44 be
       0.08873075 -0.2868972 -0.26431608 -0.19149114
000230 36 c6 8c 3e f0 84 82 be 91 e7 38 3e 12 07 bb bd
       0.27494973 -0.25492048 0.18057086 -0.09132208
000240 d8 fd 60 3e cf 0c 07 bd a9 d1 71 3e b7 e1 d3 bd
       0.21971834 -0.0329712 0.23615135 -0.10345786
000250 14 4b 23 be 9c 9c b0 be 3c ed 8f be d1 f4 d7 bd
       -0.15946609 -0.34494483 -0.28110683 -0.10544742
000260 31 3f 56 be 8e 16 9f 3d 06 e9 8a 3e d1 05 06 3e
       -0.20922543 0.07767974 0.27130908 0.13088156
000270 6a 43 fa bd 3f 0b a5 3e ea 88 5b 3e 65 40 b5 bd
       -0.122198895 0.32235143 0.21438947 -0.08850173
000280 48 e5 a7 be 59 08 5e 3c ba 0f 8f 3e a5 76 a6 3c
       -0.32792115 0.013551795 0.27941686 0.020320246
000290 07 11 da 3d 13 c3 ac 3e 02 29 dd 3d 49 10 90 3d
       0.10647779 0.3374258 0.10798837 0.07034356
0002a0 81 2d fe 3d 97 a8 51 3e 46 6d 4f be 53 bb 00 be
       0.12411023 0.20474468 -0.20256528 -0.12571459
0002b0 1b 09 66 be 96 14 af be 76 2d 1a be da a0 66 3e
       -0.22464411 -0.34195393 -0.15056404 0.22522298
0002c0 f4 ba b1 be f9 46 3b 3d d9 8d 8b be c6 03 78 bd
       -0.34712946 0.04572198 -0.2725666 -0.060550474
0002d0 2e be c3 bd 25 89 2a be 74 51 70 3d 9d 7a 45 3d
       -0.09557758 -0.16653879 0.05867143 0.048212636
0002e0 0e 9f 8e 3e 8b bb a5 3d 3c a9 18 3e cd cf 89 3e
       0.27855724 0.080924116 0.14908308 0.26916352
0002f0 c9 f8 e1 be 74 70 23 3e fa be a4 3e 7a a0 d4 3d
       -0.4413512 0.15960866 0.32176954 0.10382171
000300 15 c1 9c 3e 89 25 22 3d a4 c4 9b 3d fc 26 86 bd
       0.3061606 0.039586578 0.076058656 -0.065504044
000310 d0 9d a5 be 5d c0 bd 3c 0e 21 1d 3e 27 da 81 3e
       -0.32346964 0.023163015 0.1534464 0.2536175
000320 5c 49 b2 ba fd d9 3c be c1 13 4a be e4 fb fd bc
       -0.0013602185 -0.18442531 -0.19734098 -0.0310039
000330 dc 42 41 3c c3 66 e3 3d 2b e1 0e be af 7e 9b be
       0.011795726 0.111035846 -0.13953082 -0.3037009
000340 02 04 58 bd 00 af 38 3e 86 98 24 3c 35 80 36 be
       -0.052738197 0.18035507 0.01004613 -0.17822345
000350 48 b5 0a 3e 06 e7 a0 bd 2d ba fb 3e f2 62 c5 bd
       0.13545716 -0.07856564 0.49165478 -0.09638013
000360 78 8c 48 be 00 09 7d 3d 55 b9 55 3e b7 d2 9e bd
       -0.19584835 0.06177616 0.2087148 -0.077550344
000370 1a a2 b4 bd f9 5b 1b bd c6 50 53 3e 43 78 d4 3e
       -0.08819981 -0.03792951 0.20636281 0.41498002
000380 18 50 ba be 6f 00 d6 3d c8 81 62 bb 15 4d 2b 3e
       -0.36389232 0.104493015 -0.003456222 0.16728623
000390 af a7 e1 bd 60 6e e9 bd e0 8a 0e 3e bc 09 0e 3e
       -0.11018311 -0.113980055 0.13920164 0.13870901
0003a0 46 d5 94 bd 83 b0 2a 3e 7c 85 28 3e 2f 90 8d 3e
       -0.07267241 0.16668896 0.1645717 0.27649066
0003b0 bc 3b 3e be 1e d0 83 3e d1 5d 96 be 95 d3 94 3c
       -0.18577474 0.25744718 -0.2936845 0.018167296
0003c0 22 76 17 3e 82 b3 7c be f6 65 28 3d 9c ba fd bd
       0.14791158 -0.24677852 0.041112863 -0.123891085
0003d0 69 0c fa bd 76 dc 66 be 79 b9 6c bd 6f 48 30 3e
       -0.12209398 -0.22545037 -0.057794068 0.17215131
0003e0 42 b6 f9 3d 8d 53 11 be 8e 63 2d 3e 4d a4 0b 3e
       0.12192966 -0.14192028 0.16932508 0.13636895
0003f0 1b fc a3 bd f3 f6 7d 3e 97 73 44 3e 6f 2b 6a 3e
       -0.0800707 0.24801235 0.19184719 0.22868131

fc2.bias f4 [43]
000000 c0 e0 7d 3d 7c b3 a1 3d 2e f7 44 be 02 29 21 3e
       0.061981916 0.07895562 -0.19234917 0.157383
000010 c3 30 c0 3d 64 33 76 bd 6d fb 68 3c 5c d1 b0 bd
       0.093843006 -0.060107604 0.014220101 -0.08633682
000020 36 ab 85 3d f8 ea a5 3d 0d df 40 3e 7e 1f 0a 3e
       0.065267965 0.08101457 0.18835087 0.13488576
000030 46 f6 19 bd 97 97 36 3e 78 35 32 3e 96 e0 b4 3d
       -0.03758838 0.17831264 0.17403209 0.08831899
000040 65 df 1c 3e 98 66 47 3d 2e fa 6f 3e cf a0 07 3c
       0.15319593 0.048681825 0.2343528 0.008278086
000050 a6 d3 19 be b5 c2 1c 3d f7 a5 30 be 60 76 fc bd
       -0.15022144 0.038271625 -0.1725081 -0.12327266
000060 e8 38 09 3d 2e fd d8 3c 80 f6 1c ba 99 c5 9c 3d
       0.033501536 0.026487913 -0.0005987659 0.07654876
000070 6c 7c 68 be 49 87 16 bd 16 17 c0 3d 21 a6 16 be
       -0.22703713 -0.03675011 0.09379403 -0.1471181
000080 ce 55 d2 bc 9f 93 b5 bd 28 78 91 3d 05 14 2f bc
       -0.02567568 -0.08866047 0.07102996 -0.010685925
000090 b8 33 47 be aa b4 6d bd 96 b2 3c 3c 1a e3 9f bd
       -0.19453323 -0.058033623 0.011517188 -0.07806988
0000a0 f4 19 05 3c cf 87 d8 3a f7 42 49 3e
       0.0081238635 0.0016519966 0.19654451
